best_para_path/baseline_filmtrust50.20.650.150.250.251.010.00.5_p10_20mf_explicit_seed0_ex1_0.001_0.0001.pt (torch, 130927 bytes, 2 tensors)

user_embedding.weight f4 [1208, 20]
0.4366517 -0.0766819 -0.033315387 -0.07492786 0.08080558 0.32881793 -0.32836282 -0.33148766
-0.27305168 0.00020445598 0.14213231 0.092364594 -0.2214861 0.30309495 -0.35278207 -0.60694456
0.23864825 0.51568305 -0.0711845 -0.307609 0.10043299 -0.30035883 0.18977158 -0.052811507
0.28786084 0.016722819 -0.0496089 -0.43190905 0.11542454 0.17196235 0.080755726 -0.19414958
-0.036636855 0.040107418 -0.016325798 -0.024670148 0.15250903 0.0822725 0.08616835 -0.096098416
0.18942523 -0.2856267 0.29498413 -0.01754491 0.27288324 -0.02791963 0.12476263 -0.25273865
0.006287369 0.24085209 0.20047283 -0.19873561 0.07700282 -0.10757188 0.077625215 -0.021819586
0.019167341 0.1623665 0.16002262 -0.12023069 0.028643876 -0.08913341 -0.0488068 -0.20965432
-0.04783397 0.3644446 -0.45849267 -0.046234712 -0.40985957 0.102527305 0.63087505 0.22815646
0.015451927 0.30923194 -0.07350941 0.41621616 0.65545624 0.5219773 -0.21508396 -0.32102603
0.19811144 -0.2788343 0.35895842 -0.14355703 0.22569785 0.07430543 0.035354715 -0.34266996
0.0006533709 0.14508551 0.14084426 -0.15739428 -0.13592102 0.023528006 -0.058485515 0.06261103
-0.0531066 0.05616302 0.016581053 -0.059493512 0.5306931 -0.044392385 -0.27570608 -0.18359928
0.14483717 0.5124704 -0.21046717 -0.21196233 -0.4640318 -0.092578776 0.11399431 -0.06112709
0.029940913 0.12536132 -0.065140866 -0.050023336 -0.12962115 0.2779482 -0.15363903 0.10210515
0.339589 -0.012790206 0.15842421 -0.29777518 -0.043800402 0.16531737 -0.2027907 -0.34532872
-0.10777683 0.0020075869 0.28372073 0.09856875 -0.34344774 0.4607219 -0.1977648 -0.3319793
0.42789698 0.47626808 -0.0759877 -0.5025005 0.2153874 0.15381785 -0.023833754 -0.5563513
-0.15835834 0.5745907 -0.28118983 -0.08586915 -0.2534666 -0.1861792 -0.029860664 0.18784341
-0.16120178 0.16130683 -0.35323665 -0.19856606 0.47133702 0.3674759 -0.43656787 -0.37500855
0.581052 -0.072299846 0.33016476 -0.032018527 0.1676969 -0.09340238 -0.14186804 -0.28298575
-0.03624603 0.17752822 0.29433814 0.13601089 -0.12983313 0.159191 -0.0046316315 -0.21831891
0.1482969 0.44825214 0.112366036 -0.1066192 0.30838984 0.0066202185 0.11061217 -0.13578281
-0.07925854 0.22080936 -0.15915531 -0.23475158 -0.35587716 0.276666 0.37763575 0.2974235
-0.12146488 0.27125514 0.10036244 -0.5150814 0.51880467 0.6521115 0.2192098 -0.618778
-0.012810354 0.07040726 0.087678984 -0.502125 -0.25356147 0.3142166 -0.42126456 0.035533704
-0.32983243 -0.11828102 -0.11128487 0.12491498 -0.3880636 0.056063756 -0.16032998 -0.25378868
0.5303421 0.44849116 -0.1606457 -0.5144636 -0.42280805 0.53329825 -0.50846833 -0.20233156
-0.537905 0.29512486 -0.254509 0.5688748 -0.1745766 -0.51877546 -0.56675017 0.49375504
-0.22013766 0.24370244 -0.2837937 0.015336621 0.25172636 -0.15858299 -0.39720705 -0.008575805
-0.2824972 0.41591835 -0.41595635 -0.24987395 -0.37647 0.3471007 -0.27689263 0.3468816
-0.19742018 -0.4274815 -0.26567903 0.52246517 -0.22051366 0.32768953 -0.38863525 -0.16360064
00000000: d090 df3e 660b 9dbd b775 08bd c773 99bd
00000010: 657d a53d d35a a83e 2c1f a8be c0b8 a9be
00000020: 6ecd 8bbe 3c63 5639 228b 113e a629 bd3d
00000030: 41cd 62be 432f 9b3e da9f b4be b860 1bbf
00000040: 3560 743e ce03 043f 2ec9 91bd ed7e 9dbe
00000050: d0af cd3d a2c8 99be 7b53 423e e150 58bd
00000060: 7f62 933e 4bfe 883c b432 4bbd 2f23 ddbe
00000070: b463 ec3d e616 303e 4263 a53d 26cf 46be
00000080: 8710 16bd ad47 243d aebd 85bc 0d19 cabc
00000090: 542b 1c3e 7c7e a83d 0879 b03d 3fcf c4bd
000000a0: b0f8 413e aa3d 92be 2908 973e 58ba 8fbc
000000b0: 5ab7 8b3e b5b7 e4bc 8d83 ff3d f666 81be
000000c0: 4606 ce3b eea1 763e c048 4d3e 5981 4bbe
000000d0: a8b3 9d3d a54e dcbd f8f9 9e3d fdbe b2bc
000000e0: d404 9d3c 6743 263e f8dc 233e 823b f6bd
000000f0: 90a6 ea3c 948b b6bd a4e9 47bd 9faf 56be
00000100: 8eed 43bd 7c98 ba3e 8dbf eabe 9c60 3dbd
00000110: 1dd9 d1be d6f9 d13d 0781 213f d9a1 693e
00000120: 142a 7d3c a653 9e3e 1a8c 96bd 491a d53e
00000130: fbcb 273f 4ea0 053f f83e 5cbe 865d a4be
00000140: badd 4a3e 5fc3 8ebe 66c9 b73e 9d00 13be
00000150: 561d 673e 722d 983d 1bd0 103d 7072 afbe
00000160: fb46 2b3a 4c91 143e 7a39 103e f72b 21be
00000170: e12e 0bbe cebd c03c 828e 6fbd 363a 803d
00000180: 4e86 59bd 320b 663d fdd4 873c 78af 73bd
00000190: 81db 073f cad4 35bd 5929 8dbe 7301 3cbe
000001a0: 3250 143e 4331 033f b584 57be a70c 59be
000001b0: 9395 edbe f199 bdbd d975 e93d 6660 7abd
000001c0: a546 f53c b85e 003e 9368 85bd 45e5 4cbd
000001d0: 68bb 04be 3a4f 8e3e 8d53 1dbe 811c d13d
000001e0: 9cde ad3e 038e 51bc f539 223e fd75 98be
000001f0: 0d68 33bd f548 293e 5ea8 4fbe edce b0be
00000200: 19ba dcbd b891 033b d843 913e 6ade c93d
00000210: 62d8 afbe bee3 eb3e db82 4abe 31f9 a9be
00000220: 5015 db3e 69d9 f33e 709f 9bbd dfa3 00bf
00000230: 848e 5c3e 6d82 1d3e 013f c3bc 0a6d 0ebf
00000240: b028 22be 6018 133f 1df8 8fbe 2adc afbd
00000250: 60c6 81be c3a5 3ebe 5a9e f4bc 065a 403e
00000260: 1412 25be 9e2d 253e 6fdb b4be e754 4bbe
00000270: 1653 f13e cd25 bc3e d385 dfbe 1f01 c0be
00000280: d3bf 143f f111 94bd 5b0b a93e dc25 03bd
00000290: bcb8 2b3e bf49 bfbd db45 11be 82e3 90be
000002a0: b876 14bd f5c9 353e 7db3 963e 7046 0b3e
000002b0: faf2 04be f702 233e f1c4 97bb fe8e 5fbe
000002c0: 24db 173e 4e81 e53e 2a20 e63d 2b5b dabd
000002d0: 46e5 9d3e 6bee d83b a288 e23d a60a 0bbe
000002e0: 4d52 a2bd d91b 623e 9cf9 22be b862 70be
000002f0: 8835 b6be 2aa7 8d3e 7959 c13e e547 983e
00000300: 94c2 f8bd f4e1 8a3e d38a cd3d 60dc 03bf
00000310: 62d0 043f c7f0 263f 8978 603e 3c68 1ebf
00000320: 85e2 51bc ae31 903d 0a91 b33d 448b 00bf
00000330: cfd2 81be 00e1 a03e fdaf d7be ca8b 113d
00000340: ccdf a8be 523d f2bd 52e9 e3bd 6dd3 ff3d
00000350: 46b0 c6be 1ca3 653d 8b2d 24be 97f0 81be
00000360: 80c4 073f a2a0 e53e 4e80 24be e3b3 03bf
00000370: 4c7a d8be 3c86 083f fb2a 02bf 0130 4fbe
00000380: 24b4 09bf 9b1a 973e 014f 82be c7a1 113f
00000390: 35c4 32be 78ce 04bf 8a16 11bf 76cd fc3e
000003a0: c46b 61be 228d 793e 684d 91be 7346 7b3c
000003b0: 47e2 803e 9463 22be b95e cbbe 8981 0cbc
000003c0: 79a3 90be 40f3 d43e 3bf8 d4be f5de 7fbe
000003d0: adc0 c0be 2fb7 b13e dfc4 8dbe 779a b13e
000003e0: 8428 4abe dbde dabe 1507 88be 47c0 053f
000003f0: 55ce 61be ecc6 a73e 33fb c6be ed86 27be

item_embedding.weight f4 [406, 20]
-0.5704313 0.33980212 -0.7957606 0.057502165 -0.28628993 0.32117417 0.24010757 0.4109107
0.2958359 -0.15182999 -0.13133182 0.50631464 -0.26413968 0.2900124 -0.39421102 0.7922817
-0.06458541 -0.7318381 0.3139316 0.5016319 -0.6059951 0.46879545 -0.46055788 -0.051398292
-0.600412 0.48292843 -0.23545605 0.5273107 -0.32891056 -0.31959766 -0.71435416 0.5199192
-0.5678356 0.5638999 -0.51930904 0.48932874 0.402442 -0.189005 -0.61028665 -0.12783147
-0.4723052 0.6398877 0.19631226 -0.21484125 -0.5092942 0.502095 -0.08629657 0.6805075
0.010323631 -0.4884356 -0.7554951 0.47234288 -0.07571777 0.3554325 -0.36470443 0.25791997
0.2331524 -0.28233495 -0.75276154 0.05096736 -0.6248951 0.60609144 -0.79696965 -0.16720499
-0.42653793 0.3930403 -0.4532544 0.58804923 -0.28704658 0.13432525 -0.41376093 0.34505063
-0.27429008 -0.039942186 -0.6472654 -0.38727552 0.51287866 -0.18970868 -0.19866513 -0.6091777
-0.5121107 0.47451603 -0.6550827 -0.38457394 -0.6459093 0.16967069 -0.352441 0.6466459
-0.44857466 -0.46048173 -0.65018064 0.37272534 -0.46919787 0.59278417 -0.53939295 -0.20150799
0.534612 -0.69131535 -0.47060984 -0.32926625 -0.62395585 0.54681915 -0.7064885 -0.41031373
-0.407046 -0.67222726 0.63594836 0.74208206 -0.65760386 -0.34607643 -0.6444935 0.8922244
-0.18382442 0.6731233 0.25433502 0.11945648 0.050581302 -0.40494007 0.48668045 0.35508218
-0.6562795 0.26262847 -0.55272424 -0.37143463 -0.5186984 -0.013431804 0.2268351 0.54606175
-0.2562136 -0.36488223 -0.65327734 0.6373607 -0.0052448083 0.5035487 -0.4735675 -0.33198842
-0.3150772 -0.22438088 -0.27752575 -0.12999599 -0.44963807 0.6505635 -0.36756507 -0.32339203
-0.5234729 0.44508758 -0.40005368 0.49167642 -0.25651336 -0.54181683 -0.24444512 0.25874457
-0.47692606 0.6336983 -0.51491165 -0.2825434 0.28669944 -0.5751362 -0.5393654 -0.39004278
-0.46976352 0.70151126 -0.60646325 -0.5979231 -0.59365225 0.18253163 -0.32617357 0.5541557
-0.25626203 -0.3758632 -0.32962066 0.6416367 0.19582012 0.0038384849 0.28023866 -0.77489847
-0.8566408 -0.68766654 -0.59097654 -0.53661156 -0.59944755 0.55316484 -0.6075109 0.36003155
-0.5991948 -0.43813038 0.35201705 0.53749776 0.358091 -0.24173096 -0.5075461 0.7123329
0.4363672 -0.0036464222 -0.005696624 0.6181316 -0.54832804 -0.52516305 0.17562836 0.5855515
-0.6611495 0.5202418 -0.4967231 -0.31344938 -0.44979143 0.551284 -0.423676 0.1556255
-0.47765514 -0.3661904 -0.14553821 0.56508136 -0.5527424 0.48055267 -0.6540698 -0.7162752
0.5612219 0.4593308 -0.42591023 -0.48378304 -0.66471773 0.06311511 -0.35092023 0.20868377
-0.16142918 -0.6354146 0.23547427 0.6001664 0.5372794 -0.025005393 -0.53399277 -0.02240286
0.29887092 -0.27233824 0.2770008 0.58782816 -0.5708976 -0.7290964 0.37562713 0.5179468
-0.60508686 0.45315856 -0.69146246 -0.33028775 -0.6064027 0.3582228 -0.47848704 0.63090163
-0.37301105 -0.43190542 -0.36001503 0.33342358 -0.4422257 0.37460506 -0.4436395 -0.41117752
00000000: c907 12bf 8bfa ad3e f7b6 4bbf 6487 6b3d
00000010: 9894 92be f170 a43e c2de 753e e362 d23e
00000020: ce77 973e 5279 1bbe d97b 06be d69d 013f
00000030: 513d 87be 817c 943e 07d6 c9be f9d2 4a3f
00000040: 5b45 84bd be59 3bbf a5bb a03e f36a 003f
00000050: 7f22 1bbf f505 f03e 3ece ebbe 0487 52bd
00000060: 9ab4 19bf 6542 f73e 641b 71be d6fd 063f
00000070: f766 a8be 4ea2 a3be eadf 36bf 6d19 053f
00000080: ad5d 11bf be5b 103f 70f1 04bf 4c89 fa3e
00000090: e10c ce3e 878a 41be bf3b 1cbf 41e6 02be
000000a0: fdd1 f1be aecf 233f 1506 493e 58ff 5bbe
000000b0: 1b61 02bf 4c89 003f 42bc b0bd bd35 2e3f
000000c0: 7224 293c 3b14 fabe 2068 41bf edd6 f13e
000000d0: eb11 9bbd 40fb b53e 8aba babe 160e 843e
000000e0: 81bf 6e3e 358e 90be fbb4 40bf 27c3 503d
000000f0: 20f9 1fbf cf28 1b3f 3406 4cbf c937 2bbe
00000100: 2e63 dabe 943c c93e f610 e8be 658a 163f
00000110: c5f7 92be 8f8c 093e 79d8 d3be 7aaa b03e
00000120: c06f 8cbe 6b9a 23bd 2fb3 25bf fa48 c6be
00000130: 044c 033f fe42 42be df6e 4bbe 12f3 1bbf
00000140: b019 03bf c4f3 f23e 80b3 27bf e0e6 c4be
00000150: 505a 25bf 27be 2d3e 2673 b4be 968a 253f
00000160: 94ab e5be 43c4 ebbe 3d72 26bf dbd5 be3e
00000170: b43a f0be b4c0 173f a815 0abf 1c58 4ebe
00000180: 55dc 083f 0bfa 30bf c6f3 f0be 9695 a8be
00000190: 92bb 1fbf 57fc 0b3f 6edc 34bf a414 d2be
000001a0: 5568 d0be 1617 2cbf 83cd 223f 17f9 3d3f
000001b0: ba58 28bf ee30 b1be 87fd 24bf d168 643f
000001c0: 783c 3cbe cf51 2c3f 3338 823e 99a5 f43d
000001d0: 572e 4f3d 4e54 cfbe 2e2e f93e 55cd b53e
000001e0: ef01 28bf 3d77 863e 567f 0dbf ae2c bebe
000001f0: 6bc9 04bf 1211 5cbc 7647 683e b4ca 0b3f
00000200: 6e2e 83be d8d1 babe 2f3d 27bf 122a 233f
00000210: a4dc abbb 91e8 003f 7077 f2be 63fa a9be
00000220: cc51 a1be 1ac4 65be db17 8ebe ab1d 05be
00000230: f636 e6be 548b 263f 7d31 bcbe a493 a5be
00000240: 5202 06bf 85e2 e33e d6d3 ccbe 03bd fb3e
00000250: b855 83be 82b4 0abf d24f 7abe 2b7a 843e
00000260: a72f f4be 0d3a 223f 40d1 03bf 87a9 90be
00000270: 45ca 923e 203c 13bf da13 0abf b0b3 c7be
00000280: d884 f0be 3e96 333f 2d41 1bbf 7d11 19bf
00000290: 98f9 17bf 92e9 3a3e 3900 a7be 26dd 0d3f
000002a0: c734 83be 2471 c0be 0ac4 a8be 4e42 243f
000002b0: 1285 483e 178f 7b3b 717b 8f3e bf5f 46bf
000002c0: d04c 5bbf ea0a 30bf 3d4a 17bf 605f 09bf
000002d0: 6575 19bf 369c 0d3f d685 1bbf 0e56 b83e
000002e0: d564 19bf a052 e0be 943b b43e 7499 093f
000002f0: b457 b73e 5288 77be 8bee 01bf 735b 363f
00000300: 866b df3e d0f8 6ebb bfaa babb df3d 1e3f
00000310: 3a5f 0cbf 1671 06bf ecd7 333e b4e6 153f
00000320: 1841 29bf 912e 053f 7d52 febe 707c a0be
00000330: 104b e6be f320 0d3f 10ec d8be 4b5c 1f3e
00000340: 378f f4be 4f7d bbbe f807 15be 2ca9 103f
00000350: 8780 0dbf 000b f63e 1e71 27bf d05d 37bf
00000360: 3dac 0f3f 682d eb3e e810 dabe 69b2 f7be
00000370: f12a 2abf 7f42 813d d1ab b3be 33b1 553e
00000380: b14d 25be 88aa 22bf 2b20 713e 81a4 193f
00000390: 258b 093f 1cd8 ccbc c0b3 08bf 3486 b7bc
000003a0: 9c05 993e eb6f 8bbe 0dd3 8d3e e87b 163f
000003b0: 5826 12bf 10a6 3abf 3352 c03e 2998 043f
000003c0: f9e6 1abf 6604 e83e af03 31bf 7a1b a9be
000003d0: 353d 1bbf fb68 b73e 41fc f4be c582 213f
000003e0: 4efb bebe b522 ddbe e453 b8be 7fb6 aa3e
000003f0: 686b e2be 3ccc bf3e b724 e3be dc85 d2be
