best_para_path/baseline_ciao100.10.20.70.250.251.050.00.5_p10_20mf_explicit_seed0_ex1_0.001_1e-05.pt (torch, 446483 bytes, 2 tensors)

user_embedding.weight f4 [2541, 20]
0	0xbecc96b8	-0.3995874
1	0x3eeb51a4	0.45960724
2	0x3ee2da05	0.4430696
3	0x3ee7bb64	0.45260155
4	0xbf038b6b	-0.5138461
5	0xbe48de0a	-0.19615951
6	0xbec3b47f	-0.38223645
7	0xbef8f392	-0.4862333
8	0xbeeb78cd	-0.459906
9	0xbeb48e5c	-0.35264862
10	0x3f0ceb77	0.5504679
11	0x3f287b15	0.6581281
12	0x3f087e3e	0.5331763
13	0x3eb94477	0.36185047
14	0x3e81818e	0.25294155
15	0xbe683d2d	-0.22679587
16	0xbeeb0555	-0.45902506
17	0x3ede5e4e	0.43431324
18	0x3ed8e0b9	0.4235895
19	0xbf166241	-0.58743674
20	0xbea17172	-0.31531864
21	0x3ee36b3d	0.44417754
22	0x3efe936d	0.49721852
23	0x3ecfe2cd	0.40602723
24	0xbb9d171a	-0.0047940137
25	0xbeda63e7	-0.42654344
26	0xbef18dd1	-0.4717851
27	0xbee70339	-0.45119646
28	0xbeecce18	-0.46250987
29	0xbf1a4417	-0.60260147
30	0x3f0aa3fa	0.5415646
31	0x3ecc93e5	0.39956585
32	0xbeaa80cd	-0.33301392
33	0xbe964eaf	-0.29356906
34	0x3e88a30a	0.2668689
35	0xbeafe6ca	-0.34355766
36	0xbf03fb7e	-0.5155562
37	0x3ed635f7	0.41838047
38	0x3e178d7b	0.14800064
39	0x3ec3c69b	0.3823746
40	0xbebec2eb	-0.37258086
41	0xbe8d7a84	-0.27632535
42	0x3e17e15a	0.14832059
43	0x3ed638db	0.41840252
44	0x3ed3b70d	0.41350594
45	0xbeba73d2	-0.3641649
46	0xbef75805	-0.4830934
47	0xbe696c88	-0.22795308
48	0xbe76d8cc	-0.24106139
49	0xbece2870	-0.40265226
50	0x3eaa48b3	0.3325859
51	0xbea90ecb	-0.330191
52	0x3f01216e	0.50441635
53	0xbea5dd5a	-0.3239544
54	0x3e5ec193	0.2175353
55	0x3ec88872	0.391666
56	0xbeee592c	-0.46552408
57	0x3ce4d442	0.027933244
58	0x3eb4a74a	0.3528388
59	0xbea5d65f	-0.32390115
60	0xbef19891	-0.4718671
61	0x3e18404d	0.14868279
62	0x3ecd6629	0.40117005
63	0xbf1392cc	-0.5764587
64	0xbe56d680	-0.20980263
65	0xbeee8126	-0.46582907
66	0x3e8adf40	0.2712345
67	0xbec28e68	-0.37999272
68	0xbf122e58	-0.57101965
69	0xbef7c0c2	-0.4838925
70	0xbecea7c6	-0.40362376
71	0xbf1507d2	-0.5821506
72	0xbf08ac1e	-0.5338763
73	0xbec51b1a	-0.3849724
74	0x3ede7743	0.43450364
75	0xbed19e1f	-0.4094095
76	0xbd3e023f	-0.04638886
77	0x3f09a6e4	0.5377028
78	0x3efc77e6	0.49310225
79	0x3eb19133	0.3468109
80	0xbea3c0d0	-0.31983042
81	0x3ea4ff28	0.3222592
82	0x3e7410aa	0.23834482
83	0x3ec5fcb3	0.38669357
84	0x3eb5b34d	0.35488358
85	0xbf0940c6	-0.5361446
86	0xbeff2c2d	-0.4983839
87	0x3e9d552d	0.30729046
88	0xbedd6033	-0.43237457
89	0xbf0fd916	-0.5619062
90	0x3eccea22	0.4002238
91	0x3f136725	0.5757926
92	0xbdf0d279	-0.117588945
93	0xbe152ec6	-0.14568624
94	0x3f09ddfa	0.53854334
95	0xbef9fe34	-0.48826754
96	0xbd5859e1	-0.05282009
97	0x3ef4ab0c	0.47786748
98	0x3ef364c1	0.47537807
99	0xbecb38c3	-0.39691743
100	0x3e970f57	0.2950389
101	0x3ef263a7	0.47341654
102	0x3f02e3a4	0.511286
103	0xbddbe813	-0.10737624
104	0x3bb93dd6	0.0056531234
105	0xbe120232	-0.1425865
106	0xbebfb97a	-0.37446195
107	0xbee35954	-0.4440409
108	0xbecdf4b3	-0.40225753
109	0xbe80e269	-0.25172737
110	0x3ead8a8f	0.33894774
111	0xbefdfbcd	-0.4960617
112	0x3eef4e27	0.46739313
113	0xbe8c2065	-0.27368465
114	0x3e5c4e8d	0.2151434
115	0xbeb11683	-0.34587488
116	0xbe8e40ec	-0.27783906
117	0x3f03d600	0.51498413
118	0x3ec7004e	0.3886742
119	0xbee3c3c4	-0.44485295
120	0x3e78435e	0.24244449
121	0x3f00423d	0.5010107
122	0xbeee5dce	-0.46555942
123	0x3efef060	0.49792767
124	0x3bd42a7c	0.006474791
125	0xbeda1d48	-0.42600465
126	0xbe55d0da	-0.20880452
127	0xbe57bc39	-0.21067895
128	0xbefe4d50	-0.4966836
129	0x3f0f23a1	0.5591374
130	0x3f108dff	0.5646667
131	0x3e96c031	0.29443505
132	0xbeb41cdd	-0.3517827
133	0xbe17052d	-0.14748068
134	0x3ee7fab2	0.45308453
135	0xbf09c2de	-0.5381297
136	0xbec652f9	-0.38735178
137	0x3ef7dc2d	0.48410168
138	0x3ed449a1	0.41462424
139	0x3e8dcf3e	0.27697176
140	0xbef9b091	-0.48767522
141	0x3e4ab994	0.19797355
142	0x3ee8a54f	0.4543862
143	0x3eeec3ea	0.46633846
144	0x3f0156ef	0.50523275
145	0xbee674fb	-0.45011124
146	0xbeda9498	-0.42691493
147	0xbef48734	-0.47759402
148	0xbeca6bbb	-0.39535317
149	0xbf0ea5df	-0.5572185
150	0xbdbff72c	-0.09373316
151	0xbe8d16d3	-0.27556476
152	0xbe8190bb	-0.25305733
153	0xbeca6734	-0.39531863
154	0x3ec39812	0.38201958
155	0xbf08b6ae	-0.5340375
156	0xbe8cbe10	-0.27488756
157	0x3f061f6d	0.523917
158	0x3f05fa7a	0.5233532
159	0xbe0287b2	-0.12747076
160	0xbec2964d	-0.38005295
161	0x3f094f94	0.5363705
162	0x3e2d0d08	0.16899502
163	0x3f053ef6	0.52049196
164	0x3efe0503	0.496132
165	0xbeffad34	-0.4993683
166	0xbee8d2bb	-0.45473275
167	0xbeac6800	-0.33673096
168	0xbed883ee	-0.42288154
169	0x3ed161d7	0.40894958
170	0x3e4bf9b1	0.19919468
171	0xbed9225b	-0.42409024
172	0x3e4eaf8c	0.20184153
173	0xbebd1fbc	-0.36938274
174	0x3f027cb1	0.50971514
175	0xbed20f9b	-0.4102753
176	0xbefcac59	-0.4935024
177	0x3efe67b3	0.4968849
178	0x3efd9cb5	0.4953362
179	0xbc92cabb	-0.017918935
180	0xbf08097c	-0.5313947
181	0x3f029056	0.5100149
182	0x3f00ac74	0.5026314
183	0x3ef32e37	0.47496197
184	0x3e982a02	0.2971955
185	0xbee015bf	-0.4376659
186	0xbec1d22b	-0.37855658
187	0xbdda3190	-0.106539845
188	0xbeeb8bac	-0.46005
189	0xbeeef84a	-0.46673805
190	0x3ed04e05	0.40684524
191	0x3ecdbc94	0.40182936
192	0x3ea7ddbd	0.3278636
193	0xbedc42bb	-0.4301966
194	0x3ed06133	0.40699157
195	0xbe8ecdba	-0.27891332
196	0xbe05b2e0	-0.13056517
197	0x3ef6b46c	0.48184526
198	0x3ec664ef	0.3874888
199	0xbf0165a4	-0.50545716
200	0xbecc4406	-0.39895648
201	0x3ef3982b	0.47577032
202	0x3eed659a	0.46366578
203	0x3e6b9d70	0.23009276
204	0x3e6f31f7	0.23358904
205	0xbef093cc	-0.4698776
206	0xbefd1a90	-0.49434328
207	0xbed3861a	-0.4131325
208	0xbeefd19e	-0.46839613
209	0xbec8ffec	-0.39257753
210	0xbf032e96	-0.5124296
211	0xbe5ce09e	-0.2157006
212	0x3ea1fda3	0.31638822
213	0xbeab185a	-0.33417016
214	0x3d16f5a0	0.03685534
215	0xbe54a94c	-0.20767707
216	0xbeece2dd	-0.46266833
217	0x3ede99e6	0.4347679
218	0x3ef06a38	0.46956038
219	0xbeb9fc16	-0.3632514
220	0xbed791eb	-0.42103514
221	0x3e2e742e	0.17036507
222	0x3eaab1b0	0.3333869
223	0xbe487312	-0.19575146
224	0x3e49d47c	0.19709963
225	0xbecb59c0	-0.3971691
226	0xbec8a0e7	-0.3918526
227	0xbeec5883	-0.4616128
228	0xbaef36c1	-0.0018250571
229	0xbef7952f	-0.48356006
230	0xbe8f3f80	-0.27978134
231	0xbecfd687	-0.4059336
232	0xbeaf87aa	-0.3428319
233	0xbec14bd8	-0.37753177
234	0x3f053be5	0.52044517
235	0xbea94edf	-0.33067986
236	0xbef9df64	-0.48803246
237	0x3eeadaab	0.45869955
238	0x3ed2b306	0.4115221
239	0xbf0cac1d	-0.54950124
240	0xbe8577e7	-0.2606804
241	0x3ef40e7f	0.4766731
242	0x3ed91f36	0.42406625
243	0x3eead3a3	0.4586459
244	0x3ec953f9	0.3932188
245	0xbebd906f	-0.37024257
246	0xbee38fa9	-0.44445542
247	0xbe7aa397	-0.24476467
248	0xbeec25f6	-0.46122712
249	0xbdc13f1e	-0.09435867
250	0x3f04eca5	0.5192359
251	0xbd98ebd0	-0.07466853
252	0x3e679696	0.22616038
253	0xbf02fa5b	-0.5116326
254	0x3ef203e7	0.47268602
255	0xbed11e96	-0.40843648

item_embedding.weight f4 [3019, 20]
0	0x3eb5d65f	0.35515115
1	0xbeb7ebcd	-0.3592209
2	0xbee3aa25	-0.44465747
3	0xbee046ad	-0.4380392
4	0xbeb5a6fa	-0.35478956
5	0x3eca6b36	0.3953492
6	0x3e9f6362	0.3113051
7	0x3ee3b758	0.44475818
8	0x3ea7e45e	0.32791418
9	0x3e9d971f	0.3077936
10	0x3e107f35	0.14111026
11	0x3ef52e37	0.47886822
12	0xbe12a193	-0.14319448
13	0x3edc4498	0.43021083
14	0xbebf8b13	-0.37410793
15	0x3ebe2bd6	0.3714282
16	0x3c8cec84	0.017202623
17	0xbebb6b17	-0.3660514
18	0xbebd58e1	-0.36981872
19	0x3ed49ac6	0.41524333
20	0x3ef12960	0.4710188
21	0xbe90602a	-0.28198367
22	0xbea56416	-0.32302922
23	0xbe936709	-0.28789547
24	0xbf0343fb	-0.51275605
25	0x3ef8a969	0.4856675
26	0x3edbc8c0	0.42926598
27	0xbe55a0a3	-0.2086206
28	0x3e54bd9d	0.20775457
29	0xba3d8f0e	-0.00072310946
30	0xbedccb51	-0.43123868
31	0x3ef3589d	0.47528544
32	0xbed44642	-0.41459852
33	0xbe53c951	-0.20682265
34	0xbee86c46	-0.45395106
35	0x3f05ac35	0.5221589
36	0x3ef9c5dd	0.4878377
37	0x3e085d92	0.13316944
38	0xbe978d14	-0.29599822
39	0xbed4afef	-0.41540477
40	0x3ed26751	0.4109445
41	0xbe4cf1b2	-0.20014074
42	0xbed7a3f8	-0.42117286
43	0xbdeee193	-0.116641186
44	0xbed34438	-0.41262984
45	0x3ebf6464	0.3738128
46	0x3eafeefe	0.34362024
47	0x3eb9ab4d	0.36263505
48	0x3ec7e1f0	0.39039564
49	0x3d270f7d	0.040786255
50	0xbec0f468	-0.37686467
51	0xbe8b790d	-0.27240792
52	0xbed37799	-0.41302183
53	0x3ed696d6	0.41911954
54	0xbeaff6b6	-0.34367913
55	0x3ed14794	0.40874922
56	0x3ed50037	0.41601726
57	0xbe92498f	-0.28571746
58	0xbee74a8b	-0.4517406
59	0xbea2ed4a	-0.31821662
60	0x3e1885a9	0.14894737
61	0xbe51a849	-0.20474352
62	0xbeb502ee	-0.35353798
63	0x3e2abc66	0.16673431
64	0xbe615902	-0.2200661
65	0x3e8dbf48	0.27685
66	0x3eb59832	0.35467678
67	0x3eb8886c	0.36041582
68	0x3e118ee1	0.1421466
69	0xbcce7383	-0.025201565
70	0xbd90fc5c	-0.07079384
71	0xbed3f3f6	-0.41397065
72	0xbdf33f39	-0.11877293
73	0xbeb282cf	-0.34865424
74	0x3ebab85c	0.3646878
75	0x3c699630	0.014256999
76	0x3e458fc3	0.19293122
77	0xbe962ac8	-0.29329515
78	0xbeccb004	-0.3997804
79	0x3d54f969	0.05199567
80	0xbe81a756	-0.2532298
81	0xbe3f20ce	-0.18664858
82	0xbe899173	-0.2686878
83	0xbddfa546	-0.10920195
84	0xbec56b6e	-0.38558525
85	0x3ed0a5a0	0.40751362
86	0x3e823ad2	0.254355
87	0x3ecd3ab5	0.40083852
88	0x3eeb1bf7	0.45919773
89	0x3eb23c86	0.348118
90	0xbe306e65	-0.17229612
91	0xbe24af7e	-0.1608257
92	0xbef8d65c	-0.48601043
93	0xbdefa8bd	-0.11702106
94	0xbe4836c8	-0.19552147
95	0x3e7e6caa	0.2484614
96	0x3ea75a0e	0.32685894
97	0xbeddd6c0	-0.43327904
98	0xbef198fb	-0.47187027
99	0x3ecfb679	0.40568903
100	0xbe2ba6e6	-0.16762885
101	0x3d8bd507	0.06827741
102	0x3f0b0172	0.5429908
103	0x3e30f997	0.17282711
104	0x3ede7eba	0.4345606
105	0xbe71cbbe	-0.23612878
106	0xbe9e1b86	-0.30880374
107	0xbd3e06d1	-0.04639322
108	0xbe9c3613	-0.30510005
109	0x3f19da2c	0.6009853
110	0x3ebd9dab	0.37034354
111	0x3f1c10d2	0.60963166
112	0x3ee521ab	0.4475225
113	0x3d97eb7b	0.07417961
114	0x3e8470cb	0.25867304
115	0xbe879bcf	-0.2648606
116	0xbedb388f	-0.42816588
117	0xbeed6d86	-0.46372622
118	0x3d8164ae	0.06318031
119	0xbeaf9171	-0.3429065
120	0xbefe29de	-0.49641317
121	0x3ed4faef	0.41597697
122	0x3eee28d5	0.46515527
123	0x3e6aa331	0.22913815
124	0x3ead3c50	0.33835077
125	0xbf07be6b	-0.5302493
126	0xbf0214f0	-0.508132
127	0xbeed31dd	-0.46327105
128	0xbef08809	-0.46978787
129	0xbeaea75e	-0.34112066
130	0x3f003057	0.5007376
131	0x3ecbe460	0.39822674
132	0x3eda249f	0.42606065
133	0xbeef3a45	-0.46724144
134	0x3eb5513c	0.3541354
135	0xbef276af	-0.47356173
136	0xbeadf964	-0.33979332
137	0x3f007d49	0.5019117
138	0x3ed1f896	0.4100997
139	0x3eb40335	0.35158697
140	0x3e25e244	0.16199595
141	0x3ec24939	0.3794649
142	0xbd479f40	-0.048735857
143	0x3e3971f7	0.1810988
144	0xbed7c08a	-0.42139083
145	0xbeaa0e43	-0.33214006
146	0xbe9d1147	-0.30677244
147	0x3e2e075a	0.16994992
148	0x3e8ad9b9	0.27119234
149	0xbd170b95	-0.03687628
150	0x3e85e596	0.26151723
151	0x3eda2375	0.42605177
152	0x3e28de8f	0.1649115
153	0x3d899fff	0.0671997
154	0xbeae73ff	-0.34072873
155	0xbe2c4d9a	-0.16826478
156	0xbcef1e49	-0.029189246
157	0xbe1f9289	-0.15583242
158	0xbedafded	-0.42771855
159	0x3e9f2081	0.31079486
160	0x3e965731	0.29363397
161	0xbed6c970	-0.4195056
162	0xbe8bd545	-0.2731115
163	0xbe6f8069	-0.23388828
164	0xbeaf36eb	-0.34221587
165	0x3ec783f0	0.38967848
166	0x3ea47165	0.32117763
167	0x3ed1276f	0.40850398
168	0x3eca4e69	0.39512947
169	0x3d5cdb27	0.053919937
170	0xbed5e8dd	-0.41779223
171	0xbdee8718	-0.11646861
172	0xbe8694cc	-0.26285398
173	0x3de01cd8	0.109430015
174	0xbeb2704e	-0.34851307
175	0x3eb8675c	0.36016357
176	0x3ec39321	0.38198188
177	0xbecb34de	-0.39688772
178	0xbeda3f93	-0.42626628
179	0xbe598734	-0.21242982
180	0x3ec0801a	0.37597734
181	0x3e7b0ea3	0.24517302
182	0xbe7b4439	-0.24537744
183	0x3ee84576	0.45365494
184	0xbe1aca71	-0.15116288
185	0x3ec49815	0.3839728
186	0x3e8b7338	0.27236342
187	0xbe7c35bc	-0.24629873
188	0x3eeb1893	0.45917186
189	0xbe8ca779	-0.27471521
190	0x3e03d224	0.12873131
191	0x3ea7cc16	0.32772893
192	0x3eb7603e	0.35815614
193	0xbefebb9f	-0.4975252
194	0xbeac4cdf	-0.33652398
195	0x3f03527e	0.5129775
196	0x3ef76798	0.48321223
197	0x3e2e3d96	0.1701568
198	0xbefd3557	-0.49454758
199	0xbf04765f	-0.5174312
200	0xbe6a7f1a	-0.22900048
201	0xbd157b15	-0.036494333
202	0xbe91b4ba	-0.28458196
203	0xbeb88186	-0.3603632
204	0xbe7663e0	-0.24061537
205	0x3ed24c23	0.41073713
206	0xbc8f3bbe	-0.017484542
207	0x3e8fffda	0.28124887
208	0x3d15fa65	0.036615748
209	0xbeb531e3	-0.35389623
210	0x3e97b1d3	0.29627857
211	0x3ed71408	0.4200747
212	0xbdaf4984	-0.08558944
213	0x3ebaaced	0.36460057
214	0xbe3c1086	-0.18365678
215	0x3bf61c51	0.0075107
216	0x3ecaa55e	0.3957929
217	0xbd44946c	-0.04799311
218	0x3ea1fb63	0.31637105
219	0x3e532eab	0.20623271
220	0x3ebf4566	0.37357634
221	0xbeb08680	-0.34477615
222	0xbe8aad2f	-0.27085254
223	0xbedd5fea	-0.4323724
224	0xbe02b637	-0.12764822
225	0x3e0077bf	0.1254568
226	0x3edbb262	0.42909533
227	0x3e53a71a	0.20669213
228	0x3ec098e6	0.37616652
229	0xbe2aa80a	-0.16665664
230	0xbe26bc04	-0.1628266
231	0x3ee84e00	0.4537201
232	0xbe12cfd1	-0.14337088
233	0x3e77a6b9	0.24184693
234	0xbebf2c88	-0.37338662
235	0x3e8d1c1b	0.27560505
236	0x3e98dbe2	0.29855257
237	0xbe9b3d7b	-0.30320343
238	0x3d84fca5	0.064935006
239	0xbe120c92	-0.14262608
240	0x3eb8dd7e	0.36106485
241	0xbe9424ba	-0.2893427
242	0xbee13d37	-0.43992016
243	0xbec0235b	-0.37526974
244	0xbecebf46	-0.40380305
245	0x3ea803bb	0.32815346
246	0x3ed7a3d4	0.42117178
247	0x3ee478f8	0.44623542
248	0x3ed67309	0.4188464
249	0xbd3e203a	-0.046417452
250	0xbed2749c	-0.4110459
251	0x3ea2beeb	0.31786284
252	0xbeec8e4a	-0.46202308
253	0x3e52813d	0.20557113
254	0xbed2d48f	-0.41177794
255	0x3ec6b550	0.38810205
