best_para_path/baseline_filmtrust50.20.650.150.250.251.020.00.5_p10_sum20lightgcn_explicit_seed0_ex1_2_0.001_1e-06.pt (torch, 131031 bytes, 2 tensors)

user_embedding.weight f4 [1208, 20]
1.4544464 -0.23076694 0.38892102 0.91646117 1.0055768 0.06255646 -0.7435806 -1.851994
-0.4880886 0.15609317 -1.1175687 0.7477961 -1.3777021 -0.5917671 -1.2054347 -1.3662139
0.7642342 1.2681122 0.910227 -1.3996716 2.180986 -1.847019 -0.016751219 -0.8315225
1.7002462 -0.4116646 0.12114216 -0.90839165 1.0952864 -0.16731818 -1.0808059 0.05095725
-0.4553716 -0.66627204 -0.98229295 -0.5438559 0.59815586 1.4129392 1.4414166 -0.66669965
2.105167 -1.7517638 0.46556327 0.4884451 1.6370732 -0.55666304 0.6708471 -0.12633394
0.022371052 0.35192314 -0.2793248 -0.010030089 -0.020823171 -0.6623752 -0.08408442 -0.33459383
-0.29590294 1.7023517 1.6391666 -0.49019244 1.0497907 -0.5152145 -0.80865365 -0.26798815
0.4497773 -0.42552185 -0.1588741 -0.9002165 -0.9812139 0.39516655 0.67703056 0.13929811
-0.56317127 -0.12592526 -0.6308003 1.0819038 1.329256 1.4922146 -0.027052743 -1.0147383
2.1366024 -1.9760233 -0.5633644 -0.12029803 1.5166848 -1.1823695 1.7366441 -0.2619635
0.6595552 0.34587768 -0.44561243 0.014195675 -0.16731204 0.35772026 -0.8062878 -0.13469158
-0.043885853 0.24755433 1.634692 0.018830782 1.6848642 -0.4719559 -0.84327924 1.0256479
0.6592712 1.6499641 -0.2560793 -1.0912534 -1.8356477 -1.517988 -1.1933683 0.5354581
-0.0137399435 0.99073476 -1.1325833 0.2265514 -1.3539989 1.351408 0.6469231 0.90947056
1.4111663 -0.7189908 0.39720803 0.74109286 0.5621012 -1.3552523 0.5017212 -1.9125952
-0.9634327 0.9403704 -0.6893361 1.1844172 -1.3185046 1.200261 -1.0054977 -1.4467658
1.4052972 1.0187414 0.84945 -1.2941766 0.5839837 -0.64709795 -0.81584525 -1.1827762
0.16074923 0.78460467 -0.40642956 -1.2701579 -0.5400512 -0.060482863 -1.3318061 0.9243622
-0.44742745 0.43289807 0.029338928 -0.5208914 0.7564281 0.0076462 -0.5667809 0.0818478
1.7234113 -1.498551 0.6577631 1.6059839 1.0261215 -2.0476677 -0.026449718 -0.8299117
-1.1735988 0.8141213 -0.0017015241 1.5899122 -0.8484503 0.781968 1.5193424 -1.1221721
1.1773684 2.119082 1.5111971 0.28449252 1.4816079 0.0021934833 -0.055953246 0.086132795
1.1415349 -0.52471095 -0.570883 -1.8015212 -1.2243532 1.2271875 -1.1810766 0.50748974
-1.3017056 1.0156026 -0.75465435 -1.252333 1.3893527 0.47005975 0.99731743 -1.1674558
0.5627673 -1.1467701 -0.015452894 -0.90868855 0.53455704 -0.18983711 -0.58837026 -1.038939
-0.36956388 0.13590427 -1.4144572 0.7539897 -0.6881146 -0.29498214 -0.34597152 -1.0258989
1.5402367 -0.296323 -0.14091949 -1.1873121 -1.7729702 1.4278914 0.46981663 -0.68511826
-1.3660636 0.8967077 -0.70233196 0.2530407 -0.29895812 -0.93225807 -0.03239092 0.684418
-0.09008427 0.6968784 -0.38621077 0.0805705 0.596234 -1.305501 -1.3476738 -0.19235973
-1.7084011 1.3082497 0.5131897 -0.4520399 -1.2963586 1.0144123 -0.575644 -0.4152574
-0.34461787 -1.0952566 -0.28375545 0.7729336 -0.40455052 0.7456158 -0.55678594 -0.239586
00000000: 4d2b ba3f 2b4e 6cbe a820 c73e 339d 6a3f
00000010: beb6 803f 9a1d 803d 4c5b 3ebf 240e edbf
00000020: c0e6 f9be e3d6 1f3e 7e0c 8fbf 916f 3f3f
00000030: 8b58 b0bf 0c7e 17bf af4b 9abf 19e0 aebf
00000040: daa4 433f 8051 a23f a304 693f 7028 b3bf
00000050: 4695 0b40 1e6b ecbf da39 89bc a9de 54bf
00000060: aba1 d93f b4c5 d2be 6119 f83d 5b8c 68bf
00000070: 5832 8c3f 7555 2bbe d957 8abf 8db8 503d
00000080: 7726 e9be ce90 2abf 8d77 7bbf 243a 0bbf
00000090: be20 193f 31db b43f 5780 b83f d4ac 2abf
000000a0: 0ebb 0640 cc39 e0bf 4f5e ee3e 7a15 fa3e
000000b0: 9d8b d13f 7881 0ebf a3bc 2b3f af5d 01be
000000c0: 7f43 b73c 452f b43e a903 8fbe 3e55 24bc
000000d0: 5b95 aabc 6c91 29bf 7434 acbd e24f abbe
000000e0: 9780 97be a9e6 d93f 36d0 d13f 81fa fabe
000000f0: 8b5f 863f 19e5 03bf ed03 4fbf be35 89be
00000100: 3649 e63e 00de d9be e4af 22be 9774 66bf
00000110: d630 7bbf 4553 ca3e e051 2d3f 2aa4 0e3e
00000120: fe2b 10bf 8df2 00be 217c 21bf d37b 8a3f
00000130: 1025 aa3f e300 bf3f b79d ddbc f2e2 81bf
00000140: 18be 0840 55ee fcbf a638 10bf d05e f6bd
00000150: ba22 c23f e257 97bf 5b4a de3f 1420 86be
00000160: 9cd8 283f e116 b13e 5027 e4be fa94 683c
00000170: d953 2bbe 1c27 b73e e168 4ebf 97ec 09be
00000180: a7c1 33bd e27e 7d3e 963d d13f 0343 9a3c
00000190: a1a9 d73f 34a4 f1be 26e1 57bf 6e48 833f
000001a0: ffc5 283f 0632 d33f d31c 83be 31ae 8bbf
000001b0: 81f6 eabf 6e4d c2bf 4bc0 98bf c813 093f
000001c0: 801d 61bc cba0 7d3f 7df8 90bf 17fd 673e
000001d0: d64f adbf f0fa ac3f c19c 253f 10d3 683f
000001e0: 19a1 b43f c80f 38bf da5e cb3e 43b8 3d3f
000001f0: dde5 0f3f e878 adbf cd70 003f ebcf f4bf
00000200: 87a3 76bf 1dbc 703f 5578 30bf fc9a 973f
00000210: c2c4 a8bf 27a2 993f 26b4 80bf 9f2f b9bf
00000220: c7e0 b33f 1e66 823f 8e75 593f 94a7 a5bf
00000230: f57f 153f 36a8 25bf 3cdb 50bf 3665 97bf
00000240: 729b 243e dadb 483f 8917 d0be 8994 a2bf
00000250: cc40 0abf e1bc 77bd 9f78 aabf 00a3 6c3f
00000260: 3615 e5be d1a4 dd3e 3158 f03c 2459 05bf
00000270: 46a5 413f f98c fa3b 8e18 11bf d29f a73d
00000280: be98 dc3f 85d0 bfbf 2a63 283f e190 cd3f
00000290: f357 833f fd0c 03c0 14ad d8bc 1875 54bf
000002a0: 7c38 96bf 416a 503f ad05 dfba 3e82 cb3f
000002b0: 0a34 59bf 0e2f 483f d079 c23f 56a3 8fbf
000002c0: 02b4 963f 0a9f 0740 e86e c13f 01a9 913e
000002d0: 54a5 bd3f 8bc0 0f3b 3b2f 65bd 6466 b03d
000002e0: d11d 923f 7553 06bf 6325 12bf 3f98 e6bf
000002f0: 9bb7 9cbf 7b14 9d3f 852d 97bf d9ea 013f
00000300: 4a9e a6bf 44ff 813f 0731 41bf 734c a0bf
00000310: 4fd6 b13f acab f03e 3250 7f3f 316f 95bf
00000320: 8511 103f 5dc9 92bf 232e 7dbc d09f 68bf
00000330: bbd8 083f a964 42be 6f9f 16bf f4fb 84bf
00000340: 7a37 bdbe 7d2a 0b3e ef0c b5bf 7805 413f
00000350: 4728 30bf e607 97be 2e23 b1be a850 83bf
00000360: 7a26 c53f a6b7 97be 334d 10be d8f9 97bf
00000370: b0f0 e2bf 25c5 b63f ce8b f03e e963 2fbf
00000380: 2cdb aebf a38e 653f 07cc 33bf 8d8e 813e
00000390: 0a11 99be 77a8 6ebf 57ac 04bd 0536 2f3f
000003a0: 1a7e b8bd 9f66 323f 6bbd c5be 2502 a53d
000003b0: cba2 183f a81a a7bf 9380 acbf f3f9 44be
000003c0: e3ac dabf ba74 a73f 6660 033f c671 e7be
000003d0: 14ef a5bf 43d8 813f 685d 13bf 9e9c d4be
000003e0: c171 b0be 5e31 8cbf 6548 91be fade 453f
000003f0: 3f21 cfbe ade0 3e3f 8689 0ebf 0856 75be

item_embedding.weight f4 [406, 20]
-0.84643394 -1.9088479 -1.7921091 -0.48526892 -0.5796441 1.3225405 -1.2475142 1.6361911
1.7737898 1.317638 2.002489 1.4160968 1.5982963 -0.06036139 -1.556922 1.8939154
-1.5951537 -2.0512805 1.4043614 1.5123738 -1.8993077 0.8451638 0.4765856 0.8367744
-1.1118063 -0.087012395 0.2452341 -0.090222396 0.6114743 0.7662142 -0.8065192 0.24338229
0.04771461 0.4267332 0.116995074 1.027707 1.6168892 -1.6532692 -1.355908 0.48232976
-1.3403065 -0.09098441 -0.71744347 0.15759617 0.02324929 -0.27847254 -0.3057145 1.0605427
0.5365287 -0.39370236 -0.42523956 -0.5826114 0.77911496 0.7246084 0.056681275 0.82821023
-0.05000479 -0.64299595 -0.7755179 0.7283332 -1.7419653 1.633263 -0.3906055 -0.09612655
-1.5263199 0.23762769 -1.1597111 0.48348624 0.6963019 0.8671091 0.78935754 -0.930005
-0.4902524 -0.9609717 -1.1309736 0.5368866 0.1410553 -1.904329 -1.1391048 -0.72093403
-1.7125653 0.2176808 -0.9899001 -0.5660038 -1.7834386 -0.62778825 -0.9401622 0.8429461
0.14430965 0.40689814 0.76297945 -1.0499164 0.77192986 1.3753066 -1.1672432 1.0326297
0.09529285 -1.9764389 -0.8208426 0.08811435 -1.6401681 1.1772177 -0.6152662 -0.24069448
-0.76889825 -1.3390502 1.3958124 2.111221 -0.31809068 0.7903468 1.320708 0.98268366
0.4428107 -1.0522203 0.8983231 1.4952769 -0.9981433 1.2866272 -0.03275824 1.3387188
-1.5490807 -0.65945524 -0.7989279 -0.86188924 -1.0220252 -1.0909461 1.1830993 0.99714607
-0.059044056 0.7954981 0.67980754 -0.21418616 0.52218115 1.2805973 0.0054923343 0.04561652
-0.9784912 -0.8820131 -1.1758649 1.1098617 -1.2601037 1.3708279 -0.33286804 0.1841875
-0.9954741 1.1867974 -0.7752275 0.41100478 -0.2725183 -0.4103272 0.6978902 -1.0230442
-0.048407286 1.2738862 -0.83727044 0.7816877 -0.44625488 -1.5307535 -0.7815806 0.16724308
-1.5388416 1.5254673 -1.2813752 -0.66065377 -1.6015941 -0.465448 -0.1361576 1.3113794
0.6117626 0.71706903 0.09029542 -1.0342624 0.58208025 -0.83291036 -1.076416 0.8131742
-1.2296956 -1.3560556 -1.6894149 0.18282148 -1.7996172 0.69326836 -1.6733471 1.1013836
-1.0619833 -1.2016118 0.51094127 1.8752662 1.3742651 1.4962221 1.9099612 -0.42045048
1.7663926 0.39561626 0.86072075 1.7873573 -1.5810996 -0.22970289 -0.5042692 1.8855801
-1.9132473 1.3980212 0.018316098 0.73383176 -0.90950304 0.22861603 0.12095078 -1.569046
-0.52017796 0.5288832 0.2083886 -0.3420867 0.39877945 0.66286844 -0.544298 -0.2097139
1.2728785 -1.3260797 -1.4356658 -0.26063108 -1.0225028 -0.2152141 -1.5630654 -0.20148434
0.43720144 -1.6908628 1.6368427 1.9506634 1.8821552 0.09635086 1.8265941 -1.9630438
1.6728607 -1.4788822 1.7669853 1.9405096 -1.5963578 -0.2323683 0.04208799 1.7581077
-1.7584176 1.0078295 0.71241367 -0.24890043 -1.524727 0.89807564 -1.2815392 0.5033885
-0.4598975 -0.15348734 0.43038312 -0.041501876 -0.37160093 0.08253481 -0.23157063 0.27034047
00000000: e5af 58bf 2155 f4bf d563 e5bf 2b75 f8be
00000010: 8e63 14bf 0249 a93f 8cae 9fbf b66e d13f
00000020: 8b0b e33f 5da8 a83f c828 0040 a942 b53f
00000030: f994 cc3f 813d 77bd 3849 c7bf d26b f23f
00000040: ff2d ccbf 2e48 03c0 1dc2 b33f 7795 c13f
00000050: 841c f3bf a85c 583f 0703 f43e d936 563f
00000060: ab4f 8ebf 8e33 b2bd a61e 7b3e 85c6 b8bd
00000070: 9489 1c3f 9d26 443f 0b78 4ebf 3539 793e
00000080: 6570 433d c67c da3e 1d9b ef3d e78b 833f
00000090: 3af6 ce3f 539e d3bf 658e adbf edf3 f63e
000000a0: 2a8f abbf 0956 babd 60aa 37bf e460 213e
000000b0: 4c75 be3c f493 8ebe 9c86 9cbe ddbf 873f
000000c0: f259 093f 5b93 c9be 00b9 d9be 0526 15bf
000000d0: 1474 473f f07f 393f a02a 683d 9605 543f
000000e0: d3d1 4cbd 629b 24bf 5788 46bf 0b74 3a3f
000000f0: b8f8 debf c30e d13f 72fd c7be ffdd c4bd
00000100: 735e c3bf ac54 733e 6a71 94bf 828b f73e
00000110: d740 323f ddfa 5d3f 5613 4a3f cf14 6ebf
00000120: 5d02 fbbe 3e02 76bf bec3 90bf 6671 093f
00000130: cd70 103e 0dc1 f3bf 30ce 91bf 228f 38bf
00000140: 5735 dbbf b7e7 5e3e 186a 7dbf a0e5 10bf
00000150: b747 e4bf bbb6 20bf 78ae 70bf 51cb 573f
00000160: e9c5 133e f454 d03e 9f52 433f a963 86bf
00000170: 329d 453f 0c0a b03f 3a68 95bf 362d 843f
00000180: e628 c33d f3fb fcbf be22 52bf 4c75 b43d
00000190: 07f1 d1bf 12af 963f 1682 1dbf 9d78 76be
000001a0: 84d6 44bf ff65 abbf fba9 b23f 3f1e 0740
000001b0: c8dc a2be 2b54 4a3f f60c a93f 2891 7b3f
000001c0: 16b8 e23e 28af 86bf 81f8 653f 3c65 bf3f
000001d0: 5286 7fbf 33b0 a43f 812d 06bd 235b ab3f
000001e0: 4748 c6bf 0fd2 28bf 8a86 4cbf c6a4 5cbf
000001f0: b9d1 82bf 1fa4 8bbf cc6f 973f f744 7f3f
00000200: 2ed8 71bd c3a5 4b3f de07 2e3f 9e53 5bbe
00000210: aaad 053f 9dea a33f 0af9 b33b 63d8 3a3d
00000220: 667e 7abf 9ccb 61bf be82 96bf f30f 8e3f
00000230: 144b a1bf 4a77 af3f ae6d aabe a69b 3c3e
00000240: 64d7 7ebf fae8 973f 4f75 46bf 386f d23e
00000250: 8587 8bbe 6816 d2be efa8 323f 1df3 82bf
00000260: b846 46bd b40e a33f 5b57 56bf af1c 483f
00000270: 857b e4be bbef c3bf ab15 48bf c541 2b3e
00000280: c3f8 c4bf 8342 c33f 1a04 a4bf 9b20 29bf
00000290: 0901 cdbf 334f eebe e66c 0bbe 48db a73f
000002a0: 799c 1c3f d691 373f ceec b83d b662 84bf
000002b0: 3603 153f 9d39 55bf 00c8 89bf 2f2c 503f
000002c0: aa66 9dbf 3b93 adbf bf3e d8bf 8e35 3b3e
000002d0: db59 e6bf 097a 313f 3d30 d6bf 23fa 8c3f
000002e0: 12ef 87bf 6ace 99bf 0ccd 023f b908 f03f
000002f0: ebe7 af3f 3584 bf3f 9c79 f43f 4945 d7be
00000300: 2719 e23f 378e ca3e 3258 5c3f 20c8 e43f
00000310: 7961 cabf 3c37 6bbe c917 01bf b05a f13f
00000320: 4ae5 f4bf 5cf2 b23f a40b 963c 66dc 3b3f
00000330: 31d5 68bf 521a 6a3e 0bb5 f73d 80d6 c8bf
00000340: 622a 05bf e464 073f d263 553e fd25 afbe
00000350: d22c cc3e bfb1 293f 1d57 0bbf 3ebf 56be
00000360: afed a23f fbbc a9bf e6c3 b7bf 7071 85be
00000370: 5fe1 82bf 1661 5cbe 8712 c8bf e951 4ebe
00000380: ded8 df3e 316e d8bf 1084 d13f 57af f93f
00000390: 76ea f03f 9a53 c53d d6cd e93f 0545 fbbf
000003a0: 4d20 d63f 034c bdbf 932c e23f 9e62 f83f
000003b0: 7455 ccbf f5f1 6dbe 7564 2c3d ac09 e13f
000003c0: d413 e1bf 8f00 813f be60 363f c1df 7ebe
000003d0: 412a c3bf 49e8 653f 7a09 a4bf 12de 003f
000003e0: af77 ebbe c92b 1dbe 2d5b dc3e dffd 29bd
000003f0: 7a42 bebe 0308 a93d da20 6dbe 116a 8a3e
