best_para_path/baseline_filmtrust50.20.650.150.250.251.01.00.5_p10_sum20diffnet_explicit_seed0_ex1_2_0.001_1e-05.pt (torch, 131023 bytes, 2 tensors)

user_embedding.weight f4 [1208, 20]
000000 5d 60 13 3f e2 c1 15 3f fd 81 36 bf 36 04 05 3f
       0.57568914 0.58498967 -0.71292096 0.5195955
000010 37 87 f4 3e 73 0c b6 3e b7 d1 fc be a3 77 39 bf
       0.4775941 0.35556373 -0.4937875 -0.72448176
000020 f4 ea 1b be aa c3 f8 be 98 f7 1e bf a1 5a 38 be
       -0.15226346 -0.4858678 -0.6209655 -0.18003322
000030 9e 40 13 bf 6a a8 53 be f5 b1 b8 be c4 c9 86 be
       -0.57520473 -0.20669714 -0.3607327 -0.2632581
000040 b1 6b bf be a7 0b a5 be 13 5a 30 3f e7 db 9d be
       -0.3738685 -0.32235453 0.6888744 -0.30831835
000050 36 c2 f2 3e 58 4c df be dc a2 a4 be cc fb 83 3e
       0.47413796 -0.43612933 -0.32155502 0.25778043
000060 63 05 06 3f 04 02 60 3e f6 f8 36 be a7 be 3b bf
       0.5235197 0.21875769 -0.17868409 -0.7333779
000070 5c f8 11 3f d2 9b ca 3e 99 44 0c bf b3 5a 9b 3e
       0.5701959 0.39572006 -0.5479217 0.30342636
000080 e9 07 a0 be 68 de c8 bd 98 8d a5 be 2a a6 40 3f
       -0.31256035 -0.098080456 -0.3233459 0.75253546
000090 04 63 5b be a1 d7 2c bf a5 73 db 3e b5 6e 97 be
       -0.2142449 -0.67516524 0.42861667 -0.2957665
0000a0 4d 2a fe 3e 53 8e c8 be 8b ea 89 3d 2e 3c 10 3f
       0.49641648 -0.39171085 0.06734189 0.56341827
0000b0 fa cc 0a 3f f5 ea 12 3f ef 15 1b 3e fb 2d 13 bf
       0.5421902 0.57389766 0.15145086 -0.57492036
0000c0 00 5d 9e bd 2f df 28 be b7 43 94 be 63 1d 29 3f
       -0.07732582 -0.16491388 -0.28957912 0.66060466
0000d0 6d 20 0a 3f 82 7d a4 3c cc 62 03 3f 0c 09 2f 3f
       0.5395573 0.020079378 0.5132263 0.6837318
0000e0 f2 60 f5 be 9f 9e 95 3e 8d 31 12 3f 69 ae d9 3d
       -0.47925526 0.2922258 0.5710686 0.10628969
0000f0 f5 2e 10 3e df e2 15 3f 58 dd f6 be 99 9b 26 be
       0.14080413 0.585493 -0.48215747 -0.16270293
000100 e0 9c 24 bf a8 44 b7 3e b5 64 6b bd 67 62 2b bf
       -0.6430187 0.35794568 -0.05746909 -0.66947025
000110 65 60 e6 be 38 70 f1 be 20 ee f6 be 68 22 b4 be
       -0.44995418 -0.4715593 -0.4822855 -0.351825
000120 72 2f 15 bf ad 61 19 3f 8c eb 70 be a9 7f 13 3f
       -0.5827552 0.59914666 -0.23527354 0.5761667
000130 2b c4 90 3e 05 80 1c 3f da a2 0b be a1 3c 27 bf
       0.28274664 0.6113284 -0.13636342 -0.6532689
000140 82 e9 b7 3e 3b 52 21 bf 40 f6 46 3d d8 9e 0e 3f
       0.3592034 -0.630161 0.048574686 0.55711126
000150 95 16 19 3f dc 11 38 3e 5f 99 04 3f 1a eb ff be
       0.5980008 0.17975563 0.51796526 -0.49984056
000160 70 cd 04 3f 5d b4 a4 3e 56 b4 ac be 2a 44 98 bd
       0.5187597 0.32168856 -0.33731335 -0.07434876
000170 66 d8 8f 3d 5d bb 82 3e 95 ff e5 bc f2 75 ab 3e
       0.070236966 0.25533572 -0.028075973 0.33488423
000180 9b 7b d5 be db 2b 30 bf 37 72 f2 3e 1e 8f f4 3e
       -0.41695866 -0.6881692 0.47352764 0.4776544
000190 d4 a1 2d 3f 38 6f 36 3f 44 5d 28 bf c5 39 a9 3e
       0.67825055 0.71263456 -0.6576731 0.33051887
0001a0 3f 18 f7 3e 4c 18 2f 3f 33 7b cb be 2b de 13 bf
       0.48260686 0.6839645 -0.3974243 -0.57760876
0001b0 05 c2 d3 be 24 c3 1d bf 94 9d 15 3d 32 12 01 bf
       -0.41358963 -0.61625886 0.03652723 -0.5041839
0001c0 1f 50 8b 3e be 40 ee 3e 74 af f8 be 71 8e 3c 3f
       0.27209565 0.4653377 -0.4857136 0.7365485
0001d0 a6 45 0c bf d7 38 13 3e db 5b e4 3e a2 79 30 3f
       -0.54793775 0.14377151 0.4460133 0.68935597
0001e0 ef de 0c 3f 68 4b 35 3f 18 dc c2 be 63 55 21 3e
       0.5502767 0.70818186 -0.38058543 0.15755229
0001f0 b8 24 cc 3d 1b a0 00 3f 0f 90 d1 be df 41 1b bf
       0.09967941 0.502443 -0.4093022 -0.60647386
000200 f5 61 9c be a6 bf a9 be a8 19 f1 be 06 f1 83 be
       -0.30543485 -0.3315403 -0.47089887 -0.25769824
000210 41 2f 16 bf a0 4e e6 3e bb 57 05 bf 8a ba e0 be
       -0.58665854 0.4498186 -0.5208699 -0.43892318
000220 66 b7 71 3e de bb 10 3f 22 6e 22 3f 57 85 e0 be
       0.23605117 0.5653666 0.634493 -0.4385173
000230 25 a9 0e 3f 9b 1f 91 3e 0b c5 24 bf 39 31 0a bf
       0.55726844 0.28344426 -0.64363164 -0.5398136
000240 c4 16 0b be d4 01 1c 3f 38 76 fa be 87 25 1a bf
       -0.13582903 0.6094029 -0.4891832 -0.6021351
000250 ff 2c da be 57 48 c9 be 39 ab 16 bf d0 10 d4 be
       -0.42612454 -0.39313003 -0.58855015 -0.41419077
000260 84 80 f3 be e6 3c bb 3e c1 88 0f bf e2 38 0e be
       -0.47558987 0.365699 -0.56068045 -0.13888887
000270 c0 7f e8 3e f1 77 04 bf 6f 16 0b bf 89 93 87 be
       0.45409966 -0.51745516 -0.54331106 -0.26479748
000280 3b fa ac 3e 80 ed 33 3e 47 a2 3a bf 15 ff 22 3f
       0.3378466 0.17571068 -0.72903866 0.63670474
000290 8a c0 06 3f 1f c8 cc 3d 5a d1 6a bd c1 17 91 be
       0.5263754 0.099991076 -0.05732856 -0.28338435
0002a0 7d 15 6a 3e 80 a6 81 3e 02 59 12 bf a7 ab e0 3e
       0.2285976 0.25322342 -0.57167065 0.4388096
0002b0 f7 81 25 bf a9 91 05 3f 00 2d 3e 3e f7 48 b7 3e
       -0.64651436 0.52175385 0.18571854 0.35797855
0002c0 b5 1b 07 bf 61 79 35 bd e4 49 3f 3f 78 1a 4f 3e
       -0.5277665 -0.04430521 0.74722123 0.20224941
0002d0 cc 52 97 3e 73 1e c7 3e b1 f1 16 bf fc c5 b7 be
       0.29555357 0.38890418 -0.5896254 -0.35893238
0002e0 66 92 df 3e f7 28 25 be 34 56 d3 be d6 8f 00 bf
       0.4366638 -0.16128908 -0.41276705 -0.50219476
0002f0 40 6f ba bc 31 96 74 3e c8 06 d0 be 29 f4 ef be
       -0.022758126 0.23885418 -0.40630174 -0.46865967
000300 1d 3e 65 bd 83 2c 1a 3f 07 d8 2b 3e ee cc e9 3e
       -0.05596744 0.6022417 0.16781627 0.4566416
000310 ec 10 1b 3e bd 57 ed be c8 a2 0f 3f e5 d3 9b 3e
       0.15143174 -0.46356001 0.5610776 0.304351
000320 95 75 31 3e c8 d0 ef bc 55 a7 23 bf 34 83 67 3e
       0.1733001 -0.02927436 -0.63927203 0.22608644
000330 1c bd 06 3f 32 0d 0e 3f bf a1 fe be 3c 29 c4 be
       0.5263231 0.55488884 -0.49732777 -0.3831271
000340 55 9f 05 be 57 3d 49 be a9 cf 3f bf 0a b9 09 bf
       -0.13049062 -0.19652306 -0.7492624 -0.5379797
000350 0e f6 01 bf ec 59 c2 3e 5a 11 07 bf d8 6a a4 be
       -0.50766075 0.3795923 -0.5276085 -0.32112765
000360 3a 1c 16 3f 42 74 51 bf bc 4e a2 be 7c 5e 24 bf
       0.5863682 -0.8181802 -0.31700695 -0.6420667
000370 8e ec e7 be c7 9c 24 3f db e5 a3 bd 67 ce 08 bf
       -0.45297664 0.64301723 -0.08002826 -0.53439945
000380 13 a2 0c bf fe 12 fb 3e 36 d5 01 bf 46 db 23 3f
       -0.54934806 0.49037927 -0.5071596 0.6400646
000390 b8 c9 0f bf 25 f0 11 bf 76 2d da 3e fc b2 15 bf
       -0.56167173 -0.57007056 0.4261281 -0.58476233
0003a0 fc f9 fb be ff 59 0d 3f 39 31 15 bf ed fe 07 bf
       -0.4921416 0.5521545 -0.5827823 -0.5312336
0003b0 5c 8e 21 3f 37 a8 05 3f 09 40 fe be dc b6 f9 be
       0.6310785 0.522098 -0.4965823 -0.48772323
0003c0 d2 9c 9d bd a8 24 05 3f b2 1e ab be d6 25 1a bf
       -0.07695927 0.5200906 -0.33421856 -0.60213983
0003d0 7a e1 12 bf 8b bc 16 3f 36 75 ed be 5a 75 04 3f
       -0.573753 0.58881444 -0.46378487 0.51741564
0003e0 8e 26 1c bf 64 d4 0c bf 4d c9 47 be f1 8f 88 be
       -0.6099633 -0.5501158 -0.19510384 -0.2667232
0003f0 b7 2d 0f bf c4 63 1e 3f 23 2a 12 bf c1 95 20 bf
       -0.5592913 0.6187098 -0.57095546 -0.62728506

item_embedding.weight f4 [406, 20]
000000 bb 39 12 bf 8b 8e 5d bf b9 c6 28 3f 47 b3 3f bf
       -0.5711934 -0.8654563 0.65928227 -0.7488293
000010 a9 68 06 bf c2 36 22 3f ab 21 32 bf 75 50 31 3f
       -0.5250345 0.63364804 -0.69582623 0.6926339
000020 a8 44 47 bf 1f 61 2e 3f b4 d4 52 3f 98 ba 16 3e
       -0.77839136 0.68116945 0.8235581 0.14719617
000030 4a 79 17 3f fb 99 b7 3e 3f 07 36 bf a3 14 96 3e
       0.5916945 0.35859665 -0.71104807 0.2931262
000040 7d 39 30 3f 88 31 4f bf df 06 97 be 50 ff 40 3e
       0.6883772 -0.80934954 -0.2949743 0.18847394
000050 da 9c 04 bf a6 91 f6 3e b3 c4 3f 3f 14 ac 98 3e
       -0.51801836 0.48157996 0.74909514 0.29818785
000060 7a 8a 13 bf 20 5c 1b 3f 01 02 2a bf 78 e6 c4 3e
       -0.57633173 0.60687447 -0.6640931 0.38457084
000070 e3 62 16 bf 92 0a 98 be 99 f8 12 3b 65 67 09 bf
       -0.5874464 -0.29695565 0.0022426008 -0.5367339
000080 cd 3e 4b bf 9a 9c 2b 3f 9d 1b 43 bf 44 66 10 be
       -0.793927 0.6703583 -0.7621401 -0.14101511
000090 be 46 56 3f a6 3b 30 3e 03 b5 1c bf a9 d1 f7 be
       0.83701694 0.17210254 -0.612137 -0.48402146
0000a0 68 cd 16 bf 80 60 ec 3e d1 a3 8c 3e b8 5c e2 be
       -0.58907175 0.46167374 0.27468732 -0.44211364
0000b0 ac 97 74 be 34 17 f3 3e a6 80 7f bc 76 b6 3c 3f
       -0.23885983 0.4747864 -0.015594637 0.73715913
0000c0 92 0c 01 be 4a e7 c3 be 0e 61 43 bf e4 1d f6 be
       -0.12602451 -0.38262397 -0.7631997 -0.4806968
0000d0 53 14 e8 3e 9b 60 fc 3e aa 39 07 bf 08 40 7e bd
       0.45328006 0.49292454 -0.52822363 -0.062072784
0000e0 67 07 1d 3f 13 b2 1d 3f 06 1c 60 bf 4a 03 9a be
       0.6133942 0.61599845 -0.8754276 -0.30080634
0000f0 c4 c0 16 bf 67 90 29 3f bd fe 16 bf eb 73 02 bf
       -0.58887887 0.66235965 -0.5898245 -0.50958127
000100 2a 1a 1a bf ad 28 13 3f 77 ca 2e bf 29 78 1f 3f
       -0.60196173 0.5748394 -0.68277687 0.62292725
000110 30 91 17 bf 65 eb b8 bd e2 5b 0f 3f 2e d9 f7 be
       -0.59205914 -0.09029273 0.5599958 -0.48407882
000120 aa 74 30 bf bc 43 62 bf 1f 31 49 bf cf 31 12 bf
       -0.68928015 -0.88384604 -0.7859058 -0.5710725
000130 75 58 29 3f 1c e5 da 3e d0 6d f6 be 54 ee 2e bf
       0.661506 0.42752922 -0.48130655 -0.6833241
000140 62 67 38 bf f9 70 65 be f2 f6 f4 3c 34 ab ba be
       -0.7203275 -0.22406377 0.029902909 -0.36458743
000150 1e 55 3c bf eb c1 15 3f 6f 06 05 bf 6f af 08 3f
       -0.7356738 0.5849902 -0.5196294 0.5339269
000160 6c 28 07 bf e8 37 08 bf 35 fe 0c 3f 35 39 32 bf
       -0.52796054 -0.53210306 0.5507539 -0.6961854
000170 c5 09 28 bf 76 ad ff 3e 47 65 37 bf ac 2d d8 be
       -0.6563991 0.49937028 -0.7163891 -0.42222345
000180 1e 6a 08 3f 5c c6 59 be cb 52 16 bf 0e 82 42 bf
       0.5328692 -0.21267074 -0.5872008 -0.759797
000190 4d da 1b bf 89 c6 24 3f 91 d9 1f 3f 15 6d 04 bf
       -0.60879976 0.6436544 0.62441355 -0.51728946
0001a0 20 d6 a8 be 28 e6 34 bf 33 07 3d 3f d1 ea 55 3f
       -0.32975864 -0.7066369 0.7383911 0.83561426
0001b0 c6 23 56 bf fa 13 30 bf f6 44 fe 3e 35 67 42 3f
       -0.83648336 -0.6878048 0.49661988 0.7593873
0001c0 41 28 65 bf 4a cc 34 3f a3 d0 17 3f 0d 32 b1 be
       -0.8951455 0.7062422 0.5930273 -0.34608498
0001d0 b8 6e ff 3e 51 94 24 3f 3d b1 40 3d 73 49 40 bf
       0.4988916 0.6428881 0.047044028 -0.75112075
0001e0 f5 45 34 bf b8 5b f6 3e 22 68 27 3f c5 6b 14 bf
       -0.70419246 0.4811685 0.6539327 -0.57976943
0001f0 25 d4 dd be fd 9e a4 3e 9b d5 50 3e 3c c4 23 3f
       -0.43325916 0.32152548 0.20393984 0.63971305
000200 db cb 06 bf d1 5f f7 be 77 cc cf 3e f7 72 12 3f
       -0.5265481 -0.4831529 0.40585682 0.5720667
000210 b9 c7 1c bf 67 7d 51 3f 55 dc 03 bf 11 ad 06 bf
       -0.6124225 0.81831974 -0.51508075 -0.5260783
000220 4c ff 0b 3f b8 19 9e 3e 18 1b 2c bf 59 56 00 bf
       0.5468643 0.30878997 -0.6722884 -0.50131756
000230 82 5d bf be cc 52 21 3f 80 1c f2 be 76 e8 f5 be
       -0.37376028 0.63016963 -0.4728737 -0.48028916
000240 4b ac 1b bf c7 4e 02 3f 91 84 04 bf e5 c4 26 3f
       -0.60809773 0.50901455 -0.5176478 0.6514419
000250 d4 76 d9 be b1 34 e8 be d1 95 8a 3e ec 8e 31 bf
       -0.4247347 -0.453527 0.27067426 -0.69358706
000260 f6 1e 35 be 59 56 3b 3f 67 b8 08 bf c3 f2 0e 3e
       -0.17687592 0.7317863 -0.53406376 0.13959794
000270 3f 76 14 3f 9d ed 70 be 1f cc 3b bf 1c 88 dd be
       0.5799293 -0.23528142 -0.7335834 -0.43267906
000280 77 0b 40 bf 44 68 87 3e 32 e9 55 bf 74 aa 09 bf
       -0.75017494 0.26446736 -0.8355895 -0.53775716
000290 6b ef 21 bf 2f 6f 37 3f 0a 58 c7 be 70 0c 02 3f
       -0.6325595 0.7165403 -0.38934356 0.5080023
0002a0 c2 7e aa be 63 50 cb be f9 38 09 3f ab ce 01 bf
       -0.33299834 -0.39709768 0.5360256 -0.50705975
0002b0 93 2e 4c bf 2f 5a 4b bf 84 b4 31 bf 44 cb 2d bf
       -0.79758567 -0.79434484 -0.6941607 -0.67888284
0002c0 0c c8 ce 3e de eb 13 3f 73 d4 20 bf e1 77 3f bf
       0.40387 0.5778178 -0.6282417 -0.74792296
0002d0 0a dd 33 bf 65 df 1a 3f 0d 26 24 3f 63 3a 7a be
       -0.70259154 0.60497123 0.6412056 -0.24436335
0002e0 c1 93 3d bf be 0b 09 bf c4 92 c9 be ae 4d 11 3f
       -0.7405358 -0.5353354 -0.39369786 0.56759155
0002f0 e2 c6 fc bd d1 b8 a0 3e 6d 48 27 3f 45 d8 af 3e
       -0.123426214 0.31391004 0.6534489 0.34344688
000300 87 c8 16 3f bb f2 03 3f 75 93 be be 3a e7 47 be
       0.5889973 0.5154225 -0.37221876 -0.195218
000310 81 3e 5b 3e 11 9d 21 3f 09 78 2f bf ac bc 1d 3f
       0.21410562 0.6313029 -0.68542534 0.61616015
000320 2b 39 90 3e ea 3f 0e 3f ba fe a3 be 79 9b 0f bd
       0.28168616 0.55566275 -0.32030278 -0.03506038
000330 07 7c 88 be a5 f8 e4 3e 73 bd d5 be bb 5f 1d bf
       -0.26657125 0.4472095 -0.417461 -0.614742
000340 1b a1 1f bf 86 07 e9 be b0 74 58 be 9a 1c 36 bf
       -0.623552 -0.45513552 -0.21138263 -0.7113739
000350 dc ba c8 be 00 b9 ff 3e 35 f9 25 bf 94 5c 5a bf
       -0.39205062 0.4994583 -0.64833385 -0.85297513
000360 ff 67 48 3f 78 ec 7c 3e 50 98 c6 be 4b 72 02 bf
       0.78283685 0.2469958 -0.3878808 -0.5095565
000370 55 ab 2a bf 1c 2e e7 be fe e9 39 3f ee 80 2a bf
       -0.6666768 -0.45152366 0.7262267 -0.6660298
000380 e8 23 37 be e3 41 f5 be 8c 6f 04 3f f3 96 02 3f
       -0.17884791 -0.4790183 0.5173271 0.5101158
000390 4f b1 e1 3e a9 be 47 3e 6b db 04 3f 60 05 2a 3d
       0.44080588 0.19506325 0.51897305 0.041509032
0003a0 eb 32 a9 3e a4 41 b5 be b0 09 02 3f 72 30 ee 3d
       0.3304666 -0.35401642 0.5079603 0.11630334
0003b0 9a 42 fe 3e 6a 2b 1b 3f ac ff 0e bf 85 77 ba 3e
       0.49660188 0.6061312 -0.55858874 0.3641931
0003c0 99 7f 2d bf 9c f2 d5 3e d3 8c 2a bf 68 09 01 bf
       -0.67772824 0.4178666 -0.6662113 -0.5040498
0003d0 d5 cf 1b bf 8d 27 24 3f a0 44 20 bf 64 c3 19 3f
       -0.60864 0.6412285 -0.62604713 0.6006377
0003e0 4f 19 10 bf 91 c8 72 be 9f f4 35 3e 2b e5 39 bf
       -0.5628862 -0.23709323 0.17769097 -0.7261531
0003f0 26 f4 33 bf 1d 90 2d 3f e2 2a 21 bf a5 9c 02 bf
       -0.70294416 0.67798024 -0.6295606 -0.5102027
