best_para_path/baseline_filmtrust50.20.650.150.250.251.020.00.5_p10_20mf_explicit_seed0_ex1_0.001_0.0001.pt (torch, 130927 bytes, 2 tensors)

user_embedding.weight f4 [1208, 20]
00000000: 3ab2 063f cac0 98bd 07a1 08bf 48a1 243e
00000010: 1d70 763e f874 aa3e 30e5 82be 0045 7bbd
00000020: 2b75 acbc da5b d4bc 831e 783d ad00 b73e
00000030: 6149 99be b6e7 ed3c 7848 ba3c 7e33 84be
00000040: dd77 8cbd 7fe0 243f 9789 003c 8dba 90be
00000050: 87c3 223e 250b a9be 2e1b cfbd 3d93 393e
00000060: 4aa3 923e 17b0 0dbd caf2 17be 84d9 65be
00000070: f8d2 323e 0c36 003e cd14 0dbe 80b7 7e3d
00000080: 0733 a0bd 0d60 c8bb 5d69 3e3e a795 123e
00000090: 9a52 b4bd b4ee a23d 8622 503e 92e0 20be
000000a0: e058 f23d 0fab a7be b3b6 90bc d43e 8e3e
000000b0: 3656 983e ce23 60bd fe83 7a3d bb62 6abe
000000c0: f5ef 1f3e a60c 4b3e 9cd5 05bd d053 ab3d
000000d0: 3b34 b53d 850e 50be 10c6 993e 1e20 1c3e
000000e0: 4f99 2abe 6f0d 2a3e 04f5 853e 9c51 75bd
000000f0: aed7 f33e be83 56bd 6bae 85be 1bac 33be
00000100: 994d 20be 0d7d 463e afb2 f1be e6fa df3d
00000110: aa2d 52be 9898 8dbe 6255 0ebd b3bb a93e
00000120: 501a d1be 69d9 533e 9b10 753d 6b0f 2b3f
00000130: 8d01 f83e e68d 0f3f 1292 db3c 707e edbe
00000140: 9344 a23d c1f1 b6be b57b 76bd 4042 663e
00000150: a56d 843e 31bc 3dbd 572a a03d b738 48be
00000160: d679 443e 37a8 053e 7a3f bebd 0a83 193c
00000170: 7fcd fa3b 23a0 93bd f4e5 643e 2f88 283e
00000180: dd85 6dbe 055f 16bc 5cbc 5f3e c751 2cbb
00000190: 92a4 d63e 620f 033d 590b bdbe b9d2 c93d
000001a0: d2e1 043e 4357 e63e b533 6b3e 4ddf 803e
000001b0: ef9d 9ebe d4fa 3fbe 84b3 b5bd e44d b23e
000001c0: d284 39be c50e 04bd 3fb5 013e ff68 0dbd
000001d0: b3b9 abbe b35c 803e 87ed 84bd bb10 03be
000001e0: 1abb c43e 37eb 17be c753 adbe 2e55 2a3e
000001f0: e51a 163e 53cf 71bc 7369 a7be 7f51 00bd
00000200: d216 99bb c1cb c03c 82a6 80bd be4b 8a3e
00000210: cb26 bebe 1bb3 2e3e b20d a53d fba8 afbd
00000220: abd0 373e a6d6 163f 2da1 053e 7ebd c8be
00000230: 0d2c da3e 470f 633e 85e0 0bbf e16e 8fbe
00000240: bc39 b8bd 1144 dc3e df51 c3be 44f2 a6bd
00000250: e091 3bbe 1a06 a9be ed10 0bbf 9745 da3e
00000260: 56ad f8bd abba 853e fd1b 89bb 9904 863d
00000270: 28a5 7f3e 57cd 4c3e 1438 bcbe 2785 57be
00000280: ed90 3d3e 615b 88be 22eb 31be e22b 8c3e
00000290: 9bbd 663e 0e66 49be 33ab 0cbe 553f 82bc
000002a0: 945a de3d 01f8 2c3e b4af 38bd 90c4 513e
000002b0: 9e07 7ebd d9c0 923d 3c51 383e 947b 363e
000002c0: 4e0b f5bd 806f 243f 167f 4b3e 40de 93bd
000002d0: 78f4 0b3f bdc1 5dbd 5691 27bf a692 083e
000002e0: 3af9 f33d 8b01 0a3e 4a93 d1be b13c 2fbe
000002f0: 3870 45be 7fba 1c3e 431f 4fbe 9ca9 ca3e
00000300: 8796 debe 7e24 863e d613 3e3e 0cf9 9cbe
00000310: 5d12 2a3e f84d 1b3f 7d3f c33d 5003 0ebf
00000320: c0d8 463e 86bf afbd b97e ccbe 506a 303d
00000330: fcaa 743c c28d 8b3e cd47 1ebf d91d 713e
00000340: da8e 05be 7078 233b b1d9 3abf 13f5 a43e
00000350: 4cd7 88be b32e ec3d 499f 1f3d 33d2 9dbd
00000360: 678a a83e f4cc 5d3e f9e3 e3bd 2cb8 ccbe
00000370: c80c 29be 92c4 0f3f 53d9 86bc 903e 0abf
00000380: dc26 05bf e081 a93e 9255 d8bd aecd f93e
00000390: 8786 c7be f596 fdbe b01d 50be e9d9 d03d
000003a0: e0d3 fbbd 073e be3e 8cfb 05bf 4417 9dbe
000003b0: 3dc3 163f 60ba 8abe 48bf f0be 5477 bebd
000003c0: b251 adbc da54 da3e 4903 46be fd4b e6be
000003d0: 2220 e6be 921f bf3e 3fb5 61be e74b a23e
000003e0: 2565 9cbe b50f e1be 69ed 8ebe 63f1 703e
000003f0: f079 92be eca6 b43e 2806 bcbe e1d1 b3be
0.526157 -0.074586466 -0.5337071 0.16077149 0.24066205 0.33292365 -0.2556548 -0.0613451
-0.021051964 -0.025922704 0.060575973 0.35742703 -0.29938796 0.029041152 0.022739634 -0.25820535
-0.068587996 0.64405054 0.007845304 -0.28267327 0.158949 -0.33016315 -0.10112606 0.18122573
0.28640205 -0.03459176 -0.1483871 -0.22446257 0.1746329 0.12520617 -0.13777466 0.062186718
-0.07822233 -0.006114966 0.1859488 0.143149 -0.088048175 0.07955685 0.2032567 -0.15710667
0.11833358 -0.32747695 -0.017665243 0.2778231 0.29753274 -0.054721646 0.061161034 -0.22889225
0.1561888 0.19829044 -0.032674417 0.08365595 0.08847853 -0.20318039 0.30033922 0.15246627
-0.16660045 0.16606687 0.26163495 -0.059892282 0.47625488 -0.052371733 -0.26109633 -0.17546122
-0.15654601 0.1938364 -0.47206637 0.10936527 -0.20525232 -0.27655482 -0.034749396 0.33151016
-0.40840387 0.20688404 0.05983029 0.668204 0.48438683 0.56075895 0.02680305 -0.46385527
0.07923236 -0.3573132 -0.06017657 0.2248621 0.25864902 -0.04632205 0.07820576 -0.19552885
0.19187102 0.1305245 -0.09289451 0.009369621 0.0076538916 -0.07208278 0.22353345 0.164582
-0.23195596 -0.009177928 0.21849197 -0.002629386 0.41922432 0.031997092 -0.3692272 0.09854645
0.12976769 0.4498845 0.22968943 0.25170365 -0.3097987 -0.18748027 -0.088721305 0.3482505
-0.18117073 -0.032240648 0.12666796 -0.03452396 -0.33540115 0.25070724 -0.06490617 -0.12799351
0.38423997 -0.14835821 -0.3385298 0.16634056 0.14658697 -0.014758903 -0.3269764 -0.03132772
-0.00467191 0.023534657 -0.06281759 0.27010912 -0.37138972 0.17060511 0.08059253 -0.08577152
0.17950694 0.5892128 0.13049765 -0.3920707 0.42611733 0.22173797 -0.54639465 -0.2801428
-0.08995387 0.4302068 -0.381484 -0.08151677 -0.18317366 -0.33012468 -0.543227 0.42631218
-0.12142436 0.2611898 -0.0041842447 0.06543846 0.24965346 0.20000206 -0.36761534 -0.21046887
0.18512316 -0.26632217 -0.17374852 0.2737723 0.22533266 -0.19667837 -0.13737182 -0.01589934
0.1085712 0.16891481 -0.04508944 0.20485139 -0.062018983 0.07165689 0.17999738 0.17820579
-0.11965047 0.64232635 0.19872698 -0.07220125 0.54669905 -0.05413984 -0.6545614 0.13337192
0.119127706 0.13477151 -0.40932685 -0.17112996 -0.1928109 0.15305518 -0.20226769 0.39582527
-0.43474218 0.26199716 0.18562254 -0.30658758 0.16608568 0.60665846 0.09533594 -0.55473804
0.19418621 -0.08581452 -0.39940432 0.043070138 0.014933344 0.2725659 -0.6182831 0.23546542
-0.13042775 0.0024943613 -0.7298842 0.32218227 -0.26726758 0.11532345 0.038970266 -0.07706108
0.32918093 0.21660215 -0.11127467 -0.39984262 -0.16508782 0.5615932 -0.01646105 -0.5400171
-0.5201242 0.331069 -0.10563196 0.48789734 -0.38969824 -0.49529234 -0.20323825 0.10197813
-0.12296271 0.37156698 -0.52336955 -0.30681813 0.5889166 -0.27095318 -0.47020936 -0.09300104
-0.02115712 0.42642862 -0.1933719 -0.4497985 -0.4494639 0.37328774 -0.22041796 0.31698534
-0.30545917 -0.43957296 -0.27915505 0.23529582 -0.28608656 0.352836 -0.36723447 -0.35121062

item_embedding.weight f4 [406, 20]
00000000: 977a 54be 18a5 0f3e ccb3 683e 6aae 2dbf
00000010: b7be bebe cbec 0b3f 42ab 0cbf 84ed 0bbf
00000020: a984 033f 7570 d4be 03f4 943e bc74 e63d
00000030: 706f 2e3e cd27 113e 6f10 50bf 2509 373e
00000040: 2563 833c 69c1 50bf 01ad 3f3f 56dc e03e
00000050: 3b47 22be 3d19 fe3e 510c d0bd 0d35 b9be
00000060: f970 0dbf 28f9 943e 2acb 8dbe a6f9 a13d
00000070: 97f6 fcbe 6091 91be fbc1 3fbf 47d0 8a3e
00000080: 8930 b6be 8583 153f 26c1 15bf f105 a1be
00000090: d1ae 423f 0563 0fbf 9b88 28bf 6ee2 97be
000000a0: 6ebd 03bb 8e97 013f 894b a8be b3ba cbbe
000000b0: 8c21 ccbe 0e42 243d ba6b 0fbe b6d1 033f
000000c0: 57f0 5abd f2eb 03bf 7bdf 44bf ebc5 2c3e
000000d0: 83f8 32be f6ef ed3e 26ad dcbe 9fd3 1e3e
000000e0: b1c4 073f e42a 0ebf be5a 17bf 7a08 87bd
000000f0: d660 2abe def3 313f c4ee cfbe 0db1 0abf
00000100: ae31 17bf 26c5 d03e a3bc 3dbf 0def f43e
00000110: 015e b5bd b427 003d c21f edbe 5b2a d0bd
00000120: 8ce7 91be 9229 193e a4fa 3bbf c1ac 9bbe
00000130: 2f5f 203f e6d5 22bf e384 d7be fbc6 d8be
00000140: 5150 1cbe ea65 093f ea03 acbe 3461 14bf
00000150: afe0 3fbf de92 dd3e 24ce 1abf 8fdb fe3e
00000160: 912f adbe 456e 4cbe 1bae 57be 053c a5bd
00000170: defa 063d 12aa 393f b4a8 2ebf c71d 24be
00000180: 6959 153f 5970 4abf 0b65 94be b8f9 a5be
00000190: e1e8 26bf 9c94 093f 6823 2f3f 86d2 07bf
000001a0: 1a3e 13bf e14f 4dbf c73c 2b3f 0287 1d3f
000001b0: bac0 70bf 2290 833e cdbd 8e3e 9736 293f
000001c0: 511b d5be 2f39 b23e cabc 47bd 85b8 d4be
000001d0: e1b2 383f eba2 92be 09dc 0dbf fc76 063f
000001e0: 774a a8be d0a9 d43e 24e7 61be 2b60 03bf
000001f0: 77db ebbe 3722 27be d8c9 863e 21d5 893d
00000200: 9654 0abf 62b9 bdbe 1e17 c7bd 0873 983e
00000210: 1a99 56be 261f 343f c18b 14bf d517 3abf
00000220: 5f55 af3e ce93 2bbf 544e e5be 40c4 c2bd
00000230: a3bd 3a3e 2660 1c3f b061 e2be b6f0 c1be
00000240: 851a 0bbf 4682 ec3e 5081 04bf 5823 013f
00000250: 3254 e7be 831f e1be 556d 54bd bedb 81be
00000260: 663d fcbe bb43 253f c04b 00bf 8853 b4bd
00000270: 216b a63e 3a11 57bf 69ad 05bf fe76 a7be
00000280: 153b 93be 5f60 303f 6501 543d 7b13 15bf
00000290: f747 3fbf 37d0 673e 8931 283d cbbe 143f
000002a0: bce0 8dbc 7cc8 8dbe 0d5f 53bf 5343 52be
000002b0: f8cb 0abf 62b1 933e eac9 2cbf 4233 45be
000002c0: bd92 753e f00a c4be 0a87 3fbf 1d60 84be
000002d0: 7247 28bf f5e3 213f d633 153f 4f2c f7be
000002e0: 9d52 27bf 1017 bdbe a895 b53e 8c51 133e
000002f0: e841 ac3c f514 49be 3193 233f ed2e abbe
00000300: f8fd 043f 97fb 373e aa38 29bf 3c9a f63e
00000310: 7d06 b53e 674e 0ebf b18d 8dbe ff6f 353f
00000320: ce07 ef3d a82f 123f f637 eabe 7285 99be
00000330: 46aa febe 81c5 f73e cc16 78be d014 2dbd
00000340: 159f 19bf b71e a9be 0539 14bf 7996 bb3e
00000350: ca44 d7be ec41 1a3f 3862 1bbf b13d 30bf
00000360: c6fe 433f d866 883e a2cd 1ebf 7dd2 d8be
00000370: f813 35bf 907e 563e 14dd 3f3f 8ac9 48be
00000380: 0194 4cbe 7269 16bf b27f 103f 2c63 08be
00000390: e3f0 783e 0219 06bd c862 3fbd 45a1 33bf
000003a0: a542 eb3e d2f7 8abe 80e1 f73d 98d8 903e
000003b0: b9e7 623d 4e97 44bf 1c27 c4bd 57d2 1d3f
000003c0: b186 dbbd f85f f33e 8e63 85be 257a f8be
000003d0: b855 1ebf ad50 bc3e 8679 c7be 9614 2b3f
000003e0: b04f debe bdd2 dcbe 3c06 1abf 635a 563e
000003f0: f0f0 f9be 76eb db3e 661c 14bf b1b9 92be
-0.2074989 0.14027822 0.22724837 -0.6784426 -0.3725488 0.5465819 -0.5494882 -0.54659295
0.513743 -0.41492048 0.29092416 0.11252734 0.17034698 0.14175339 -0.81275076 0.17874582
0.016038487 -0.8154512 0.7487336 0.43918103 -0.15847485 0.4962863 -0.10158599 -0.36173287
-0.5525051 0.2909634 -0.27694064 0.07908945 -0.49406883 -0.28431225 -0.74905366 0.27112028
-0.35583904 0.5840381 -0.58497846 -0.31449845 0.76048 -0.56010467 -0.65833443 -0.2966494
-0.0020101923 0.5062188 -0.3287013 -0.39790878 -0.39869344 0.040102057 -0.14005938 0.5149187
-0.053451862 -0.515319 -0.76903504 0.16872375 -0.17477612 0.46472138 -0.43100852 0.15510415
0.530345 -0.55534196 -0.59122837 -0.06593414 -0.16638502 0.69512737 -0.4061185 -0.5417641
-0.5906018 0.40775412 -0.7411596 0.4783863 -0.088558204 0.031287864 -0.46313292 -0.10164329
-0.2849697 0.14957264 -0.7342932 -0.30405238 0.6264524 -0.63607633 -0.42093572 -0.4233931
-0.15265013 0.53671134 -0.33596736 -0.5796082 -0.74952215 0.43276113 -0.60470796 0.49776885
-0.33825353 -0.1996394 -0.2106251 -0.080680884 0.03295409 0.7252513 -0.6822617 -0.16026984
0.58339554 -0.7907768 -0.2898334 -0.32417083 -0.65199095 0.53742385 0.684134 -0.5305561
-0.57516634 -0.8020001 0.66889614 0.6153413 -0.9404408 0.25695902 0.27879182 0.6609892
-0.41622403 0.34809253 -0.048764028 -0.41547027 0.7214795 -0.28639922 -0.5541387 0.52525306
-0.32869312 0.41535807 -0.2206083 -0.51318616 -0.46065876 -0.16321646 0.2632587 0.06730104
-0.5403532 -0.37055498 -0.09721206 0.29775262 -0.20956841 0.7036003 -0.5802575 -0.72692615
0.3424482 -0.6702241 -0.44786322 -0.09510088 0.18236403 0.6108421 -0.44215155 -0.3787896
-0.5433734 0.4619314 -0.51759815 0.50444555 -0.45181423 -0.43969354 -0.05186208 -0.25362962
-0.49265593 0.64556473 -0.50115585 -0.08804995 0.32503608 -0.8401066 -0.5221773 -0.3270797
-0.28756014 0.6889705 0.051759142 -0.5823285 -0.74719185 0.22638021 0.041062865 0.58103627
-0.017319076 -0.2769202 -0.8256691 -0.20533495 -0.5421748 0.2884627 -0.67495596 -0.19257835
0.23981757 -0.38289595 -0.7481543 -0.2585458 -0.65734017 0.6323846 0.5828222 -0.48275992
-0.6536043 -0.36931658 0.3546574 0.14386576 0.02102752 -0.196369 0.6389647 -0.3343424
0.51950026 0.17967068 -0.6610209 0.48164546 0.35356513 -0.5558838 -0.27647164 0.7087402
0.116714105 0.5710397 -0.4574582 -0.29984623 -0.49739283 0.4839287 -0.24227446 -0.042256176
-0.60008365 -0.33031246 -0.57899505 0.3663824 -0.4204467 0.6025684 -0.60696745 -0.68844134
0.7656063 0.26640964 -0.6203252 -0.4234809 -0.70733595 0.20946717 0.74946713 -0.19608131
-0.19978334 -0.58754647 0.5644485 -0.13319081 0.24310641 -0.032738693 -0.046725065 -0.7016795
0.45949283 -0.27142197 0.121035576 0.28290248 0.05539677 -0.7679337 -0.09577772 0.6164908
-0.1071905 0.47534156 -0.26052517 -0.4853069 -0.61849546 0.367803 -0.38959903 0.66828287
-0.43420172 -0.4312953 -0.6016576 0.20932917 -0.48816633 0.4295308 -0.5785583 -0.28657296
