best_para_path/baseline_filmtrust50.20.650.150.250.251.030.00.5_p10_sum20lightgcn_explicit_seed0_ex1_2_0.001_1e-06.pt (torch, 131031 bytes, 2 tensors)

user_embedding.weight f4 [1208, 20]
0	0x3fb78a23	1.4339031
1	0x3e19d814	0.15023834
2	0x3f11ff16	0.57029855
3	0x3f830dd7	1.0238599
4	0x3f78ebc6	0.9723476
5	0xbe20c804	-0.157013
6	0xbf6c3ad6	-0.92277277
7	0xbfe8aa92	-1.8177054
8	0xbf16db13	-0.5892803
9	0x3dc0876d	0.094008304
10	0xbf8e5d7b	-1.1122278
11	0x3ec64012	0.38720757
12	0xbfb2d20e	-1.3970354
13	0xbf3f685d	-0.7476862
14	0xbf8ec2df	-1.115322
15	0xbfac1266	-1.3443115
16	0x3f8049bc	1.0022502
17	0x3fa1a86c	1.2629523
18	0x3f6a538c	0.9153373
19	0xbfac0e37	-1.3441838
20	0x400af134	2.1709719
21	0xbfdd507a	-1.7290184
22	0x3dbab471	0.09116448
23	0xbf3cf91d	-0.73817617
24	0x3fd953b2	1.6978667
25	0xbf2e0e31	-0.67990404
26	0xbd38928c	-0.045061633
27	0xbf690f30	-0.910388
28	0x3f8b4c00	1.0882568
29	0xbee692b5	-0.45033804
30	0xbf8a18d5	-1.0788828
31	0xbe85015a	-0.25977594
32	0xbef0aeb9	-0.47008303
33	0xbf2ca039	-0.6743198
34	0xbf89ab4a	-1.0755398
35	0xbf03914f	-0.513936
36	0x3f2897a3	0.6585638
37	0x3fb8cdd9	1.443782
38	0x3fc557fc	1.5417476
39	0xbf1d3327	-0.6140618
40	0x40063dbd	2.0975182
41	0xbfd6bae5	-1.6775786
42	0x3f01bca0	0.50678444
43	0x3f0d9d57	0.55318207
44	0x3fce6c33	1.612677
45	0xbf54f374	-0.8318398
46	0x3eee78bf	0.46576497
47	0xbdf448a5	-0.11927918
48	0x3c38e479	0.011284941
49	0x3e2de279	0.16980924
50	0xbe982cf2	-0.2972179
51	0xbe9f3caf	-0.31100985
52	0xbda8ceaf	-0.08242547
53	0xbf458478	-0.77155256
54	0xbe1b1afd	-0.15147014
55	0xbea5bf4c	-0.3237251
56	0xbcadc652	-0.02121273
57	0x3fd9a63f	1.7003859
58	0x3fd57120	1.6675148
59	0xbeee97f4	-0.46600306
60	0x3f8cb9cd	1.0994202
61	0xbec02062	-0.37524706
62	0xbf2e6c97	-0.68134445
63	0x3da3c7cd	0.07997093
64	0x3c6e1cd6	0.014533242
65	0xbe9d5dd2	-0.30735642
66	0xbeb3b36f	-0.35097834
67	0xbf6719d1	-0.9027377
68	0xbf7ca79a	-0.9869324
69	0x3f45e270	0.7729864
70	0x3f37e93d	0.7184027
71	0x3f05904d	0.5217331
72	0xbf0f8d35	-0.5607484
73	0xbd52a762	-0.05142916
74	0xbf471fd7	-0.7778296
75	0x3f93e430	1.1554012
76	0x3fa9b327	1.3257798
77	0x3fc8c156	1.5684001
78	0x3ed28fb5	0.41125265
79	0xbf98bef9	-1.193328
80	0x400824fa	2.1272569
81	0xbff6a128	-1.9267931
82	0xbea83886	-0.32855624
83	0xbc6944a4	-0.014237557
84	0x3fbf2c34	1.4935365
85	0xbfab5064	-1.3383908
86	0x3fe04815	1.7521998
87	0xbe88b76b	-0.26702437
88	0x3f31d00c	0.6945808
89	0x3e76bd96	0.24095759
90	0xbee44a29	-0.4458783
91	0xbe52ba30	-0.20578837
92	0xbe533e04	-0.20629126
93	0x3e9cfdea	0.3066247
94	0xbf52a62a	-0.82284796
95	0xbe0c7335	-0.13715823
96	0x3e113a16	0.14182314
97	0x3e8b6aac	0.27229822
98	0x3fd7d189	1.686082
99	0x3d459a6a	0.048242964
100	0x3fe0e295	1.7569147
101	0xbdf5f1a5	-0.12008981
102	0xbf578fa8	-0.8420358
103	0x3f74b43d	0.9558752
104	0x3f115116	0.5676435
105	0x3fc64d22	1.5492289
106	0x3dc15604	0.09440234
107	0xbfa1bcc1	-1.2635728
108	0xbfe51977	-1.7898396
109	0xbfb57fa2	-1.4179575
110	0xbfb26543	-1.3937153
111	0x3f040418	0.51568747
112	0xbd8d2f6a	-0.06893809
113	0x3f3a80ba	0.7285267
114	0xbf910ac5	-1.1331412
115	0x3e447bdd	0.19187875
116	0xbf911cda	-1.133693
117	0x3fcbb619	1.5914947
118	0x3f3001a2	0.6875249
119	0x3f6d0762	0.9258939
120	0x3fb50d88	1.4144754
121	0xbece0f3f	-0.40246007
122	0x3f51b4dd	0.819166
123	0x3f5d80b2	0.865245
124	0x3f02f69f	0.51157564
125	0xbfaddf43	-1.3583759
126	0x3e9adbc4	0.30245793
127	0xbff14a5e	-1.885082
128	0xbf887975	-1.0662066
129	0x3f615527	0.8802056
130	0xbf313134	-0.69215703
131	0x3f83c8e4	1.0295682
132	0xbfa7d35e	-1.3111379
133	0x3f645267	0.89188236
134	0xbf62a693	-0.8853542
135	0xbfbab837	-1.4587468
136	0x3fbe5f75	1.4872881
137	0x3f810225	1.007878
138	0x3f89b614	1.0758691
139	0xbfa098f8	-1.2546682
140	0x3f0d6fa3	0.5524847
141	0xbf2b9565	-0.6702483
142	0xbf38534e	-0.7200211
143	0xbfa0ab7a	-1.255233
144	0x3de5880f	0.11207592
145	0x3f37d2d4	0.71806073
146	0xbeb007b3	-0.34380874
147	0xbfa3e755	-1.2804972
148	0xbf1193c4	-0.568661
149	0xbdcbf519	-0.09958858
150	0xbfaf69fc	-1.3704219
151	0x3f6fa122	0.93605244
152	0xbef7d3f6	-0.484039
153	0x3f176b11	0.59147745
154	0xbd895ed5	-0.06707541
155	0xbf024f03	-0.5090181
156	0x3f78cc80	0.9718704
157	0x3eb21369	0.34780434
158	0xbf2d04d6	-0.67585504
159	0x3db51819	0.08842487
160	0x3fdfc6a1	1.7482492
161	0xbfaab3a8	-1.3336077
162	0x3f2a424d	0.66507417
163	0x3fc54dca	1.5414364
164	0x3f936f02	1.1518252
165	0xc002f853	-2.0464065
166	0x3d06110c	0.0327311
167	0xbf56d131	-0.8391295
168	0xbf97ab7f	-1.1849211
169	0x3f156c48	0.5836835
170	0xbdf7381e	-0.120712504
171	0x3fcba653	1.5910133
172	0xbf3f24d0	-0.74665546
173	0x3f12af6b	0.57298917
174	0x3fd43864	1.6579709
175	0xbf90ecab	-1.1322225
176	0x3f96a967	1.1770447
177	0x4004f89a	2.0776734
178	0x3fcde509	1.6085521
179	0x3ed3946f	0.41324183
180	0x3fbdba51	1.4822484
181	0x3efc1f2c	0.49242532
182	0x3e7e148b	0.24812524
183	0x3e3a2eae	0.1818187
184	0x3f9793c2	1.1841967
185	0xbf28075e	-0.6563624
186	0xbf1cd577	-0.6126322
187	0xbfe20a63	-1.765942
188	0xbf99d98b	-1.2019514
189	0x3f90823e	1.1289747
190	0xbf94d488	-1.1627359
191	0x3e32a4c7	0.1744567
192	0xbfa5bf69	-1.2949039
193	0x3f540efc	0.82835364
194	0xbf28d6ea	-0.6595293
195	0xbfa7afb9	-1.3100501
196	0x3fc37f3d	1.5273205
197	0x3ebdf69e	0.37102216
198	0x3f7dd893	0.9915859
199	0xbf8a1fad	-1.0790917
200	0x3f05f705	0.52330047
201	0xbf954176	-1.1660602
202	0x3e559b28	0.20859969
203	0xbf4f1a1a	-0.808992
204	0x3f2d2715	0.6763776
205	0xbe87d555	-0.26529947
206	0xbf360ad1	-0.71110255
207	0xbf8bd6a9	-1.0924884
208	0xbef349e2	-0.47517306
209	0xbdaa8989	-0.08327014
210	0xbfb3ec5f	-1.405651
211	0x3f0af1b5	0.54275066
212	0xbf158089	-0.58399254
213	0xbe424fc2	-0.18975738
214	0xbe8a2435	-0.2698075
215	0xbf86632d	-1.0499016
216	0x3fc110c1	1.5083238
217	0xbea6b5b5	-0.32560506
218	0xbe039333	-0.12849121
219	0xbfa305eb	-1.2736181
220	0xbfe381de	-1.7774007
221	0x3faa0026	1.3281295
222	0x3ea70606	0.32621783
223	0xbf4e5395	-0.80596286
224	0xbfafdddc	-1.3739581
225	0x3f797c9c	0.97455764
226	0xbf1a8133	-0.6035339
227	0x3e8316d1	0.25603345
228	0xbe77a19e	-0.24182746
229	0xbf561bef	-0.83636373
230	0xbd238966	-0.039925955
231	0x3f53af65	0.82689506
232	0xbdcce64c	-0.10004863
233	0x3f50b8b8	0.8153186
234	0xbef6f0ea	-0.48230678
235	0x3db54d2d	0.08852611
236	0x3ed37bb7	0.41305324
237	0xbfa98554	-1.3243814
238	0xbfb34ff5	-1.4008776
239	0xbe624432	-0.22096327
240	0xbfdb258d	-1.7120835
241	0x3f984e67	1.1898926
242	0x3ecb7e49	0.39744785
243	0xbeff92a5	-0.49916568
244	0xbfa81cc6	-1.3133781
245	0x3f8ddc9e	1.1082952
246	0xbf0dae6c	-0.5534427
247	0xbed0a7f3	-0.40753135
248	0xbe9d0580	-0.3066826
249	0xbf8865d0	-1.0656071
250	0xbe9eaa8a	-0.30989486
251	0x3f65d269	0.89774185
252	0xbec8aa28	-0.3919232
253	0x3f4d0439	0.8008457
254	0xbf1c8365	-0.6113799
255	0xbe66bcf6	-0.2253302

item_embedding.weight f4 [406, 20]
0	0xbf3a395a	-0.7274376
1	0xc0032184	-2.0489206
2	0xbfde1b13	-1.7352012
3	0xbeaaa729	-0.33330658
4	0xbde072e1	-0.109594114
5	0x3fa466fc	1.2843928
6	0xbfa815fa	-1.3131707
7	0x3fd1805c	1.6367297
8	0x3fde92cd	1.738855
9	0x3fb4e765	1.4133116
10	0x40003072	2.0029569
11	0x3fbe3713	1.4860557
12	0x3fbf8f18	1.4965544
13	0x3e8cf443	0.27530107
14	0xbfd2de0a	-1.6474011
15	0x3fe568b5	1.7922579
16	0xbfd86e04	-1.6908574
17	0xc0030a45	-2.0475018
18	0x3fb0f53c	1.382484
19	0x3fb54e29	1.4164478
20	0xbff4fe54	-1.9140115
21	0x3efaf8d6	0.49017972
22	0x3e19fa92	0.15036991
23	0x3f5929d4	0.8482945
24	0xbf917574	-1.1363969
25	0x3d0347b0	0.03205079
26	0x3dfab5f9	0.1224174
27	0xbc484daf	-0.012225552
28	0x3f238dbd	0.6388815
29	0x3f44e8aa	0.7691752
30	0xbf4099eb	-0.7523486
31	0x3f26f447	0.6521649
32	0x3e233926	0.15939769
33	0x3f0289ba	0.50991404
34	0x3e4017cf	0.18759082
35	0x3f840022	1.031254
36	0x3fbcaa98	1.4739561
37	0xbfe0237a	-1.7510827
38	0xbfb44362	-1.4083064
39	0x3f05d4e1	0.5227795
40	0xbf978093	-1.1836113
41	0xbdebe5b1	-0.115184195
42	0xbf5b16cf	-0.8558168
43	0x3eaed4ac	0.3414663
44	0xbc78ef6d	-0.015193802
45	0xbe941417	-0.28921577
46	0x3e8225ba	0.25419408
47	0x3f8cf064	1.1010861
48	0x3f37e3fc	0.7183225
49	0x3ec1c07f	0.37842175
50	0xbecb1811	-0.396668
51	0xbefbe7c1	-0.49200252
52	0x3f46df64	0.7768462
53	0x3f2a14f3	0.66438216
54	0xbdc150db	-0.0943925
55	0x3f65a9c4	0.89712167
56	0x3d55c16f	0.052186426
57	0xbf97ddfb	-1.1864618
58	0xbf5ff12d	-0.8747738
59	0x3f52911a	0.8225266
60	0xbfe419aa	-1.7820332
61	0x3fae7299	1.3628722
62	0xbf398395	-0.72466403
63	0xbcdfdea2	-0.02732784
64	0xbfc4e696	-1.5382869
65	0x3ef8088e	0.48444027
66	0xbf8baa0b	-1.0911268
67	0x3f2a2cad	0.6647442
68	0x3f168172	0.5879127
69	0x3f6c2bf1	0.9225455
70	0x3f5af89d	0.85535604
71	0xbf7368cf	-0.950818
72	0xbee39d01	-0.44455722
73	0xbf612a86	-0.8795551
74	0xbf80c5c4	-1.0060353
75	0x3f16a00f	0.5883798
76	0x3bcf17cb	0.006319975
77	0xbff043e0	-1.8770714
78	0xbf99a66a	-1.200391
79	0xbf96d26b	-1.1782964
80	0xbfde44ee	-1.7364786
81	0xbf001d90	-0.5004511
82	0xbf7c6580	-0.98592377
83	0xbebbe66f	-0.36699244
84	0xbfe6371a	-1.7985566
85	0xbf04c3de	-0.5186137
86	0xbf619ddc	-0.881315
87	0x3f5527c7	0.8326382
88	0x3e28f2c9	0.16498865
89	0x3f0b8e40	0.5451393
90	0x3f51de61	0.8197995
91	0xbf8039c1	-1.0017625
92	0x3f421f32	0.7582885
93	0x3fc2bb3e	1.5213392
94	0xbf9bf449	-1.2183925
95	0x3f83186b	1.0241827
96	0xbe81681d	-0.25274745
97	0xbffb9cf8	-1.9657278
98	0xbf898dd1	-1.0746404
99	0xbe469b54	-0.1939519
100	0xbfd377d2	-1.6520941
101	0x3f8870b1	1.0659391
102	0xbf63bf7d	-0.8896406
103	0xbe731f08	-0.23742306
104	0xbf362826	-0.7115501
105	0xbfa69c40	-1.3016434
106	0x3fa8ff10	1.3202839
107	0x40072711	2.1117594
108	0xbec94cc4	-0.3931638
109	0x3f2e3f57	0.680654
110	0x3fae0efa	1.359832
111	0x3fa35b57	1.276225
112	0x3ec5b1a7	0.386121
113	0xbf7018c2	-0.9378778
114	0x3f86089d	1.0471379
115	0x3fc39286	1.527909
116	0xbf851594	-1.039721
117	0x3fa3862a	1.2775319
118	0xbc153e13	-0.009109038
119	0x3facc5ac	1.3497825
120	0xbfc477e7	-1.5349091
121	0xbf51108a	-0.8166586
122	0xbf5d9e45	-0.86569625
123	0xbf62a812	-0.88537705
124	0xbf78eeb2	-0.9723922
125	0xbf87a1ee	-1.0596292
126	0x3f898168	1.0742617
127	0x3f6f6f2e	0.9352902
128	0xbddb8d4d	-0.1072031
129	0x3f6586cd	0.89658815
130	0x3f2e123d	0.6799658
131	0xbdb56965	-0.08857993
132	0x3ef86357	0.4851329
133	0x3fb74f8a	1.4321148
134	0xbe250055	-0.16113408
135	0xbde03866	-0.10948257
136	0xbf75332e	-0.9578122
137	0xbe82e48c	-0.25564992
138	0xbf9eddbf	-1.2411422
139	0x3f8ea8e4	1.1145291
140	0xbfa428bc	-1.2824931
141	0x3fb2bce8	1.39639
142	0xbea60b63	-0.32430562
143	0x3e57781d	0.21041913
144	0xbf89ad49	-1.0756007
145	0x3f942dc2	1.1576464
146	0xbf4bcf1c	-0.796129
147	0x3edbe351	0.42946866
148	0xbe729ee3	-0.23693423
149	0xbe8b4302	-0.2719956
150	0x3f3611ab	0.7112071
151	0xbf82782b	-1.0192922
152	0xbd9d4c61	-0.07680584
153	0x3fa61843	1.2976154
154	0xbf2ddc1b	-0.6791398
155	0x3f3c7d9d	0.7362917
156	0xbeee858e	-0.4658627
157	0xbfc977a6	-1.5739639
158	0xbf51bc0b	-0.81927556
159	0x3d48aa62	0.048990615
160	0xbfbdcd27	-1.4828233
161	0x3fbc2d43	1.4701313
162	0xbfa605a3	-1.297047
163	0xbf5f3322	-0.871874
164	0xbfc85481	-1.5650789
165	0xbeffd96f	-0.49970576
166	0xbf055366	-0.5208038
167	0x3fb69b44	1.4266133
168	0x3f0fcf1a	0.56175387
169	0x3f24283c	0.6412389
170	0x3e98a624	0.29814255
171	0xbf7f615b	-0.9975793
172	0x3f3748f4	0.7159569
173	0xbef40d89	-0.47666577
174	0xbf9abdc1	-1.2089158
175	0x3f560101	0.8359528
176	0xbfa67be0	-1.3006554
177	0xbfb0c18d	-1.3809067
178	0xbfcd9968	-1.6062441
179	0x3e2dfb65	0.1699043
180	0xbfe318ed	-1.7741982
181	0x3ec91da7	0.39280435
182	0xbfd9697c	-1.6985316
183	0x3f8b4c36	1.0882633
184	0xbf7b58db	-0.9818246
185	0xbf95d181	-1.170456
186	0x3ee8cf1d	0.45470515
187	0x3ff1b219	1.8882476
188	0x3fbf7216	1.4956691
189	0x3fcf1d7e	1.6180875
190	0x3ff91a5f	1.9461173
191	0x3de713cd	0.112830736
192	0x3fddc7e9	1.7326633
193	0x3f22645b	0.6343438
194	0x3f39eadc	0.7262399
195	0x3fe54558	1.7911787
196	0xbfdd7782	-1.7302096
197	0xbe0845f9	-0.13307942
198	0xbf169d85	-0.58834106
199	0x3ff68b93	1.9261345
200	0xbff72ee1	-1.9311181
201	0x3fa47687	1.2848672
202	0x39a85438	0.00032106205
203	0x3f350b02	0.7071992
204	0xbf5d6521	-0.86482435
205	0x3edbc042	0.4292012
206	0x3db4fb07	0.08836942
207	0xbfc0c10a	-1.5058911
208	0xbf04b706	-0.5184177
209	0x3f0b5d67	0.54439396
210	0x3de49da8	0.11162883
211	0xbe80fb9b	-0.2519196
212	0x3ee0511f	0.4381189
213	0x3f3af894	0.7303555
214	0xbf4d5650	-0.8020983
215	0xbe605c4a	-0.21910205
216	0x3f7a3cb4	0.97748876
217	0xbfb6b4ef	-1.4273967
218	0xbfbc1998	-1.469531
219	0xbe70446d	-0.23463602
220	0xbf808a87	-1.0042275
221	0xbef38161	-0.47559646
222	0xbfd06916	-1.628207
223	0xbe7ce34d	-0.24696083
224	0x3f02ae6c	0.51047397
225	0xbfd0945f	-1.6295279
226	0x3fcfb697	1.6227597
227	0x3ffaf570	1.9606152
228	0x3fec93e2	1.848263
229	0x3e385d22	0.18004277
230	0x3fec741e	1.8472936
231	0xbffb42cf	-1.9629763
232	0x3fd6065d	1.6720692
233	0xbf9a74ad	-1.2066857
234	0x3fdbb20d	1.7163712
235	0x3ff8a727	1.9426011
236	0xbfde420f	-1.736391
237	0xbe42bdcb	-0.19017713
238	0xbc34e0a8	-0.01103989
239	0x3fde1568	1.7350283
240	0xbfe1d253	-1.7642311
241	0x3f39bbdf	0.72552294
242	0x3ed9f330	0.4256835
243	0xbe9a4517	-0.30130836
244	0xbfc27ce8	-1.5194368
245	0x3f69e430	0.9136381
246	0xbfaeff62	-1.3671687
247	0x3f0254ff	0.50910944
248	0xbec495cd	-0.3839554
249	0x3d41d130	0.047318637
250	0x3ef48ef7	0.47765324
251	0x3dc0d1fd	0.09415052
252	0xbec2f271	-0.38075593
253	0x3ed8180e	0.42205852
254	0xbed2dc5d	-0.4118375
255	0x3eaaf275	0.33388105
