best_para_path/baseline_filmtrust50.20.650.150.250.251.01.00.5_p10_sum20lightgcn_explicit_seed0_ex1_2_0.001_1e-06.pt (torch, 131027 bytes, 2 tensors)

user_embedding.weight f4 [1208, 20]
000000 d5 cc a8 3f 7c 56 0d bf da fa f5 be 51 af da 3e
       1.318751 -0.5521009 -0.48042947 0.4271188
000010 8a 38 9a 3f 1e bc 50 3f d2 36 ae bf 03 fb bc bf
       1.2048504 0.81537044 -1.361048 -1.4764103
000020 9a f7 46 bf 9a 89 49 bf 16 b8 d6 bf 74 f2 7d bf
       -0.7772156 -0.7872559 -1.6774929 -0.9919808
000030 6e 2a d4 bf 0f eb ad 3c 97 02 45 3e 36 ab c5 bf
       -1.6575449 0.021230249 0.19239269 -1.5442874
000040 58 4e 81 3f a9 9a bb 3f 8d 31 67 3f b8 91 c9 bf
       1.0102034 1.4656574 0.90309983 -1.5747595
000050 d3 43 07 40 59 6d 06 c0 1c 2e 2a be 8b 64 45 bf
       2.1135147 -2.100424 -0.16619152 -0.7710654
000060 56 86 00 40 3c 1e 84 3e d0 00 d4 be 30 90 0a c0
       2.0081992 0.25804317 -0.4140687 -2.1650505
000070 e3 32 9a 3f 44 75 5a 3e 69 c8 8d bf 6c e1 fa bf
       1.2046779 0.21333796 -1.1076785 -1.9600043
000080 0a 6c 43 bf 63 33 34 bf 4e fe 13 3e e3 0d 1b bf
       -0.7633673 -0.7039091 0.14452478 -0.60568064
000090 18 0f f0 3e 08 f7 85 3f 89 c1 41 3f 47 03 41 bf
       0.46886516 1.0466013 0.75685936 -0.75395626
0000a0 c5 f6 fb 3f af 05 ef bf 32 95 dc be 3f 2f 67 3e
       1.9684683 -1.867361 -0.43082577 0.22576617
0000b0 08 d1 e2 3f 5a fd 02 bf 6b 32 ec 3d e9 e3 eb bf
       1.7720041 -0.51167834 0.11533054 -1.8428928
0000c0 5c 9b cf 3e 89 fc 59 3f 38 d4 7c be c6 69 ea bf
       0.40548217 0.85150963 -0.2469033 -1.831353
0000d0 2f 63 36 3d f3 3a 8d be fc 24 96 3f 3a af 5e bd
       0.044528183 -0.27584037 1.1730037 -0.054366328
0000e0 04 e3 5d bf 83 76 cb 3f f1 d2 c0 3f b1 b8 99 be
       -0.86674523 1.5895542 1.5064374 -0.3002372
0000f0 a9 2c 6f 3f 5f e5 83 bf 90 8b ae bf 30 d7 f4 be
       0.9342752 -1.0304374 -1.3636341 -0.47820425
000100 4f 77 fb 3e 54 03 18 bf 48 d1 ed be dc 1f 8c bf
       0.49114463 -0.5938008 -0.4644873 -1.0947223
000110 aa 37 24 bf ee e4 a3 be e7 15 58 bf 36 8e 56 bf
       -0.64147437 -0.32010597 -0.8440842 -0.83810747
000120 89 59 40 bf ec e7 83 be ed 47 2e 3e bb 3a 59 3e
       -0.7513662 -0.2576288 0.17019625 0.2121381
000130 9e 75 7e 3f 93 80 bc 3f dc 46 06 bf b1 59 82 bf
       0.9939822 1.4726738 -0.5245187 -1.0183622
000140 4c 99 f8 3f e4 e9 03 c0 cc d3 81 bf 96 0c 68 bd
       1.9421782 -2.0611506 -1.014276 -0.056652628
000150 85 95 e3 3f 9e 9f 72 bf 3b 74 66 3f 53 1e ee bf
       1.7780005 -0.94774806 0.90021104 -1.8603004
000160 e2 6c 59 3f bf b0 73 3f cf 5e 10 bf 53 14 e9 bf
       0.84931767 0.9519157 -0.56394666 -1.8209327
000170 7e 22 5e be 64 d9 5d 3e 08 46 39 bf ad 7b 3a be
       -0.21692845 0.21664959 -0.72372484 -0.18211241
000180 b6 11 62 bf 02 83 2b bf d3 c5 8e 3f f7 07 79 3d
       -0.88308275 -0.6699678 1.1154121 0.06079861
000190 99 fe cc 3f 7f ef 20 3e a9 01 c1 bf b9 1b 87 3f
       1.6015197 0.1571636 -1.5078632 1.0555335
0001a0 7b 4c a0 3f c6 43 ed 3f eb ef 9e bf ba fe 2f be
       1.252334 1.8536308 -1.2416967 -0.17187014
0001b0 ef 26 03 c0 f8 aa df bf c1 0a 9b bf 9a aa 85 bf
       -2.0492513 -1.747405 -1.2112657 -1.0442688
0001c0 a0 54 8c bd 21 51 78 3f 05 c6 5d 3d e5 c1 c4 3e
       -0.068520784 0.9699879 0.054143924 0.3842918
0001d0 c1 13 79 bf 96 4d 07 40 79 a6 e4 3e 29 9e ac 3f
       -0.9729577 2.1141105 0.4465826 1.3485767
0001e0 98 0e ba 3f fd 08 8c bf 8a 4e 9e 3d 33 8b 37 3b
       1.4535704 -1.0940243 0.07729824 0.0028006553
0001f0 fe 55 9b 3f 53 1c 8e bf e6 03 c9 bf 2e d1 d3 bf
       1.2135618 -1.1102394 -1.5704315 -1.6548212
000200 19 75 35 bf 3c e4 a6 3e dc 6d cb bf 51 7c ab bf
       -0.708818 0.32596004 -1.5892901 -1.3397313
000210 cf 95 c7 bf 1a 50 a0 3f 83 05 d0 3e 98 63 e6 bf
       -1.5592593 1.2524445 0.40629205 -1.7999144
000220 86 88 92 3f b7 9c 06 bd 95 3b 09 3f 66 db b8 bf
       1.1447914 -0.0328643 0.5360654 -1.4441955
000230 76 7b fe 3e c3 cb 01 bf 6b 03 aa bf 9e cd b3 bf
       0.49703568 -0.5070154 -1.3282293 -1.4047124
000240 78 7d f1 3e e9 53 4a 3f f9 29 2b bf 65 80 87 bf
       0.47166038 0.79034287 -0.6686092 -1.0586058
000250 f9 df 53 be 85 c2 86 3e 1f 23 be bf dc 88 e3 3d
       -0.20690908 0.26320282 -1.4854468 0.11110088
000260 5d 2a 17 3c e4 b8 ce be 00 2f ff 3d 9e 19 13 bf
       0.009226409 -0.40375435 0.124601364 -0.57460964
000270 25 77 ab 3f 18 70 3d 3f 51 6f d5 bf c6 17 cb 3d
       1.3395735 0.73999166 -1.6674596 0.09916644
000280 7f 67 e4 3f a4 dd d9 bf 73 68 af 3e f3 e8 b8 3f
       1.7844085 -1.7020764 0.34259376 1.444609
000290 b8 01 c1 3f 0f d3 0e c0 66 da 07 bf 0e 9c e3 bf
       1.507865 -2.231632 -0.53067625 -1.7781999
0002a0 9f 6f a7 bf 7e 95 c5 be 60 89 ea be d5 bd 67 bf
       -1.3080939 -0.38590616 -0.45807934 -0.90524036
0002b0 99 fd 78 bf 1f b4 8b 3f dc 41 08 40 27 e3 ac bf
       -0.9726196 1.0914344 2.1290197 -1.3506821
0002c0 01 e4 03 3f 2e 3c d6 3f 2a da 5e 3f a2 98 26 3f
       0.5151978 1.6737115 0.8705164 0.6507665
0002d0 34 cc c1 3f 29 89 2c bf 8e 3a a5 bf 54 d5 09 3c
       1.5140443 -0.6739679 -1.2908494 0.008412678
0002e0 5f 2d ad 3f ee f5 2c bf 2f e6 94 bf ff b7 b5 bf
       1.3529471 -0.6756276 -1.1632746 -1.4196776
0002f0 b3 a5 9f bf d3 c0 b6 3f 4d be 89 bf 96 79 9b bf
       -1.2472442 1.4277595 -1.07612 -1.214648
000300 f8 b4 b7 bf b4 77 a7 3f e6 28 9f 3f 94 8a 73 bf
       -1.4352102 1.3083405 1.2434356 -0.9513333
000310 a9 b8 a4 3f 5a fe 4d bf dc 05 5e 3f ab 6a 87 bf
       1.2868854 -0.80466235 0.8672769 -1.0579427
000320 25 69 12 3f 82 ee a2 bf da 98 d0 3d e3 aa 7c bf
       0.5719169 -1.2729037 0.10185404 -0.9869825
000330 76 fa 81 3f e7 05 81 3d 84 3b 5e bf f0 e3 5d bf
       1.015456 0.06299954 -0.86809564 -0.8667593
000340 4e fa 29 3f ed 60 e8 3e db cb c7 bf 9b 20 2c bf
       0.6639756 0.45386449 -1.5609087 -0.6723725
000350 93 56 c0 be 08 4c 66 bf d1 2c cd 3e a3 71 7c bf
       -0.3756605 -0.89959764 0.40073255 -0.98610896
000360 c0 4b d4 3f 60 c9 54 bf 27 6b 50 bf 5b cf b4 bf
       1.6585617 -0.83119774 -0.814135 -1.412578
000370 91 a7 c4 bf b0 f6 b8 3f ea 50 62 3f c6 62 10 bf
       -1.5363637 1.4450283 0.88404715 -0.56400716
000380 31 a7 a7 bf 06 65 38 3f 6a 20 dc be 35 0f c0 3f
       -1.3097898 0.7202915 -0.4299348 1.5004641
000390 fa 25 27 bf 86 7b 5d bf 58 ad 20 3e 78 8c b4 3f
       -0.6529232 -0.86516607 0.15691125 1.4105368
0003a0 6a ed 8d be 58 a9 38 3f cc de 7b bf 29 fd d0 bd
       -0.27720195 0.721334 -0.98386836 -0.102045365
0003b0 4f 39 6a 3f 9a 45 2c bf a2 54 6b bf df 76 88 be
       0.91493696 -0.67293704 -0.91926014 -0.2665319
0003c0 fd ba ba bf 57 45 ab 3f 32 54 11 3f fa 5b 01 bf
       -1.4588314 1.3380536 0.56769097 -0.5053097
0003d0 ee b7 9d bf e6 ed 84 3f 8e e6 19 bf b6 2d 93 3f
       -1.2321756 1.0385101 -0.60117424 1.1498325
0003e0 05 bc 1d bf fe 8b 6b bf ef bf b0 be d7 07 aa 3f
       -0.6161502 -0.92010486 -0.34521434 1.3283643
0003f0 27 21 32 bf 36 61 46 3f a9 da 9f bf ee af 0a bf
       -0.69581836 0.7749208 -1.2488605 -0.541747

item_embedding.weight f4 [406, 20]
000000 5c 6a b4 bf 19 ba 86 be 97 5f 99 bf ba 91 25 bf
       -1.4094958 -0.26313856 -1.1982297 -0.64675486
000010 a9 40 9b bf 83 1b 17 3f 0b bc a7 3f 03 7b 6b 3f
       -1.2129108 0.59026355 1.3104261 0.91984576
000020 41 17 bf 3f f4 a8 dc 3f 4c 4d e7 3f b7 e4 ee 3f
       1.4928972 1.723906 1.8070464 1.8663548
000030 8a 37 9d 3f 96 04 89 bf e4 14 ff bf 96 f3 03 40
       1.2282574 -1.0704525 -1.992825 2.0617423
000040 b2 4a ab bf ee dd 13 c0 20 48 cd 3f 5e bb b0 3f
       -1.338217 -2.3104205 1.6037636 1.380718
000050 cd d5 cf bf 45 a1 79 3f 1b c1 5d 3f d7 ca 77 3f
       -1.6237122 0.975117 0.8662278 0.96793884
000060 89 27 9f bf 32 20 e3 3d 06 27 8a be c2 4f 8c 3f
       -1.243394 0.11090125 -0.26982898 1.096184
000070 b1 68 b2 be 0e c8 c4 3d 73 45 ff 3e 82 3b d7 3f
       -0.34845498 0.0960847 0.49857673 1.6815035
000080 26 1f 95 bf 72 0a 4d 3f 3f 81 8f bf 7f 84 8b 3f
       -1.1650131 0.80094063 -1.1211318 1.089981
000090 b8 5c e5 3f eb 52 f3 bf a3 b2 21 bf 2d ec 4f 3e
       1.791892 -1.900968 -0.63163203 0.20304938
0000a0 18 ab 6c bf 00 87 03 3e b6 73 82 bf a3 67 3a 3f
       -0.9244857 0.12844467 -1.0191562 0.7281439
0000b0 83 e0 44 bc 8a 33 4c bf 86 35 cf 3e a2 e4 ae 3f
       -0.012016418 -0.7976614 0.40470523 1.3663523
0000c0 15 2c 91 3f b6 07 b7 be 76 9f 4c 3f e8 b7 b9 3e
       1.1341578 -0.3574807 0.7993082 0.36273122
0000d0 25 b5 88 3f 3b 5a 01 be ed 17 2a 3e af 1c 86 3f
       1.0680281 -0.12632076 0.1661069 1.0477504
0000e0 d0 46 24 bc cf 72 f7 3e fe dc 04 bf e9 7c 82 3f
       -0.010026649 0.4832978 -0.5189971 1.019437
0000f0 7c 86 d8 bf ef 77 f6 3f c1 cd f8 be e6 32 e6 3d
       -1.6916041 1.9255351 -0.48594478 0.11240177
000100 15 dd d4 bf fa 64 71 be c2 8a 38 bf 9f 37 ca 3f
       -1.6629969 -0.23573676 -0.7208673 1.5798224
000110 44 e2 42 3f e8 12 1a 3f 21 ff 81 3f be a9 9e 3f
       0.76126504 0.601851 1.0155984 1.2395551
000120 94 b3 81 bf 1a 15 70 bf b0 cc ea bf db 49 6e 3f
       -1.0132928 -0.937822 -1.8343716 0.93081445
000130 84 52 69 3f 76 0c 01 c0 85 8e a6 bf 1f 88 b8 be
       0.91141534 -2.0163856 -1.3012244 -0.36041352
000140 82 d1 e4 bf ab 4e 27 3f 49 81 e9 bd 1c df e3 be
       -1.7876437 0.6535441 -0.11401612 -0.44506156
000150 09 96 f7 bf b6 4f b8 3e 36 e1 a9 3e 56 32 e7 3f
       -1.9342662 0.35998315 0.33179635 1.8062236
000160 d8 29 f5 be 4f 21 27 3d b7 a3 3f 3f 02 c3 96 3f
       -0.47883487 0.04080325 0.74859184 1.1778262
000170 4a 15 08 3f cc f2 da 3e ce 7c df bf 55 4c 73 3f
       0.53157485 0.42763364 -1.7459962 0.9503835
000180 46 91 8b 3f c7 99 eb bf cb 24 ac bf b6 ff db bd
       1.0903709 -1.8406304 -1.3448728 -0.10742132
000190 e1 dc b4 bf 2c ba 7e 3f 1e d1 05 bf cc 1f 8e bc
       -1.4129907 0.99502826 -0.5227221 -0.017349146
0001a0 3d 12 5c be c9 7e dd bf 8a 04 dd 3f 07 b6 e6 3f
       -0.21491332 -1.7304317 1.726701 1.80243
0001b0 7d 47 21 bf 65 39 64 3f b9 d9 d0 3f a1 3c ce 3f
       -0.6299971 0.8915008 1.6316444 1.6112252
0001c0 d2 2e 0d 3e 76 11 89 bf 95 5c fb 3e ef 5e c8 3f
       0.13787392 -1.0708454 0.49094072 1.5653971
0001d0 61 a3 80 bf 9e 23 c9 3f 50 93 2f 3f 87 18 95 3f
       -1.0049859 1.5713995 0.68584156 1.164811
0001e0 6f a1 dd bf bd f6 1d 3f f3 80 1b be f8 02 f2 3e
       -1.7314891 0.6170462 -0.15185909 0.4726789
0001f0 b1 16 a2 bf d0 e7 83 bf 7f ea a1 3f fe 0b a4 3f
       -1.2663175 -1.0305119 1.2649688 1.281616
000200 bc ef 45 3e 60 af 4f 3f 34 14 83 3f f5 9b dc 3f
       0.19329733 0.81126976 1.024054 1.7235094
000210 4f 69 28 3f 35 91 31 bb a5 68 5e bf a4 00 3d 3f
       0.6578569 -0.0027094607 -0.86878425 0.738291
000220 ab 98 d2 be 34 29 b2 bf df 8d 5a bf 42 23 88 3f
       -0.411321 -1.3918824 -0.8537273 1.063576
000230 93 29 b5 bf 38 51 a4 3f 33 2d 1f be ab ae 64 be
       -1.4153312 1.2837286 -0.15544586 -0.22332256
000240 25 00 a5 bf 57 cc 82 3f 32 6b 16 bf 2f 86 9d 3f
       -1.2890669 1.021861 -0.5875732 1.2306575
000250 f9 02 c6 be 1b a8 e9 be 09 16 ab 3e 2f 29 ae 3e
       -0.38674143 -0.45636067 0.3341525 0.34015796
000260 a1 64 c1 3d e9 4e b3 3f 5b 35 cd bf f3 d4 05 3f
       0.094430216 1.4008456 -1.6031908 0.5227806
000270 ca 70 1f 3e af 99 db bf 9a 17 70 bf 12 27 ed bd
       0.1557037 -1.7156276 -0.93786013 -0.11579718
000280 5d df c0 bf f0 fe 8f 3f 1a 8a a4 bf 7a 34 20 bd
       -1.5068165 1.1249676 -1.2854645 -0.039112546
000290 54 b9 d2 bf d2 78 02 3f df a6 01 3f 88 a3 9a 3f
       -1.6462808 0.5096561 0.5064525 1.2081156
0002a0 44 ad f0 3e 3e e9 8e 3f 4e fb 88 3f b8 86 b9 3f
       0.4700719 1.116493 1.0701692 1.4494238
0002b0 14 71 32 3f 0d 52 73 3e 55 9c f7 bf d3 fd 61 3f
       0.69703794 0.23761769 -1.9344584 0.8827793
0002c0 3e 18 6b bf fa 4c fc bf 41 b7 d8 bf 8a 9f f4 bd
       -0.91833866 -1.9710991 -1.6930925 -0.11944492
0002d0 63 4a db bf 29 33 b7 3f fd 3a 8f bf 02 60 a3 3f
       -1.7132076 1.4312488 -1.1189877 1.2763674
0002e0 81 e5 b8 bf 54 94 c9 bf 71 3d be 3f 3d ff 9a 3f
       -1.4445039 -1.5748391 1.48625 1.2109143
0002f0 5a f9 a9 3f ec 87 fd 3f 99 16 f5 3f c4 fc c5 3f
       1.3279221 1.9807105 1.9147521 1.5467763
000300 92 55 c6 3f cd 2f 38 bf 69 4c 4e bf 03 7a e9 3f
       1.5494864 -0.7194794 -0.8058534 1.824036
000310 b2 72 ba bf 5f 94 4b 3f c5 c2 76 be 95 70 f1 3f
       -1.4566252 0.7952327 -0.24097736 1.8862482
000320 b8 5c c8 bf 5a 82 c0 3f 97 0b 60 3f a8 80 0c 3f
       -1.5653296 1.503978 0.87517685 0.54883814
000330 c2 07 6d bf ac 1e 71 3f 4a 63 d5 be 8b 22 14 3f
       -0.9258996 0.94187427 -0.41677314 0.5786521
000340 57 12 44 bf cb ae dc be ef 11 b1 be a1 62 56 3f
       -0.76590484 -0.43102106 -0.34583995 0.83744246
000350 2c 08 bd be 86 8d b4 3e 23 31 88 bf 65 16 9c bf
       -0.36920297 0.35264224 -1.0639995 -1.2194334
000360 a2 19 b7 3f 13 75 fa bf c0 8c bb bf 08 14 80 bf
       1.4304698 -1.9566978 -1.4652328 -1.0006113
000370 11 aa 83 bf 01 36 cd 3e c8 b8 78 bf b7 3c 40 3f
       -1.0286275 0.40080264 -0.97156954 0.75092643
000380 83 35 52 be 25 5e 08 c0 c2 46 0b 40 55 b5 f1 3e
       -0.20528226 -2.1307461 2.1761937 0.47208658
000390 b8 d6 03 40 e3 b8 00 3f 85 8c 07 40 35 a6 8e bd
       2.0599804 0.50282115 2.1179516 -0.06965295
0003a0 1f 77 ff 3f 65 e5 e2 bf f8 b3 93 3f 97 0c 11 40
       1.9958228 -1.7726256 1.1539297 2.2663934
0003b0 35 00 da bf 0e 21 13 bf 45 54 51 3d 7b 6d 05 40
       -1.7031313 -0.5747231 0.051105756 2.0848072
0003c0 25 6a cc bf 23 50 af 3f 07 b0 08 3f 7e c0 83 be
       -1.5969893 1.3696331 0.53393596 -0.25732797
0003d0 13 dd db bf e5 d5 72 3f 16 0c 9b bf d2 d4 d6 3f
       -1.7176841 0.9485763 -1.2113063 1.6783698
0003e0 3c 1d 41 bf a9 8a 6c be 04 57 24 3f 13 ca af 3f
       -0.75435233 -0.2309977 0.64195275 1.3733543
0003f0 24 b0 51 bf 36 6f 6a 3f cc bb b7 bf 05 d5 22 3e
       -0.81909394 0.91575944 -1.4354186 0.15901573
