best_para_path/baseline_ciao100.10.20.70.250.251.050.00.5_p10_sum20diffnet_explicit_seed0_ex1_3_0.001_1e-05.pt (torch, 446715 bytes, 2 tensors)

user_embedding.weight f4 [2541, 20]
000000 94 e7 0c be 98 38 ac 3e 7e 87 ab 3e b5 27 78 3e
       -0.13760215 0.33636928 0.3350181 0.24233897
000010 7e b9 c6 be fb 4d 4a be d1 c3 87 be 52 2d 14 be
       -0.38813394 -0.1975631 -0.26516584 -0.14470413
000020 91 82 63 be 34 df 1f bd b7 dd 9b 3e 12 81 0f be
       -0.22217776 -0.039031222 0.30442593 -0.1401408
000030 cb 18 ab 3e 8e 51 bf bd 5b ad 70 3e 3a 5c 2f be
       0.33417353 -0.09341727 0.2350363 -0.17125025
000040 43 d6 f3 bc 5b 67 56 3e 01 c3 94 3e de 20 6a be
       -0.029765254 0.20937864 0.29055026 -0.228641
000050 07 83 24 be ff 11 92 3e 37 e4 8a 3e 7d c1 9c 3e
       -0.16065608 0.28529355 0.2712724 0.3061637
000060 79 2e e5 be b4 77 3f be b9 8c 51 be 24 62 2f be
       -0.44762018 -0.18698007 -0.20463838 -0.17127281
000070 00 cf 4c be fa 6a b2 be 25 24 b1 3e 12 b3 42 be
       -0.20000839 -0.34847242 0.3459789 -0.19013622
000080 7c 5f 81 3e a4 82 75 be 73 a2 00 3e ee 20 0f be
       0.2526816 -0.23975617 0.1256197 -0.13977405
000090 f6 35 07 be 7c 98 75 3e f8 ac 51 3e 45 e6 53 be
       -0.13204178 0.2398395 0.20476139 -0.2069331
0000a0 07 a2 4c be a7 44 1f 3e 16 c1 69 3e a8 93 88 3e
       -0.19983684 0.15553533 0.22827563 0.26675153
0000b0 bf 24 59 be d7 e6 87 be 77 b9 52 be 3f 7a 01 be
       -0.21205424 -0.26543304 -0.20578562 -0.1264429
0000c0 49 fa 5f be 86 7c bd be 72 85 a1 3e ac b5 34 be
       -0.2187282 -0.37009066 0.31547123 -0.17647427
0000d0 60 9c 39 3e fd f0 31 be f5 43 3e 3e 03 1a d4 bd
       0.18126059 -0.17377086 0.18580611 -0.10356524
0000e0 57 c5 11 bd 4d 5d 8c 3e d5 e8 a0 3e 4e c3 92 be
       -0.03558859 0.27414933 0.31427637 -0.2866463
0000f0 b6 1f 42 be 2d 5a 23 3e 5e 0b 66 3e 73 ac 81 3e
       -0.1895741 0.15952368 0.22465274 0.2532688
000100 57 25 0a bf 7f f3 9a be d6 bd 13 be 18 9c 81 bd
       -0.53963226 -0.30263898 -0.14427885 -0.06328601
000110 7f b4 62 be cd 2e a8 be 20 ab 8b 3e 7e de 9a be
       -0.22139166 -0.32848206 0.27278996 -0.30247873
000120 0c 88 08 3e 8e 49 0c be 91 65 09 3e 12 a2 f3 bd
       0.13333148 -0.13699934 0.13417651 -0.11896147
000130 3b 71 4c 3d b9 d1 90 3e d4 44 99 3e 98 e2 98 be
       0.049912672 0.28285006 0.29935324 -0.29860377
000140 9a 10 45 be d5 1b 60 3e d4 d7 6b 3e 48 5b 6c 3e
       -0.19244614 0.21885617 0.2303155 0.23081696
000150 f9 7b f4 be e8 fc 9d be 00 e1 8e be 73 23 51 bd
       -0.47750834 -0.30857015 -0.27906036 -0.051059198
000160 33 85 6f be ba 0c a4 be 30 9d 73 3e 47 f2 19 be
       -0.23390655 -0.3204096 0.23790431 -0.15033828
000170 9c 9d 2e 3e 98 c5 0d be d5 53 b8 3e e5 f3 78 be
       0.1705231 -0.13844907 0.3600146 -0.24311788
000180 54 74 69 3d 63 2e 91 3e 02 f4 b3 3e 2a 81 a0 be
       0.056995705 0.28355703 0.351471 -0.31348544
000190 76 4b ef bd dc fb 69 3e f9 d2 84 3e 64 97 88 3e
       -0.11684315 0.22849983 0.2594221 0.26678002
0001a0 f1 06 d8 be a0 1e 53 be 93 21 52 be 3d 67 20 be
       -0.42192796 -0.20617151 -0.2052062 -0.15664382
0001b0 a9 fc 2d be 62 6b 84 be 4e 20 7d 3e 1e 16 6c be
       -0.16990913 -0.25863177 0.24719355 -0.23055312
0001c0 21 b1 55 3e 56 be 5c be 94 91 34 3e 3f aa 15 be
       0.2086835 -0.21556982 0.17633659 -0.14615725
0001d0 f5 c7 1c bb ab ee 97 3e 89 61 5c 3e b5 0b 9d be
       -0.0023922895 0.29674277 0.21521582 -0.30672994
0001e0 47 78 f4 bd bf 35 86 3e 19 70 51 3e 44 29 8f 3e
       -0.119370036 0.2621288 0.20452918 0.2796117
0001f0 44 4f 83 be 64 ee 77 be 54 e3 2b be 64 d9 c1 bd
       -0.25646412 -0.24212033 -0.16785938 -0.09465292
000200 31 9e 32 be e9 1c 52 be 6c be 34 3e 96 25 d4 bd
       -0.17443158 -0.20518841 0.17650765 -0.103587314
000210 38 c9 34 3e be 3d 3d be ca d6 4f 3e 31 37 4d be
       0.17654884 -0.18480584 0.2029678 -0.20040585
000220 69 7e fe 3d a1 6e 85 3e 8f 25 7e 3e 4d f8 aa be
       0.124264546 0.26060966 0.24819015 -0.33392563
000230 32 69 84 be d1 93 5e 3e dd 92 68 3e dd f8 a4 3e
       -0.25861508 0.21736075 0.22712274 0.32221118
000240 30 54 2c be a5 be 52 be 92 52 54 be 65 f4 98 be
       -0.1682899 -0.20580538 -0.20734623 -0.29873958
000250 83 26 22 be c1 8f 9d be b3 a3 9e 3e 90 eb a3 be
       -0.15835004 -0.30773738 0.30984268 -0.32015657
000260 3e 70 59 3e 62 11 7d be 05 a1 64 3e d8 21 5f be
       0.21234223 -0.24713662 0.22327049 -0.21790254
000270 8f 42 37 3d 0b 78 b3 3e 4a 96 a2 3e 48 13 74 be
       0.04474121 0.35052523 0.31755286 -0.2383548
000280 72 41 80 be 78 1f a1 3e 6b 75 3a 3e d7 69 8c 3e
       -0.2504993 0.3146932 0.18208854 0.274245
000290 ef 65 cc be 4b 28 96 be b7 27 82 be b6 ed 1c be
       -0.3992152 -0.29327616 -0.25420925 -0.15325055
0002a0 8d 4b 86 be 6d 04 47 be 76 91 5d 3e ed b6 85 be
       -0.26229516 -0.19435282 0.2163752 -0.26116124
0002b0 31 70 57 3e 88 41 3f be da d3 ae 3e 7a 4a 5b be
       0.21038891 -0.18677342 0.34146005 -0.2141513
0002c0 a9 56 24 be 0a c2 89 3e d3 d3 ac 3e a1 fa a8 be
       -0.16048683 0.26905853 0.3375536 -0.33003715
0002d0 ea e2 a0 be 47 3a 8c 3e 7f 24 8a 3e 4c 04 a5 3e
       -0.31423122 0.27388212 0.2698097 0.3222984
0002e0 13 4f 02 bf fc 8d 51 be f8 b0 4b be 17 79 13 be
       -0.5090191 -0.20464319 -0.19891727 -0.14401661
0002f0 07 1d 81 be 73 30 6d be 7e 1c cb 3e 98 6d 54 be
       -0.2521746 -0.23163013 0.39670175 -0.20744932
000300 4c 9a 3f 3e 5c 23 95 be 37 1c 51 3e 85 85 e8 bd
       0.18711203 -0.2912854 0.2042092 -0.11353592
000310 e0 e0 21 bd 74 6a 8f 3e 90 fd 78 3e 38 f2 be be
       -0.039521098 0.28010905 0.24315476 -0.37294173
000320 2b 80 7a be 10 9d 9e 3e 25 bd 9b 3e cf 9a 48 3e
       -0.24462955 0.30979204 0.30417743 0.19590305
000330 32 88 ef be 30 02 6c be 4e 1f 9e be b0 e7 4d be
       -0.46783596 -0.2304771 -0.3088326 -0.20107913
000340 62 ce 7a be 36 df ee bd 8a 95 65 3e 64 a5 04 be
       -0.24492791 -0.11663668 0.22420326 -0.12953717
000350 46 44 86 3e db 78 49 be e1 87 30 3e c2 11 22 be
       0.26223963 -0.19675009 0.17239334 -0.15827087
000360 75 7b 74 be c2 e9 86 3e ec 80 a7 3e c7 c8 8e be
       -0.2387522 0.26350218 0.32715547 -0.27887556
000370 b6 6c 2f be 00 c6 4c 3e 17 23 4a 3e ff 58 35 3e
       -0.17131314 0.19997406 0.19739948 0.1770973
000380 86 64 b1 be 85 d6 56 be 3a 80 4f be 55 d3 77 be
       -0.34647006 -0.2098027 -0.20263758 -0.2420171
000390 4f 8e f7 bd 79 ef 8d be 60 7f 22 3e 6a 69 82 be
       -0.1208769 -0.27721766 0.15868902 -0.2547105
0003a0 b2 1d 18 3e ba 71 49 be cb 45 ab 3e 0e 18 31 be
       0.14855078 -0.1967229 0.33451685 -0.17294332
0003b0 31 db 2e be 16 7f 84 3e 66 d2 28 3e 14 47 8a be
       -0.17075802 0.2587821 0.1648651 -0.27007353
0003c0 f9 c2 51 be 74 95 75 3e 0d 13 78 3e a5 ad a9 3e
       -0.20484532 0.23982793 0.24226017 0.33140293
0003d0 76 32 ea be ca f3 5d be 2b ce 83 be d9 98 15 be
       -0.45741624 -0.2167503 -0.2574323 -0.14609088
0003e0 df 60 60 be 4c 72 65 be f1 87 ab 3e 69 ef 7f be
       -0.21911953 -0.22406882 0.33502153 -0.24993671
0003f0 1b 8b 9b 3e 5d 4f ae be 79 7a a2 3e af cd 7d be
       0.30379567 -0.34044924 0.31734064 -0.24785493

item_embedding.weight f4 [3019, 20]
000000 28 46 97 3e 91 ce 92 be a9 be a0 be c3 dd 85 be
       0.29545712 -0.28673223 -0.31395462 -0.26145753
000010 c2 b0 bf 3d 31 91 8a 3e a5 b0 50 3e 18 b0 81 3e
       0.09359886 0.27063897 0.20379885 0.2532966
000020 6c 3a 3c 3e e1 dc 9b 3e 6c f6 48 bd af 6c 3b 3e
       0.18381661 0.30441955 -0.04906313 0.18303178
000030 48 02 7f be 8f 04 c5 3d 51 c2 3d be ea d8 a1 3e
       -0.24903214 0.0962001 -0.18531157 0.31610805
000040 7b 61 83 3e a2 24 56 be 1c a4 52 be 03 df cf 3d
       0.2566031 -0.20912412 -0.20570415 0.10149958
000050 38 51 97 3e 3d 31 8d be 6c b9 9d be d3 14 5e be
       0.29554152 -0.27576628 -0.30805528 -0.21687631
000060 bc 3b 72 be 9b 75 95 3e 32 30 8d 3e 8f 23 79 3e
       -0.236556 0.29191288 0.27575833 0.24329971
000070 de 03 96 3e f9 ad 51 3e cc 89 ca bb b1 1d 80 3e
       0.29299825 0.20476522 -0.0061809774 0.25022653
000080 54 79 74 be b0 93 04 be e4 57 99 be 11 ff a6 3e
       -0.23874408 -0.12946963 -0.29949868 0.32616475
000090 c9 18 94 3e 43 1c 85 be e6 9e 86 be 78 85 ea bd
       0.2892516 -0.25998124 -0.26293105 -0.114512384
0000a0 d4 e5 73 3e 21 03 6b be 22 cf 84 be 62 26 71 be
       0.23818141 -0.22950412 -0.2593928 -0.23549798
0000b0 a1 38 20 be 89 cf 73 3e 1a 60 52 3e 0e 46 7a 3e
       -0.15646602 0.23809637 0.20544472 0.24440786
0000c0 a6 cc 66 3e 19 2c 84 3e 85 e5 88 be a9 30 48 3e
       0.22539005 0.25814894 -0.2673761 0.19549812
0000d0 b8 3c 82 be ac 3b 84 3e 37 1d 88 be ce 36 82 3e
       -0.2543695 0.25826776 -0.2658479 0.25432438
0000e0 9b 14 81 3e ee ea 4e be 06 1b 95 be 89 70 00 3e
       0.25211033 -0.20206806 -0.2912218 0.12542929
0000f0 b8 36 45 3e 8b df 84 be 86 5e 73 be 43 09 9e bd
       0.19259155 -0.259518 -0.23766527 -0.0771661
000100 e9 25 a3 be 74 c3 65 3e 39 e3 64 3e e1 fb 25 3e
       -0.3186486 0.2243784 0.22352304 0.16209365
000110 58 d8 76 3e a5 a4 b5 3d 84 bf ec 3c ba 5c 33 3d
       0.24105966 0.08869294 0.028899916 0.043789603
000120 f7 27 25 be 38 c5 13 be 53 fd 13 be ed 74 65 3e
       -0.16128527 -0.14430702 -0.14452104 0.22407885
000130 10 19 90 3e 25 42 15 be 8a 5a 7a be ad e2 8c be
       0.2814412 -0.14576013 -0.244486 -0.2751669
000140 a9 fc 70 3e 58 ad 71 be d4 f0 80 be 49 df 60 be
       0.23533882 -0.23601282 -0.25183737 -0.21960177
000150 12 62 7c be 9d af 7f 3e e6 3c 79 3e c5 90 87 3e
       -0.24646786 0.24969335 0.24339637 0.26477638
000160 7d 87 6d 3e fe ad 7f 3e 89 94 77 be de 9b 4a 3e
       0.23196216 0.24968717 -0.24177755 0.19786021
000170 32 de 79 be 2b f8 26 3e ba af 64 be a5 f0 80 3e
       -0.24401167 0.16305606 -0.2233266 0.25183597
000180 f6 98 72 3e 83 82 63 be e4 2c 6d be 64 00 0b be
       0.23691162 -0.22217755 -0.23161656 -0.13574368
000190 78 39 7a be 69 80 e7 3d 3f 70 67 3e 6f c2 32 3d
       -0.24435985 0.11303789 0.22601412 0.043642458
0001a0 4b 38 09 3f fc ae 9f bc ee a5 42 be 4e e0 4b be
       0.5360152 -0.019492619 -0.1900861 -0.19909784
0001b0 03 4b 66 bd 88 53 4c 3e 6f 84 e3 3c 0b a4 d5 3d
       -0.05622388 0.1995374 0.02777311 0.10431679
0001c0 5a ef 9b 3e 57 d2 b7 bd 01 cd bf 3d a8 6e 6a be
       0.30456048 -0.08975666 0.09365273 -0.22893775
0001d0 0b 2d b8 be 4e 3c 9c bd ee 0a 90 3d f2 ae d8 3e
       -0.35971865 -0.0762869 0.07033335 0.42320973
0001e0 7b e9 9f be 62 2d 61 3e 31 be 80 3e 39 24 94 3e
       -0.3123282 0.21989968 0.25145105 0.28933886
0001f0 cf 77 81 3c 69 56 ab be af 78 92 be 94 df 90 be
       0.0158042 -0.33464363 -0.286077 -0.28295577
000200 73 62 9f be 1e 56 a2 be 69 08 a9 3e 07 53 81 be
       -0.31129798 -0.31706327 0.3301423 -0.25258657
000210 e4 9c a1 3e f7 bf ab be 76 1a 68 3e dc 91 8b be
       0.3156501 -0.33544895 0.22666344 -0.2725972
000220 cc 36 60 be 70 ab 84 3e 6a 2b 7c 3e b7 d5 8f be
       -0.21895903 0.25912046 0.24625936 -0.2809274
000230 fe e6 db 3d 83 1f 9f be f4 62 76 be 6b 57 2c be
       0.10737418 -0.3107873 -0.24061185 -0.16830222
000240 77 0e 30 be fb 39 1c bd 70 25 92 3e 51 2c 0d 3e
       -0.17193018 -0.038141232 0.28544188 0.13786437
000250 d1 30 ac 3e 5e 07 a5 3e c1 ef 4f be b8 ed 60 3e
       0.33630994 0.32232183 -0.20306303 0.21965683
000260 9f e5 40 be 64 7d 04 be 51 69 9d bd 69 ae 1c be
       -0.18837593 -0.12938458 -0.07686103 -0.15300907
000270 1c 76 a3 3e d8 2e d1 be 0b cd 77 be 5a 79 3a be
       0.31926048 -0.4085605 -0.24199311 -0.18210354
000280 30 35 8d 3e 60 56 83 be e5 ed 74 be 7f 01 6c be
       0.2757964 -0.25651836 -0.23918875 -0.23047446
000290 6f 99 73 b9 5c 38 84 3e ff 38 72 3e 0b ec 7e 3e
       -0.00023231444 0.2582425 0.23654555 0.24894731
0002a0 b3 94 84 3e d8 15 61 3e 77 b3 7b be 60 cc 64 3e
       0.25894699 0.21980989 -0.24580179 0.22343588
0002b0 4d 0a 4d be 8d 06 0d 3e 4a a3 7e be f0 d8 6e 3e
       -0.2002346 0.1377203 -0.24866977 0.23324943
0002c0 a2 ea 7c 3e 5e cb 86 be 90 13 97 be 82 18 44 3d
       0.2469888 -0.26327032 -0.29507113 0.047874935
0002d0 df 33 76 3e b6 9f 86 be 80 ef 85 be df af cf 3c
       0.24043225 -0.26293725 -0.26159286 0.025352417
0002e0 77 2a 96 be c7 59 8c 3e 1f b2 8f 3e fa e2 23 3e
       -0.29329273 0.27412245 0.28065583 0.16004553
0002f0 e8 cc 82 3e a0 fc fd 3d 43 bb 9a 3e 75 9e fb 3d
       0.25546956 0.124017 0.30220994 0.12286083
000300 c1 3e 24 be c5 09 a6 be d0 db 7b be 26 f4 99 3e
       -0.16039564 -0.3242933 -0.2459557 0.30069083
000310 b7 fd 7a 3e 1c 91 67 be 34 df 94 be 16 b3 9a be
       0.24510847 -0.22613949 -0.2907654 -0.30214757
000320 f8 63 04 3d da dd b0 bd 53 b1 9b be a7 fd 74 bd
       0.0323219 -0.08636065 -0.30408725 -0.059812214
000330 b2 ce 94 bd c1 ed c0 3e ff fc 54 3c fb 5b 36 3d
       -0.072659865 0.37681392 0.012999772 0.044521313
000340 39 0b f7 3d e7 40 7e 3c 81 a8 85 3d 09 41 d4 3d
       0.120626874 0.015518404 0.0652628 0.10363967
000350 65 cd 86 be 78 45 b1 3d ef a8 a8 be ea 7a 09 3e
       -0.2632858 0.08655828 -0.32941386 0.13425794
000360 e2 04 a0 3e 88 fd 2a be 73 b7 79 be 76 44 b4 3d
       0.31253725 -0.16698277 -0.24386387 0.088021204
000370 67 fb 38 3e d9 fe 70 be fe 27 5c be 0e 76 9e be
       0.18064652 -0.23534717 -0.21499631 -0.30949444
000380 1f b4 16 3e aa d0 75 3e 05 a0 ac 3e 05 47 43 3e
       0.14717148 0.2400538 0.33715835 0.1907006
000390 42 af 9e 3e 22 33 b4 3c 40 a8 f1 bd 85 b5 9e 3e
       0.30993086 0.021997038 -0.11799669 0.30997863
0003a0 f8 44 7e be f4 6c 50 bd 26 d4 84 be cd cf 79 3e
       -0.24830997 -0.050885156 -0.25943106 0.24395676
0003b0 ff 36 87 3e de 23 66 be 62 1f 11 be ab 01 55 be
       0.26409146 -0.2247462 -0.14172128 -0.20801418
0003c0 a0 89 67 3e bb 07 78 be f9 6d 80 be fe 24 89 be
       0.22611094 -0.24221699 -0.25083902 -0.26786035
0003d0 73 80 ab 3d b9 6f 5c 3e 8b 9a 79 3e c2 67 88 3e
       0.08374109 0.21526994 0.2437536 0.2664166
0003e0 d9 0b 82 3e 35 b3 81 3e 4d e2 8f be 48 d8 7d 3e
       0.25399664 0.25332037 -0.2810234 0.24789536
0003f0 59 83 8f be c4 85 7b 3e c3 e6 57 be ba c1 58 3e
       -0.28029898 0.24562746 -0.21084122 0.21167651
