best_para_path/baseline_filmtrust50.20.650.150.250.251.010.00.5_p10_sum20diffnet_explicit_seed0_ex1_2_0.001_1e-05.pt (torch, 131027 bytes, 2 tensors)

user_embedding.weight f4 [1208, 20]
0.48512682 0.3519187 -0.5793552 0.3598645 0.32961 0.25310597 -0.42392936 -0.65167725
-0.50773156 -0.40522802 -0.5578294 0.115826555 -0.42077157 0.39316395 -0.40619078 0.5497015
-0.6407712 0.47931898 0.5851495 -0.26174033 0.41843018 -0.4413009 -0.2823581 0.57390416
0.63516253 0.2899559 -0.2349558 -0.50005245 0.4849348 0.039668016 -0.4803044 0.49210256
-0.36747363 -0.035514414 0.019181998 0.6452856 0.26344538 -0.58291286 0.43492144 0.38333955
0.39632103 -0.48322132 0.021632059 0.494937 0.43697992 0.38457108 0.33376724 -0.18099542
-0.37260503 0.30127156 -0.2771783 0.58001953 0.12486483 -0.57538074 0.5368386 0.5233248
-0.29811513 0.6040985 0.49432898 -0.3341431 0.13008374 0.15254496 -0.36974937 0.007919641
0.38118917 0.20747782 -0.11109296 0.37385228 -0.2348773 0.1580855 -0.2842273 0.51615363
-0.0018395826 0.35286 0.06049698 0.53197515 0.22593638 0.21150915 -0.5001979 0.22540186
0.2841597 -0.55211437 -0.073174685 0.20214091 0.44777873 0.12540644 0.21704403 -0.5618174
0.36908937 -0.16426198 -0.5254277 0.5916806 -0.30363163 -0.3605451 -0.18312122 0.47177273
-0.10426363 -0.5829963 0.6319771 0.20872107 0.46672398 0.53513193 -0.5143575 -0.17767256
0.15059328 0.47366318 -0.39525518 -0.5223393 -0.43554953 -0.39324182 -0.2895273 0.59905785
0.65187895 0.4223222 -0.22498494 0.5192526 -0.5952885 0.46591532 0.58341676 0.64927197
0.6256632 0.58698076 -0.4240921 -0.44802898 -0.17017229 0.52079904 -0.31819794 -0.5909751
0.31574702 -0.07808831 -0.39494365 -0.2338173 -0.53448826 0.5144497 -0.4300051 0.21866193
-0.113855645 0.4497996 0.17879081 -0.5296549 0.62113386 0.45504606 -0.5982357 -0.53717643
-0.28163385 0.56231976 -0.48303685 -0.6467556 -0.36258325 -0.45141616 -0.58396727 0.44254443
-0.1046789 0.36877838 -0.52271396 0.35825858 0.33882925 0.2651873 -0.36596924 -0.11460643
-0.070245735 0.26411232 -0.7194259 0.21978356 0.36441937 -0.22988601 -0.4612642 -0.7103863
0.15003204 0.4648742 -0.61371624 0.35388586 -0.6169367 0.3173351 -0.2809943 0.014763411
-0.41655013 -0.13832435 0.64968383 0.3656714 0.37615934 0.44834617 -0.5347476 -0.09558297
0.39464632 0.07408282 0.0052015646 -0.4745256 -0.09476266 0.19287062 -0.448749 0.46489295
-0.41423053 0.19775483 0.12311891 0.31616214 -0.18339747 0.033126567 0.40896952 -0.38462326
0.07360205 0.25440183 -0.54872936 -0.57539684 0.14543913 0.43343538 -0.41817376 -0.4582689
-0.5747521 -0.47575778 -0.69469184 -0.46564665 -0.4881663 0.36540765 -0.40532142 0.576935
0.47026184 0.41787815 0.6147452 -0.55920726 -0.34436885 0.61366487 0.24305388 -0.5462587
-0.54342276 0.49015427 -0.5486004 0.64488953 -0.5441951 -0.5514358 0.10946924 -0.30316663
-0.5330274 0.5824649 -0.6133225 0.06905153 0.65051144 0.5318596 -0.56250453 -0.5367174
-0.42272502 0.53962404 -0.2889934 -0.571043 -0.48000383 0.55370677 -0.51814514 -0.1686285
-0.5848741 -0.54303247 -0.11601636 0.23427072 -0.5668713 0.59564734 -0.49078774 0.16598171
00000000: 8b62 f83e b02e b43e 9f50 14bf 2940 b83e
00000010: a4c2 a83e 1b97 813e 450d d9be 52d4 26bf
00000020: b2fa 01bf 0c7a cfbe e8cd 0ebf 7936 ed3d
00000030: 5f6f d7be c94c c93e 3df8 cfbe 3db9 0c3f
00000040: 9509 24bf 4c69 f53e 5ccc 153f d402 86be
00000050: 7b3c d63e 31f2 e1be 3e91 90be 62eb 123f
00000060: 039a 223f 1a75 943e 4198 70be 7003 00bf
00000070: 6049 f83e ee7a 223d 75ea f5be def4 fb3e
00000080: 8125 bcbe 9077 11bd 9123 9d3c 7031 253f
00000090: 50e2 863e c739 15bf 06ae de3e 1545 c43e
000000a0: 97ea ca3e c968 f7be b735 b13c 6268 fd3e
000000b0: d5bb df3e 80e6 c43e 8ae3 aa3e dd56 39be
000000c0: 16c6 bebe 4440 9a3e 50ea 8dbe 297c 143f
000000d0: 22b9 ff3d 274c 13bf 416e 093f 9df8 053f
000000e0: 8ca2 98be 33a6 1a3f b018 fd3e ce14 abbe
000000f0: ac34 053e bf34 1c3e ca4f bdbe 62c1 013c
00000100: 3a2b c33e 1175 543e b584 e3bd 9169 bf3e
00000110: ad83 70be 2ae1 213e 3e86 91be a522 043f
00000120: 261e f1ba 11aa b43e aecb 773d 862f 083f
00000130: de5b 673e db95 583e f80c 00bf bfcf 663e
00000140: 617d 913e 5e57 0dbf 9cdc 95bd 07fe 4e3e
00000150: 4143 e53e 8c6a 003e ca40 5e3e 44d3 0fbf
00000160: 48f9 bc3e 4b34 28be 6e82 06bf 6178 173f
00000170: 9b75 9bbe 5e99 b8be 2184 3bbe 328c f13e
00000180: 2c88 d5bd 3f3f 15bf 40c9 213f faba 553e
00000190: 72f6 ee3e 68fe 083f efac 03bf ccef 35be
000001a0: 2035 1a3e fb83 f23e e35e cabe 07b8 05bf
000001b0: 5900 dfbe fe56 c9be ec3c 94be db5b 193f
000001c0: 8ae1 263f 9e3a d83e 7462 66be bded 043f
000001d0: d464 18bf 748c ee3e cd5a 153f b036 263f
000001e0: 772b 203f 5f44 163f 9a22 d9be 0e64 e5be
000001f0: a541 2ebe 1653 053f d7ea a2be 254a 17bf
00000200: 98a9 a13e c4ec 9fbd 0e36 cabe cd6d 6fbe
00000210: 39d4 08bf fab2 033f a129 dcbe eae8 5f3e
00000220: 262d e9bd 224c e63e f014 373e 7797 07bf
00000230: a102 1f3f ccfb e83e fa25 19bf 6584 09bf
00000240: 5032 90be 30f4 0f3f 9b50 f7be c691 25bf
00000250: 83a4 b9be 0520 e7be e17e 15bf 2f95 e23e
00000260: e461 d6bd 85d0 bc3e 95d0 05bf ab6d b73e
00000270: 077b ad3e a1c6 873e 5260 bbbe c7b6 eabd
00000280: ffdc 8fbd bb39 873e 4c2c 38bf f10e 613e
00000290: 2d95 ba3e 3d67 6bbe d22a ecbe e0db 35bf
000002a0: 00a2 193e fe03 ee3e 821c 1dbf 8730 b53e
000002b0: 90ef 1dbf bf79 a23e 7cde 8fbe 3ce2 713c
000002c0: 0f46 d5be e6a4 0dbe ae51 263f 4839 bb3e
000002d0: f597 c03e a18d e53e 38e5 08bf 01c1 c3bd
000002e0: 150f ca3e bcb8 973d e371 aa3b 05f5 f2be
000002f0: ed12 c2bd e07f 453e 6ec2 e5be 7306 ee3e
00000300: 0616 d4be 3e80 4a3e c425 fc3d 01e0 a13e
00000310: 8ccc 3bbe b9af 073d 7464 d13e 57ed c4be
00000320: acbc 963d f540 823e 8779 0cbf 354d 13bf
00000330: ffed 143e 3eeb dd3e df1a d6be 39a2 eabe
00000340: f422 13bf 8696 f3be 53d7 31bf 3d69 eebe
00000350: eff0 f9be b616 bb3e 4a86 cfbe 03b2 133f
00000360: 29c6 f03e 20f4 d53e f15f 1d3f 3528 0fbf
00000370: 1d51 b0be 2419 1d3f 1ee3 783e 9cd7 0bbf
00000380: c11d 0bbf 80f5 fa3e 1371 0cbf 7b17 253f
00000390: 5f50 0bbf e62a 0dbf 6931 e03d a838 9bbe
000003a0: 7c74 08bf 6b1c 153f b402 1dbf e36a 8d3d
000003b0: eb87 263f f327 083f 4c00 10bf 5066 09bf
000003c0: 6a6f d8be cd24 0a3f f1f6 93be e02f 12bf
000003d0: 10c3 f5be babf 0d3f 29a5 04bf f3ac 2cbe
000003e0: 4fba 15bf 2d04 0bbf fc99 edbd aae4 6f3e
000003f0: 7a1e 11bf 587c 183f 8848 fbbe 1cf7 293e

item_embedding.weight f4 [406, 20]
-0.6381627 -0.47869977 0.5232292 -0.58639354 -0.41323066 0.53954536 -0.16626513 0.6597784
-0.3649456 0.24641472 0.7131485 0.1821289 -0.64764786 0.5623411 -0.47867104 0.4875757
0.6318826 -0.7116363 -0.5304708 0.05807476 -0.008422694 0.5074579 0.7167932 -0.32746837
-0.49570936 0.5393867 -0.33652472 0.59353364 -0.51215804 -0.2510359 -0.5967018 -0.2365169
-0.6192871 0.5920313 -0.62911576 -0.063561894 0.72617275 0.5167351 -0.5717493 -0.037929464
-0.25668442 0.6068115 0.61243623 -0.4818787 -0.4672597 0.5810736 -0.32993615 0.63882977
-0.2933753 -0.5309022 -0.5248735 0.42305318 0.38714644 0.5015078 -0.5096726 0.5166085
0.59408224 0.5546983 -0.7697694 -0.40257668 -0.633184 0.47735986 -0.42867497 -0.19765283
-0.59254783 0.5426802 -0.58890134 0.48627138 -0.6050128 -0.2902207 0.67407954 -0.49270102
-0.7687489 -0.37892354 -0.7249895 0.22350973 0.7121635 0.4517554 -0.4765784 -0.66890097
0.4154279 0.30239695 0.56485164 -0.47675413 -0.6333995 0.23326223 -0.4798669 0.32928544
-0.5983964 -0.4874725 0.628053 -0.6237929 -0.5395455 0.5617461 -0.64400643 -0.3456433
0.33809587 0.13189897 -0.5363697 -0.6698038 -0.58978546 0.4512261 0.65457785 -0.55662113
-0.26901093 -0.660575 0.3314254 0.76559985 -0.7659295 -0.6821663 0.51354754 0.55873525
-0.77484393 0.55766773 -0.032674097 0.70229244 0.5525915 0.47360796 -0.040513508 -0.73411334
-0.71100605 0.03852801 -0.096514106 -0.4060715 -0.27508774 0.48049387 -0.055763695 -0.60992056
-0.52795094 -0.3357434 0.50106025 -0.3247338 0.71685845 0.632993 -0.592997 -0.60861874
0.10241191 0.42467707 -0.5237895 -0.58712745 -0.1768617 0.67173487 -0.040297236 -0.31235504
-0.51472783 0.49794996 -0.32371163 -0.19471832 -0.3442294 -0.35181984 0.39617604 -0.6811764
-0.39500913 0.7288582 -0.5991194 -0.31806657 0.5130047 0.044632092 -0.55498785 -0.41349956
-0.17627244 0.77510905 -0.7339219 -0.52515244 -0.6059688 -0.6152433 -0.7237784 0.6246254
0.37044662 -0.6431807 -0.03601628 -0.36680362 0.31200406 0.004933364 -0.20416379 -0.5990619
0.45782596 0.45400038 -0.5467778 -0.6979186 -0.5779792 0.11816434 0.5185959 -0.10106545
-0.65377367 -0.27078637 0.053335283 0.52323496 -0.16739345 0.17411183 0.41565365 0.6813891
0.4623242 0.5786892 0.15816326 -0.45259762 0.5472936 0.7342881 -0.5570746 0.3604028
0.22745834 0.48183554 -0.17635301 0.13754308 -0.37804613 0.5122949 -0.40185246 -0.6584851
-0.5075719 -0.36497018 0.007231925 -0.4252262 -0.5189947 0.51001805 -0.644415 -0.8097991
0.3084996 0.4176591 -0.3053867 -0.53417623 -0.5794919 -0.42543158 0.6409253 -0.6098298
0.040616624 -0.3899991 0.47241938 0.57083243 0.4449491 0.090461686 0.5190246 -0.5454594
0.2005436 -0.07392972 0.29664913 -0.61447823 0.46704307 0.1536092 -0.5145723 0.13898614
0.05635955 -0.2270244 -0.6049904 -0.4443215 -0.40932783 0.5102702 -0.51555 0.77528656
-0.5076491 -0.2944131 -0.577852 -0.7522056 -0.58129156 0.5044054 -0.6171398 -0.6211395
00000000: a15e 23bf 2318 f5be 59f2 053f e31d 16bf
00000010: f892 d3be a51f 0a3f 6841 2abe 3de7 283f
00000020: 26da babe 2454 7c3e e690 363f 0080 3a3e
00000030: 40cc 25bf 96f5 0f3f 5f14 f5be 86a3 f93e
00000040: 0fc3 213f cc2d 36bf efcc 07bf cddf 6d3d
00000050: 57ff 09bc c3e8 013f c27f 373f efa9 a7be
00000060: 9ecd fdbe 3f15 0a3f f84c acbe d2f1 173f
00000070: ca1c 03bf c787 80be 73c1 18bf 7c31 72be
00000080: 9989 1ebf 5d8f 173f bb0d 21bf bd2c 82bd
00000090: 75e6 393f c048 043f 2a5e 12bf ed5b 1bbd
000000a0: 246c 83be 0058 1b3f 9fc8 1c3f ceb8 f6be
000000b0: aa3c efbe 3dc1 143f 64ed a8be 598a 233f
000000c0: 4a35 96be 35e9 07bf 1c5e 06bf 6d9a d83e
000000d0: 0f38 c63e d162 003f e779 02bf 7440 043f
000000e0: c615 183f b500 0e3f 9b0f 45bf 881e cebe
000000f0: 5918 22bf 8368 f43e 497b dbbe 8165 4abe
00000100: 37b1 17bf 17ed 0a3f 3dc2 16bf 90f8 f83e
00000110: 1ee2 1abf cf97 94be 7a90 2c3f 4f43 fcbe
00000120: bacc 44bf 4402 c2be e998 39bf bcdf 643e
00000130: 5950 363f 7c4c e73e 1602 f4be 183d 2bbf
00000140: f7b2 d43e c6d3 9a3e 1e9a 103f 1e19 f4be
00000150: 7826 22bf 4bdc 6e3e 1db1 f5be 1a98 a83e
00000160: 8230 19bf ff95 f9be 15c8 203f e4b0 1fbf
00000170: a71f 0abf 98ce 0f3f 9bdd 24bf 29f8 b0be
00000180: e71a ad3e 8610 073e 864f 09bf 4378 2bbf
00000190: 2efc 16bf 1b07 e73e 6a92 273f b97e 0ebf
000001a0: cdbb 89be 711b 29bf 97b0 a93e 5afe 433f
000001b0: f513 44bf 73a2 2ebf da77 033f 4609 0f3f
000001c0: 2c5c 46bf 50c3 0e3f 46d5 05bd 70c9 333f
000001d0: a376 0d3f be7c f23e 7ef1 25bd daee 3bbf
000001e0: 7e04 36bf 8ccf 1d3d 30a9 c5bd 9be8 cfbe
000001f0: 4dd8 8cbe 4b03 f63e 7968 64bd c123 1cbf
00000200: cb27 07bf 8fe6 abbe 7c45 003f 8243 a6be
00000210: 0984 373f d40b 223f a7ce 17bf 70ce 1bbf
00000220: 56bd d13d 466f d93e 1217 06bf fc4d 16bf
00000230: 3c1b 35be d1f6 2b3f b70e 25bd 00ed 9fbe
00000240: 34c5 03bf 4cf3 fe3e 88bd a5be 3d64 47be
00000250: d63e b0be bb21 b4be 96d7 ca3e 9461 2ebf
00000260: a33e cabe 7396 3a3f e45f 19bf 9fd9 a2be
00000270: 4754 033f 24d0 363d af13 0ebf 37b6 d3be
00000280: c380 34be 8c6d 463f 4ee2 3bbf 6470 06bf
00000290: c520 1bbf 9680 1dbf 8b49 39bf 73e7 1f3f
000002a0: 2eab bd3e 7ea7 24bf cf85 13bd afcd bbbe
000002b0: ffbe 9f3e 0fa8 a13b 5010 51be 1f5c 19bf
000002c0: 2a68 ea3e bd72 e83e a1f9 0bbf cbaa 32bf
000002d0: 72f6 13bf 2500 f23d b3c2 043f 67fb cebd
000002e0: b65d 27bf 83a4 8abe 1976 5a3d baf2 053f
000002f0: 3069 2bbe 5f4a 323e 8ed0 d43e 846f 2e3f
00000300: c2b5 ec3e fa24 143f 8df5 213e e0ba e7be
00000310: 6f1b 0c3f 4efa 3b3f 719c 0ebf b786 b83e
00000320: d7ea 683e 26b3 f63e e295 34be 18d8 0c3e
00000330: 438f c1be c225 033f 9bbf cdbe 7b92 28bf
00000340: 3bf0 01bf 5fdd babe c9f9 ec3b 40b7 d9be
00000350: d6dc 04bf 8b90 023f 62f8 24bf fe4e 4fbf
00000360: a9f3 9d3e 6ad7 d53e a55b 9cbe c6bf 08bf
00000370: 9559 14bf 2bd2 d9be ae13 243f ce1d 1cbf
00000380: 9e5d 263d f6ad c7be f4e0 f13e 1322 123f
00000390: 5ed0 e33e fa43 b93d ccde 043f 3aa3 0bbf
000003a0: 4d5b 4d3e 7768 97bd 65e2 973e 724e 1dbf
000003b0: 4520 ef3e bb4b 1d3e 03bb 03bf 6252 0e3e
000003c0: 46d9 663d 1679 68be a7e0 1abf 1c7e e3be
000003d0: 6b93 d1be 11a1 023f 16fb 03bf 2e79 463f
000003e0: 4bf5 01bf 50bd 96be 1cee 13bf 8c90 40bf
000003f0: 86cf 14bf b620 013f e0fc 1dbf 0003 1fbf
