best_para_path/baseline_filmtrust50.20.650.150.250.251.020.00.5_p10_sum20diffnet_explicit_seed0_ex1_2_0.001_1e-05.pt (torch, 131027 bytes, 2 tensors)

user_embedding.weight f4 [1208, 20]
000000 b0 64 f7 3e 14 75 ec 3e ba ee 19 bf 8e 4c f8 3e
       0.48319006 0.46183074 -0.6012989 0.48495907
000010 89 22 0e 3f cb 1d a6 3e a4 82 d9 be 2a d1 20 bf
       0.55521446 0.32444605 -0.42482483 -0.6281916
000020 30 c6 d8 bd 14 2d 87 be ba 39 07 bf f0 26 3f be
       -0.10584676 -0.2640158 -0.5282246 -0.18667197
000030 6f 3b 1b bf d6 be 11 bf 10 e2 d8 be be bf a4 be
       -0.60637563 -0.5693182 -0.42359972 -0.32177538
000040 a4 ee bc be ff 11 d8 bd 3f 56 0c 3f 56 97 96 be
       -0.36900818 -0.105503075 0.548191 -0.29412335
000050 e0 da 0b 3f 6d 9c ea be c5 c6 04 bf 0e 90 a9 3e
       0.5463085 -0.45822468 -0.518658 0.33117718
000060 09 cb 04 3f f2 8c ac 3e f6 7c b1 bd 0f 3f a0 be
       0.5187231 0.33701283 -0.086664125 -0.3129811
000070 ed de ef 3e 09 0a ae 3e 9a d4 0f bf 8f 26 02 3f
       0.46849766 0.3399203 -0.5618378 0.50840086
000080 36 47 b4 be 49 cd d1 be d3 9d be be 06 c2 0a 3f
       -0.3521058 -0.40976933 -0.37229785 0.54202306
000090 7e ac f4 3d 4f 50 11 bf 6b 52 8c 3e ca d5 85 be
       0.11946963 -0.56763166 0.2740663 -0.2613967
0000a0 7e 68 f8 3e bf 5a de be 93 05 96 bd 83 86 02 3f
       0.4851722 -0.4342861 -0.07325282 0.509865
0000b0 bb d5 ed 3e c5 19 02 3f 4e db ac 3e 85 b6 99 be
       0.46452126 0.5082057 0.33761066 -0.30022064
0000c0 0f fd 6e be a6 b4 c7 3e 33 50 b0 be 48 36 1e 3f
       -0.23338722 0.3900501 -0.34436187 0.61801577
0000d0 7b 01 07 3e e5 13 10 bf 75 8f 07 3f de f2 1a 3f
       0.13184159 -0.56280357 0.52953273 0.60526836
0000e0 23 b8 ad be e2 ff 45 be 6d d1 e7 3e ef 9f 31 be
       -0.33929548 -0.19335893 0.45276967 -0.17346166
0000f0 81 10 d6 3d b4 e5 53 3d 66 de f8 bd 3b 94 a6 3d
       0.104523666 0.051732734 -0.12151794 0.081337415
000100 ae c4 ba bd 0b 17 3b 3e 29 f2 14 3d 15 91 0b bf
       -0.09119545 0.18270509 0.036363754 -0.5451825
000110 80 bd 1b be 58 b1 92 3d 6c b9 bd be 4e a3 a6 be
       -0.15209007 0.07162732 -0.37055528 -0.32546467
000120 b6 a8 c5 be 0d a4 02 be ea f1 03 bd 04 5d 2a 3f
       -0.3860528 -0.12757893 -0.03221313 0.6654818
000130 5c cb 93 3e e3 01 d7 3e 7b 76 c1 3e d8 f3 c7 bd
       0.28866088 0.41993627 0.37785706 -0.097633064
000140 56 e9 41 3e c5 d0 0b bf 6c 34 f4 bd 39 ae 15 3f
       0.18936667 -0.5461543 -0.11924061 0.5846897
000150 91 18 09 3f 09 8f 0c bd 81 76 07 3f d9 03 80 3e
       0.5355311 -0.034316096 0.529152 0.25002936
000160 64 f9 f8 3e 40 6d 19 3e c3 5a ed be 27 8c 2a 3e
       0.4862777 0.14983082 -0.46358308 0.16655026
000170 de de 63 be 2a 0c 75 3e bb 4e 4c be 4a 2f c9 3e
       -0.22252986 0.23930421 -0.19951908 0.3929389
000180 13 33 8e be 05 16 1f bf 94 f9 8d 3e f8 7b d0 3e
       -0.27773342 -0.62142974 0.27729475 0.4071958
000190 9e 19 1d 3f 26 92 09 3f 29 f9 0e bf 5f 9e 45 3e
       0.61367214 0.5373863 -0.5584894 0.19298695
0001a0 7b e6 e7 3e f4 d4 bd 3e e8 c8 9f be 4f c7 46 3e
       0.4529303 0.37076533 -0.31207967 0.19411968
0001b0 19 35 ca be 71 42 88 be 97 c0 1a bf 28 76 93 be
       -0.39493635 -0.2661319 -0.6045012 -0.28801084
0001c0 37 8a 15 3e 6f 49 00 3c 53 9e b6 be 43 fc 10 bc
       0.14603506 0.007830008 -0.35667667 -0.008849206
0001d0 de 9f 12 bf 1f 72 04 3f 8b b1 d8 3e a9 38 03 3f
       -0.5727519 0.51736635 0.42322955 0.5125833
0001e0 d6 89 cc 3e c9 1e 16 3f fd 12 24 be 3f 8e cf 3e
       0.3994891 0.58640724 -0.16022868 0.40538213
0001f0 6b 6d 75 3e 88 d7 43 3e d1 4c 22 3e 08 03 15 bf
       0.23967521 0.19125187 0.15849616 -0.5820775
000200 59 13 a8 be 4a c9 81 be e8 31 dd be 3e 90 ee be
       -0.3282726 -0.25348884 -0.43202138 -0.46594423
000210 64 cc 05 bf 87 ce 3f 3e e0 1e f6 be 92 76 cd be
       -0.52265 0.18731128 -0.4807043 -0.40129524
000220 18 e7 9b bd ff ab 01 3f 74 d4 01 3f dd b5 c7 be
       -0.07612437 0.5065307 0.507148 -0.39005938
000230 c3 33 fc 3e fd 99 a2 3e 36 96 16 bf b1 5a d1 be
       0.4925824 0.3175811 -0.58822954 -0.40889505
000240 40 bb 65 be 42 09 fa 3e ee c5 f1 be e1 50 1a bf
       -0.22434711 0.48835188 -0.4722132 -0.6027966
000250 7e bf a9 be bc 8c a6 be 44 e1 13 bf df 65 89 be
       -0.3315391 -0.32529247 -0.57765603 -0.26835534
000260 6d 8a c9 be 61 5e d0 3e a5 0a cc be 9c 6f ba be
       -0.39363423 0.40697005 -0.3985187 -0.36413276
000270 bd 8e b4 3e f5 7a 88 3d 5d 7c 83 3d ff 2b a9 3d
       0.3526515 0.06664077 0.06420205 0.08260345
000280 fb bc 32 3e 81 06 d2 bd 41 aa 21 bf c3 18 1b 3f
       0.17454903 -0.10255147 -0.6315041 0.6058466
000290 e4 0b f0 3e 79 e0 5b 3c 6d ed b9 3e 42 90 a1 be
       0.46884072 0.013420218 0.36313954 -0.31555372
0002a0 dc 57 51 3e 40 6c 8e 3e b5 e5 e8 be a4 7c cd 3e
       0.20443672 0.27816963 -0.45487753 0.40134156
0002b0 3f 22 03 bf 59 05 de 3e 9c 4d d3 be 86 32 c6 3e
       -0.5122413 0.43363455 -0.4127015 0.3871042
0002c0 e6 fd b6 be 38 eb aa bd a9 3c 3b 3f d9 38 68 3e
       -0.35740584 -0.08345646 0.73139435 0.22677936
0002d0 a8 be d0 3e 58 30 93 3e 0b 62 01 bf 79 8e d3 bd
       0.4077046 0.2874782 -0.50540227 -0.10329909
0002e0 c6 3d 11 3f 36 6a 8f 3d e6 4a 17 be 1c 0a 07 bf
       0.56734884 0.0700268 -0.14774665 -0.527498
0002f0 33 ba 11 be a2 cc 7b 3c 25 a0 c6 be 78 31 78 be
       -0.14231186 0.0153686125 -0.38794056 -0.24237621
000300 63 51 1d be 72 13 c5 3e ea a2 af bc dc 5a 87 3d
       -0.15363078 0.38491398 -0.021439988 0.06609127
000310 5a fc 50 bd 99 55 b0 bd 08 14 e9 3e 10 69 71 be
       -0.05102191 -0.086100765 0.45523095 -0.23575234
000320 d9 46 70 3d 8b 4b 83 3d d5 16 05 bf 6d ed 88 3e
       0.058661316 0.06410893 -0.51987964 0.26743641
000330 96 83 5a 3e dc a5 04 3f 69 f2 d4 be cf 50 0d bf
       0.21339259 0.5181558 -0.41591194 -0.5520143
000340 51 7a c1 be 3d 6a 6a be 1c 95 23 bf ad b9 bf be
       -0.37788633 -0.22892089 -0.638994 -0.37446347
000350 99 13 11 bf db 6c 92 3e e5 e0 de be 4b b2 c2 be
       -0.5667053 0.28598675 -0.43530956 -0.38026652
000360 c8 c8 09 3f ff 68 21 bf 63 f2 b6 3e 1e 36 d7 be
       0.5382199 -0.63050836 0.357318 -0.42033476
000370 93 e8 81 be 32 4f 0c 3f 00 93 16 3e b3 1c 03 bf
       -0.25372753 0.5480834 0.14704514 -0.51215667
000380 14 88 07 bf a9 60 e0 3e 53 bd 08 bf b4 2e 8c be
       -0.52942014 0.43823746 -0.53413886 -0.27379382
000390 56 68 f6 be 98 a8 04 bf 95 35 bc 3e 90 20 0f bf
       -0.48126477 -0.51819754 0.3675963 -0.5590906
0003a0 d5 de 6d be 82 cd 0b 3f dc 9f 00 bf 9e 54 fa be
       -0.23229535 0.54610455 -0.50243926 -0.48892683
0003b0 ad 6b 22 3f 90 b1 03 3f 8e a4 ee be a4 32 f1 be
       0.6344555 0.51442814 -0.4660992 -0.47108948
0003c0 cf 49 85 be dc 85 fa 3e 0e de af be 64 61 0e bf
       -0.26032874 0.48930252 -0.34349102 -0.55617356
0003d0 22 f1 0b bf 0c c7 0c 3f d3 ca d5 be c4 0e e0 be
       -0.54664814 0.5499122 -0.41756305 -0.43761265
0003e0 ca 64 04 bf 5d da fc be 23 aa e7 bc 10 fa 9a be
       -0.5171629 -0.49385348 -0.02827937 -0.30268908
0003f0 75 8d dd be 9b 0a 0b 3f 87 d5 00 bf 5e c2 0c bf
       -0.43271986 0.5431306 -0.50325817 -0.5498408

item_embedding.weight f4 [406, 20]
000000 99 cf 15 bf 3b 13 3a bf 70 53 ff bd 98 19 ea be
       -0.58519894 -0.72685593 -0.12467086 -0.4572265
000010 6d 3f b8 be f8 de 22 3f 40 07 2a bf d2 d7 00 3f
       -0.3598589 0.63621473 -0.6641731 0.50329316
000020 e8 89 20 bf d4 59 8f 3e 16 10 35 3f 90 8a 93 bd
       -0.6271043 0.2799822 0.7072767 -0.07204163
000030 86 2a 00 3f 85 e1 04 3f 21 29 05 bf 7f 6f 80 3e
       0.50064886 0.51906615 -0.5201588 0.25085065
000040 0d cf 3f 3d 9a ef 21 bf 90 3b 4b be 8e 4d cd 3e
       0.04682832 -0.6325623 -0.1984694 0.40098232
000050 78 92 bc be 9d cf c3 3e e8 87 2f 3f ba e4 a2 be
       -0.36830497 0.38244334 0.6856675 -0.3181513
000060 01 e3 ce be c6 8b f8 3e bb 10 aa be 70 d8 f7 be
       -0.40407565 0.4854414 -0.3321589 -0.48407316
000070 c1 2e ca be 25 a5 76 be e7 d5 fd be 3b 4f f6 be
       -0.39488795 -0.24086435 -0.49577257 -0.48107323
000080 f2 d7 0a bf 71 90 20 3f 50 42 20 bf 54 8c bd be
       -0.54235756 0.627204 -0.62601185 -0.37021124
000090 1e fc 37 3f db c0 1d 3e 0d 89 21 bf a6 1c 90 be
       0.71869075 0.154056 -0.6309975 -0.28146857
0000a0 10 13 fb bd 28 4d 88 3e e1 47 71 3e 9d bb d9 be
       -0.12259495 0.26621366 0.23562576 -0.4252595
0000b0 74 c0 bf be b2 75 d7 3e 5f fa 5d be cb 71 cf be
       -0.37451518 0.42081982 -0.2167754 -0.40516505
0000c0 83 bf 94 be 98 0c cf be fa 31 17 bf ad f5 df be
       -0.29052362 -0.40439296 -0.59060633 -0.43742123
0000d0 b9 ab 41 3e cf 7b 07 3f 27 85 ad be c4 b9 45 3d
       0.18913163 0.5292329 -0.3389065 0.048272863
0000e0 99 37 0a 3f ae e7 02 3f c9 27 49 bf 71 c3 e0 bd
       0.53991085 0.51134765 -0.7857633 -0.109747775
0000f0 eb b7 0f bf e2 97 f8 3e af 13 0f bf 6a 2e 02 bf
       -0.5614001 0.48553377 -0.5588941 -0.5085207
000100 d9 d3 0e bf 08 ab d9 3e 84 80 14 bf d3 45 21 3f
       -0.55792004 0.425133 -0.580086 0.6299717
000110 03 c3 03 bf b8 7e 7c be 64 e0 97 3e c0 00 0a bf
       -0.5146944 -0.24657714 0.29663384 -0.53907394
000120 56 6f 3a bf 34 50 30 bf bf 99 27 bf 44 95 11 bf
       -0.72826135 -0.6887238 -0.6546897 -0.56868386
000130 1b cb 1c 3f cc de 04 3f 24 1a fe be 2e 36 28 bf
       0.61247414 0.5190246 -0.4962932 -0.6570767
000140 8f 62 1f bf c6 30 17 bf 7d c7 00 3f 40 fb 99 be
       -0.62259763 -0.590588 0.50304395 -0.300745
000150 73 d4 1e bf a0 88 12 3f 35 45 fb be aa 9e 25 3f
       -0.6204292 0.57239723 -0.49076238 0.6469523
000160 02 29 0b bf 6e 72 f6 be 89 a2 92 3d 76 09 1b bf
       -0.5435945 -0.48134178 0.07159907 -0.6056131
000170 f6 53 ed be 35 6f 17 3f 33 94 27 bf 0f 86 1e bf
       -0.4635312 0.59154063 -0.6546051 -0.6192331
000180 20 7a 00 3f 5e 75 11 bf e6 17 ef be 8a 25 1e bf
       0.5018635 -0.56819713 -0.4669792 -0.6177603
000190 23 1d 02 bf bf b0 15 3f 52 ec 06 3f 6c 65 e2 be
       -0.5082571 0.5847282 0.52704346 -0.44218004
0001a0 21 4e 76 be 85 9e 0f bf 32 80 c2 3e f0 ac 2f 3f
       -0.24053241 -0.56101257 0.3798843 0.68623257
0001b0 d6 60 37 bf d4 a6 23 bf b2 3b dd 3e b1 f4 1b 3f
       -0.71632135 -0.63926435 0.43209606 0.60920244
0001c0 eb ec 4b bf e5 b7 15 3f 4e 43 c7 3e b8 17 de bd
       -0.79658383 0.58483726 0.38918537 -0.10844368
0001d0 4c fe 08 3f 04 98 fb 3e 1d fa 85 be 8b 3e 42 bf
       0.53513026 0.49139416 -0.26167384 -0.75876683
0001e0 83 e7 28 bf 36 44 46 bf fb b2 c8 be 3c 2f 09 bf
       -0.6597826 -0.7744783 -0.3919905 -0.535877
0001f0 c1 30 d5 be 2c ad c1 3c bb c9 6d be ab fe 1d bf
       -0.4163876 0.023642145 -0.23221485 -0.6171672
000200 25 5e 04 bf 06 f2 b1 be 0c cb bf 3e 3d 41 7a 3e
       -0.51706153 -0.34754962 0.374596 0.24438949
000210 3b d7 17 bf 6d 87 2c 3f 0f ac 0d bf 73 f1 0a bf
       -0.5931279 0.67394143 -0.55340666 -0.5427467
000220 3b 8b 10 be 9b d2 0d 3f c0 72 23 bf e7 df 91 be
       -0.14115612 0.55399483 -0.6384697 -0.28491136
000230 fe 01 05 be aa e3 1e 3f ec 20 62 be df b3 9a be
       -0.12989041 0.6206614 -0.22082871 -0.30215356
000240 4a c9 08 bf e3 71 d3 3e 85 56 f8 be 55 75 1d 3e
       -0.5343214 0.41297826 -0.4850351 0.1537679
000250 27 e6 f8 be 0a e9 b9 be 5c 68 e8 3e 13 af 0a bf
       -0.48613092 -0.36310607 0.4539212 -0.5417339
000260 f5 26 33 be 96 47 2c 3f 01 70 97 be 87 f9 60 be
       -0.1749533 0.6729673 -0.2957764 -0.21970187
000270 05 f0 ff 3e ca cf 11 3d f4 d4 28 bf 2c d5 d8 be
       0.49987808 0.035598554 -0.6594994 -0.42350137
000280 80 42 10 bf 49 a4 0c 3f fa f2 16 bf 32 93 f1 be
       -0.5635147 0.5493818 -0.589645 -0.47182614
000290 87 cf e5 be 1a 56 32 be ed 01 0f bf 78 ee f1 be
       -0.44884893 -0.17415658 -0.55862314 -0.4725225
0002a0 c8 2e df be a7 29 22 bf 83 74 38 3e 58 0e 04 bf
       -0.4359038 -0.63344806 0.18013196 -0.51584387
0002b0 06 d4 09 3f 8a 8c 0c bf c5 ab 19 bf f8 e7 f8 be
       0.5383915 -0.54901946 -0.60027725 -0.48614478
0002c0 47 21 df 3e 04 19 17 3f 22 88 14 bf ee bf 25 bf
       0.43580076 0.59022546 -0.5802022 -0.64745986
0002d0 44 f5 1a bf 9b ad 81 3e 0e 89 11 3f f8 90 2b be
       -0.60530496 0.25327763 0.56849754 -0.1675452
0002e0 49 32 25 bf 7d 58 ad be 17 17 80 be 93 d6 9d 3e
       -0.64529854 -0.33856574 -0.25017616 0.3082777
0002f0 60 09 25 bc dd a4 9e 3e b3 dc 14 3f 06 72 11 3d
       -0.010073036 0.30985156 0.5814926 0.03550913
000300 d2 60 f9 3e ae d7 2b 3f cd 3e 89 be 77 92 9d 3e
       0.4870668 0.67125976 -0.26805726 0.30775806
000310 4e 5a e0 3d 12 9a 0f 3f 62 7c 1f bf 7b 76 04 3f
       0.10954724 0.5609447 -0.6229917 0.51743287
000320 23 e1 e4 be 85 87 d2 3e f7 6c 93 be 15 12 22 3e
       -0.44703016 0.41119018 -0.2879407 0.1582721
000330 f1 e9 96 be 9f 6f ea 3e af 52 3b be 99 fa 3b bf
       -0.29475358 0.45788285 -0.1829326 -0.73429257
000340 95 65 0a bf 15 a9 a9 be 7f b8 3f 3d 1d 4b 0f bf
       -0.5406125 -0.33136812 0.04680681 -0.5597399
000350 1a b4 88 be fb 14 01 3f f7 6d 1c bf 5e 4a 32 bf
       -0.26699907 0.5042264 -0.61105293 -0.69644725
000360 c1 3c 26 3f 7f cb 06 3f 2b 60 e9 be 32 b2 d9 be
       0.64936453 0.5265426 -0.45581183 -0.42518765
000370 99 6a 0e bf 46 1d a6 be b6 d8 1f 3f 69 8d 34 bf
       -0.55631405 -0.3244421 0.6244005 -0.70528275
000380 af 78 42 3e 3a 1e d2 be 48 7b fb 3e 4e 48 e9 3e
       0.1899135 -0.41038686 0.49117494 0.45562977
000390 6e 8d e4 3e 12 b0 00 3e 8f f6 e5 3e 09 6f 9e 3d
       0.44639152 0.12567165 0.44914672 0.07736022
0003a0 ce f5 85 3e a6 fc 9a be 80 37 d3 3e d0 04 a7 3e
       0.26164097 -0.3027088 0.4125328 0.3262086
0003b0 f1 6b a9 3e ce 93 10 3f 5e 09 f8 be a4 12 81 3e
       0.33090165 0.5647553 -0.48444647 0.25209534
0003c0 c4 d8 1b bf 6b 9e b3 3e 2f 26 e2 be 97 45 fa be
       -0.60877633 0.350818 -0.44169757 -0.48881218
0003d0 93 e3 e6 be 5a fc 08 3f 03 c3 e3 be c7 01 7e be
       -0.450955 0.5351006 -0.4448472 -0.24805366
0003e0 b0 a1 fe be 50 a0 d1 be fd 8f b3 3e bc bc 32 bf
       -0.49732733 -0.4094262 0.35070792 -0.69819236
0003f0 3c 96 1d bf ec b7 fb 3e cd 8c 0c bf e4 c3 d3 be
       -0.61557364 0.4916376 -0.54902345 -0.4136039
