best_para_path/baseline_filmtrust50.20.650.150.250.251.05.00.5_p10_sum20lightgcn_explicit_seed0_ex1_2_0.001_1e-06.pt (torch, 131027 bytes, 2 tensors)

user_embedding.weight f4 [1208, 20]
00000000: e86d 6e3f 905a f6be 98da af3f 8dd1 2fbe
00000010: deb7 533f 9de0 9c3f af2a acbf 7fec d4bf
00000020: 3d88 a9bf d6d3 ebbe 2d33 343f e939 50bf
00000030: a841 6ebf b6a8 18bc ff2c 2bbf a9e0 b6bf
00000040: 2686 24bf a94d 9b3f bf38 c33e 850d 1abf
00000050: da92 ff3f 6676 f4bf f29f 60bf 5949 bf3d
00000060: f90b f33f 7ff0 7abf 2ed1 06bf 4637 09bf
00000070: 47ee 9e3f 7436 c33f ebac bd3f 8f12 d5bf
00000080: d036 053e 3727 90be ccc4 103c 46b5 b2bb
00000090: 017f 36bf c02a e0be 4718 313f 3a8d 9d3f
000000a0: 13c0 0440 8c3d f7bf 0853 6b3f 3d9b 71bd
000000b0: 9988 e43f 5950 4ebe c539 a6be 54fb ffbe
000000c0: f12a eebd 5401 b53f 5917 9e3f da7f d5bf
000000d0: 6211 07bd 1c40 4dbf 31d8 9ebe db57 f0be
000000e0: 1a8f bfbf ff89 083f 0854 b43f fbaa 8fbd
000000f0: 6b4d 803f 4d22 acbf 6d49 873e 0b8d f7be
00000100: b145 9d3f 17b3 2f3e 479d 6ebf 2947 4abe
00000110: a052 b5bf 5613 883f 548c 913f 268e e4be
00000120: 73c8 9e3e 5112 b83e bcda 8d3f d31a 3f3f
00000130: cf6f 163f d8fc 633e 9143 b33e 70cb 98bf
00000140: ec98 0740 d24b 0cc0 9d95 7c3f 5927 29bf
00000150: 5c5c ee3f 0c8a 12bf 8905 e6bb 01d5 47bf
00000160: 2819 b2bd 4362 da3f 1d03 803f 5f25 b9bf
00000170: 8a40 36bf a98f 6ebe bd49 c2be af87 c7be
00000180: 7cf2 b3bf 82e8 40bf f609 b03f 2031 313e
00000190: ea88 ac3f 101c 7cbf a1d0 49be feb2 73bd
000001a0: 0424 603f 358c 163f 2d7e 9fbf bdce 8cbf
000001b0: 7a80 ebbf 483e 9ebf 585c 9ebf e634 cabe
000001c0: fc10 c03f 1421 b1be 610a 163f 4c17 74bf
000001d0: 2f2a c0bf 6ab9 f33f 2d64 a13e faaa d83f
000001e0: ce69 af3f 6c7b 3bbf e7ea 63be 6772 b0bf
000001f0: 120e 5a3f 2331 a43e 97f1 68bf 448e f3bf
00000200: 2e97 353f f0e1 253f 48f4 973f c520 ffbe
00000210: a706 7bbf 0941 bf3f fc76 c3bf 0699 a9bf
00000220: 122a 54be 45f0 9b3f 5e1b 3abd 06c3 14bf
00000230: 825c 023f 1756 2abf 4264 1ebf a7a9 94bf
00000240: 52e2 13bd 1ded b53d 204f 58bf e028 9fbf
00000250: 6c5e f33e 77cb 293e 2e67 b2bf 3bc6 b23e
00000260: f7b1 c0bd 0a32 603d 84c2 ccbd f625 5dbf
00000270: 2b38 f93e 7dce 60bb 6a9e 89bf 9635 cc3b
00000280: a7c0 f03f c357 d1bf 2bb8 08bf b1dd 73bf
00000290: 3318 c93f 3261 9fbf 2be7 92bf 2644 8abf
000002a0: 2b84 513f 8268 053f 77b4 ef3f 379d 69bf
000002b0: 1714 d2be 4c4b 2d3f d35b f4be bc60 77bf
000002c0: 2718 b8bf 3075 2f3f 508c 1c3f e88e fb3f
000002d0: 5a11 bd3f fb99 74bf fb96 3abf 22e6 afbe
000002e0: 4455 b43f abd6 5e3f a4b6 5dbf 70bf d8bf
000002f0: 78de 86bf 6940 de3f 92e5 963f b418 4cbe
00000300: d86f b8bf f247 d73f f296 78bf 0701 b2bf
00000310: aeb0 2f3e b547 c93f 4c0c 603f 93a3 80bf
00000320: dd3f f33d c617 57bf b151 9e3e 67d5 ddbe
00000330: 1f78 1f3f 9372 bc3e 5d45 9bbf c320 63bf
00000340: b54b 59bf 9b1f 413f 1f1f 98bf 7797 f2be
00000350: f115 46bf ddec d1be 5d50 e03e e3a2 60bf
00000360: a4a5 c43f 0f09 283e c628 b5be e16a 62bf
00000370: bdfe c8bf b55c b53f ac43 083f 79b6 07bf
00000380: df27 abbf a603 453f 982d c7be 600d 613e
00000390: 8d2e 03bf 3412 8cbf 6191 b4bf 212a 9e3f
000003a0: ba4d a2be 847d 2d3f e012 a0be 638a 883d
000003b0: 7da2 963f 3adb 113f 1c79 62bf 78a0 2fbf
000003c0: f633 bcbf 3dd4 9b3f dda3 2a3f 4812 05bf
000003d0: 97bb 96bf 12c4 8e3f 862f 1cbf e1cd 85be
000003e0: 5066 28bf 9ca6 acbf c5d6 a4bf 2823 b03f
000003f0: 31a7 16bf 7a3b 493f aea6 7ebe 0e80 03bf
0.93136454 -0.4811597 1.3738585 -0.17169781 0.82702434 1.2256047 -1.3450526 -1.6634673
-1.3244702 -0.46060055 0.7039059 -0.81338364 -0.93068933 -0.009317568 -0.66865534 -1.4287311
-0.64267194 1.2133075 0.3812923 -0.6017688 1.996669 -1.9098632 -0.8774406 0.09340162
1.8988029 -0.9802322 -0.5266293 -0.53599966 1.2416466 1.5250993 1.4818395 -1.6646289
0.1300919 -0.2815492 0.0088359825 -0.0054537384 -0.7128754 -0.43782616 0.6917767 1.2308724
2.0742233 -1.9315658 0.9192357 -0.058985937 1.7854186 -0.20147838 -0.3246595 -0.49996436
-0.11629284 1.414103 1.2350875 -1.6679642 -0.032975562 -0.8017595 -0.31024316 -0.46942028
-1.4965546 0.53335565 1.4088144 -0.07015034 1.0023626 -1.3447968 0.26423207 -0.48349795
1.2286893 0.17158161 -0.93208736 -0.19753708 -1.416584 1.0630901 1.137095 -0.446397
0.31012306 0.35951474 1.1082377 0.74650306 0.58764356 0.22264421 0.35012487 -1.1937084
2.1187086 -2.1921277 0.9866579 -0.66075665 1.8621936 -0.5724189 -0.007019703 -0.78059393
-0.086962044 1.7061237 1.000095 -1.446453 -0.7119223 -0.2329699 -0.37946883 -0.38970706
-1.4058375 -0.7535478 1.375304 0.17303896 1.3479283 -0.9848032 -0.19708492 -0.059496872
0.87554955 0.5880769 -1.2460381 -1.1000592 -1.8398583 -1.2362757 -1.2371931 -0.39493483
1.5005183 -0.3459555 0.58609587 -0.9534805 -1.5012873 1.9040959 0.3152174 1.6927178
1.3704164 -0.732352 -0.22257577 -1.3784913 0.8517772 0.32068738 -0.90993637 -1.9027791
0.70933807 0.6479788 1.1871424 -0.4982969 -0.98057026 1.4941722 -1.5270686 -1.3249824
-0.20719174 1.21827 -0.045436256 -0.5811008 0.50922406 -0.6653761 -0.6187173 -1.1614274
-0.036104508 0.088831164 -0.84495735 -1.2434349 0.47532976 0.16581522 -1.3937738 0.34916863
-0.09408944 0.05473522 -0.099980384 -0.8638605 0.48675665 -0.0034302764 -1.0751469 0.006231974
1.8808793 -1.6354908 -0.5340602 -0.9526015 1.571051 -1.2451537 -1.1476797 -1.0802047
0.818423 0.5211259 1.8726948 -0.91255516 -0.41030952 0.6769302 -0.47726306 -0.9663198
-1.4382371 0.6853819 0.611516 1.9652987 1.477092 -0.95547456 -0.7288663 -0.34355265
1.4088521 0.8704631 -0.8660681 -1.6933422 -1.0536642 1.7363406 1.1788809 -0.19931298
-1.4409132 1.6818831 -0.97105324 -1.3906564 0.17157242 1.5725008 0.87518764 -1.0049919
0.11877415 -0.8402065 0.309217 -0.43326876 0.62292665 0.36806163 -1.2130543 -0.88721865
-0.84881145 0.7543885 -1.1884497 -0.47381184 -0.7737723 -0.41001025 0.43811312 -0.87748545
1.536305 0.16409706 -0.3538267 -0.88444334 -1.570274 1.4168917 0.5322826 -0.53012806
-1.3371543 0.7695869 -0.38901973 0.21977758 -0.51242906 -1.0943055 -1.4106866 1.2356607
-0.31699926 0.67769647 -0.312644 0.0666702 1.1768337 0.5697514 -0.8846605 -0.6860423
-1.4703357 1.2174145 0.66656286 -0.5198102 -1.1775998 1.1153586 -0.61010015 -0.26133636
-0.65781116 -1.3488345 -1.2878042 1.3760729 -0.58848864 0.7860638 -0.24868271 -0.5136727

item_embedding.weight f4 [406, 20]
00000000: 6df5 97bf 1bf9 e63c 9d90 d7bf 31d9 303f
00000010: 1116 47be 8b95 b93f 5fca bd3f 2171 a93f
00000020: 0942 d93f 8e17 ca3f ef72 e43f 5a56 ff3f
00000030: c9fa 833f d2d8 a83f 99e5 21bf 3031 cf3f
00000040: e305 d13f 8b78 fabf 8471 c13f 6199 b1bf
00000050: bc3a d6bf 0abc 993f dfe2 453f 3ddb bf3f
00000060: 2f3a a9bf cf6b 113f df56 f6be 7f1f 773f
00000070: e950 2e3f 689e a13f 612e cbbf db49 9d3d
00000080: 8913 74bf 613e 0e3f 8be9 833f 2e86 a63f
00000090: a98c fb3f 2d75 94bf d276 3fbe 04fa f8be
000000a0: 7e84 57bf b99c 413f a16c a0bf a535 24bf
000000b0: 520a 2fbf 1178 d9be 3911 683f 0fce 963f
000000c0: e1f2 a53f a9fa 70be 6212 a8bf 2df5 13be
000000d0: 9de2 2f3f 839e 5cbd a798 7a3e 373b 813f
000000e0: 0b59 993f 0fba 5fbf 6bd8 44be 8256 a53f
000000f0: 7e7b cabf 4101 cf3f 29d8 05bf d15d 3dbf
00000100: 12f3 babf 79d2 f73e 6fa3 c63e baf3 a53f
00000110: b8e5 b4be 15dd 2c3f 4b44 b0bf 0bf3 3f3f
00000120: 07b5 95bf 2604 69bf 436a bcbf 9807 143f
00000130: c276 db3f 6393 29bf 0f2b 21bf 0db7 cebf
00000140: 93b0 e4bf e4e4 d73f 9f7c 18bf e2f9 9d3d
00000150: 50f3 fbbf 20d6 513f ecae f23e 0b82 ac3f
00000160: 6715 5cbf 331c 3fbf 12b3 dcbf cdb8 533f
00000170: 3649 58bf 6bc6 3d3f 7bc6 efbe 251b 4a3f
00000180: 0fe3 d83f e6fb 83be 2170 adbe 04a1 9cbf
00000190: ce04 c8bf 54f1 913f b08e 7abf 0fec df3e
000001a0: 5afc ffbe 7bf2 96bf 2a25 cb3f 7f69 0340
000001b0: 625c 24bf 687b 01bf 2ff6 42bd dec8 c13f
000001c0: 9c2e 923e 4e49 84bf c2eb 713f 36de 993f
000001d0: c863 1fbe 3c61 85bf 8add d43f b341 693f
000001e0: 7cb0 b6bf 62c2 9c3e 0309 62bf 3f53 ee3e
000001f0: 65ef 81bf 27bc 2cbf f3b6 a23f 68e3 463f
00000200: 1075 873f 7a9a 7bbf 88bc 70bf a086 d43f
00000210: fef4 0e3e 48ca 953f cb8c 983e 85b4 343f
00000220: 6524 09bf 2940 01be 74d9 9cbe f053 613f
00000230: a0d7 90bf 2e71 bc3f 2850 093e 1bcf 85be
00000240: 14c8 82bf 5be6 9f3f ed84 9f3e 7597 213f
00000250: 2eba dd3e 75fd 43bf 3a51 b33e a881 943e
00000260: c17a 563e 9b80 783f 28ad b5bf a2cb 533f
00000270: af99 533f 1179 9ebf 35e2 94bf 2cb7 37bf
00000280: f90b bbbf 496d fb3f 6ef4 d8bf fa36 a3bf
00000290: 1386 debf e00c 3b3f 2dcd 9bbe f863 c03f
000002a0: d04b 443f e88f 823f 6c50 dfbe bf8d e33f
000002b0: 1e0e 4f3d 6aba 8dbf f4f7 1abf cf32 aa3f
000002c0: f968 393f ca6b babf 173a 92bf e62d afbf
000002d0: cfca debf fbac 763f dda4 80bf 59e6 d73f
000002e0: c9ee a9bf 980a 97bf 8767 ea3f 0ef6 f73f
000002f0: d9c4 a73f 6488 e63e 4bee 89bd 6d3a bd3f
00000300: 1006 cc3f 325b 223e f224 b73f 6458 ea3f
00000310: a97f 153b 5098 d6bf d596 733f 8f2b e43f
00000320: 0dc4 d8bf 6fb4 c43f 8ea2 1c3f d45a 453f
00000330: be27 9bbf 5e13 5a3f b98f fdbe 6b70 64bf
00000340: dc0d 4fbe 0b67 d83b 9554 66bf 8421 a73f
00000350: a2e3 e3be baa1 9a3f 562e 89bf 88fa 79bf
00000360: 5623 e53f 4d30 e6be b363 45bf d33f 5cbf
00000370: 3263 48bf 2992 7b3e c272 e4bf ec05 ec3e
00000380: 9dbe 99bd 70a7 a0bf 897b ef3f 4e1e fd3f
00000390: f96a 0340 cf13 b6be e8cc 003d 1456 0b3e
000003a0: 576f c93f 7dc9 a7bf e03c c23f 757d 0040
000003b0: 9a88 7fbf 31e6 05c0 342a 853f 869f a13f
000003c0: 3e08 cfbf 853e b83f 6b77 1c3e e481 2a3e
000003d0: 3ed3 ecbf 13ed d4be 02e0 72bf 5513 703f
000003e0: 5979 6dbf 7f47 22bf c7b2 a3bf ed53 c93e
000003f0: 11b1 54bf 1b97 e33e a846 b93e bfff 0b3f
-1.1871773 0.028194955 -1.6841007 0.6908141 -0.19442011 1.4498762 1.4827384 1.3237649
1.6973277 1.5788438 1.7847575 1.9948227 1.0310909 1.3191168 -0.63240963 1.6186886
1.6329921 -1.9568037 1.5112767 -1.3874933 -1.6736674 1.201051 0.772993 1.4988781
-1.3220881 0.5680513 -0.48113152 0.96532434 0.6809221 1.2626467 -1.5873529 0.076801024
-0.9534231 0.5556393 1.0305647 1.3009698 1.9652301 -1.1598259 -0.1869767 -0.48628247
-0.8418654 0.75629765 -1.2533151 -0.64144355 -0.6837512 -0.42474416 0.9065128 1.1781634
1.2964746 -0.2353312 -1.313061 -0.14448996 0.6870516 -0.053862106 0.24472295 1.0096196
1.1980299 -0.8739328 -0.19223182 1.2917025 -1.5818937 1.6172258 -0.5228296 -0.7397128
-1.4605429 0.48402765 0.38796565 1.2965004 -0.35331511 0.67524844 -1.3770841 0.7498023
-1.169587 -0.91021955 -1.4719929 0.5782409 1.7145617 -0.6624052 -0.6295633 -1.6149613
-1.7866386 1.6866727 -0.59565157 0.07713677 -1.9683628 0.81967354 0.4739908 1.3477186
-0.8597016 -0.74652404 -1.7242148 0.8270386 -0.8448671 0.74130887 -0.46831116 0.7894767
1.6944293 -0.2577812 -0.3387461 -1.2236638 -1.5626466 1.1401772 -0.97873974 0.43734786
-0.49997216 -1.1792749 1.5870717 2.053314 -0.64203465 -0.5057893 -0.04759806 1.5139425
0.28551185 -1.0334871 0.9450036 1.2020938 -0.15565407 -1.0420299 1.6630108 0.91115874
-1.4272609 0.30617052 -0.88295 0.46547887 -1.0151182 -0.674746 1.2712082 0.77690744
1.05826 -0.9828259 -0.94037676 1.6603584 0.13960645 1.1702356 0.29794917 0.7058795
-0.5357116 -0.12622131 -0.30634654 0.88018703 -1.1315804 1.472204 0.13409483 -0.2613457
-1.0217309 1.2492174 0.31156102 0.6312173 0.43306106 -0.7655862 0.35022908 0.2900517
0.20945264 0.97071236 -1.4193468 0.82732594 0.8265638 -1.2380697 -1.1631533 -0.71763873
-1.4613029 1.9642726 -1.6949594 -1.2751153 -1.7384666 0.7306652 -0.30429974 1.5030508
0.7667818 1.0200167 -0.43616045 1.7777632 0.050550573 -1.1072514 -0.60534596 1.3296756
0.724258 -1.4564145 -1.1423978 -1.3685882 -1.7405642 0.963577 -1.0050312 1.6867172
-1.3275996 -1.1800108 1.8312844 1.9371965 1.3106948 0.45025933 -0.06734904 1.4783455
1.593935 0.15855101 1.430815 1.8308225 0.0022811687 -1.6765232 0.95152026 1.7825793
-1.693483 1.5367564 0.6118554 0.7709172 -1.2121503 0.851858 -0.49523714 -0.89234036
-0.2022013 0.0066040806 -0.8997281 1.3057103 -0.44509608 1.2080605 -1.0717266 -0.97647905
1.7901409 -0.44958726 -0.77105254 -0.8603489 -0.7827636 0.24567474 -1.7847521 0.46098268
-0.0750706 -1.2551098 1.8709575 1.9774873 2.053404 -0.35561988 0.031445414 0.13607055
1.5737103 -1.3108364 1.5174828 2.0076573 -0.9981781 -2.0921748 1.0403504 1.2626808
-1.617439 1.439408 0.1527993 0.16651112 -1.8501966 -0.41587123 -0.9487306 0.937795
-0.92763287 -0.63390344 -1.2788934 0.39321843 -0.8308268 0.44451222 0.3618672 0.5468711
