best_para_path/baseline_filmtrust50.20.650.150.250.251.030.00.5_p10_20mf_explicit_seed0_ex1_0.001_0.0001.pt (torch, 130927 bytes, 2 tensors)

user_embedding.weight f4 [1208, 20]
0	0x3f06c4a4	0.526438
1	0xbd798c3b	-0.06092475
2	0xbf01ad34	-0.5065491
3	0x3e393933	0.18088226
4	0x3e7bd02a	0.24591127
5	0x3eada332	0.3391357
6	0xbea28bbc	-0.31747234
7	0xbd6dfad3	-0.058100533
8	0x3c6f693a	0.01461249
9	0xbc6ae73b	-0.014337356
10	0xbe667109	-0.22504057
11	0x3ea49de7	0.3215172
12	0xbe870fe3	-0.26379308
13	0x3c183ad4	0.0092913695
14	0x3dacc85b	0.08436652
15	0xbd7b0bed	-0.06129067
16	0x3d98dc6c	0.07463917
17	0x3f27c035	0.6552766
18	0x3d970065	0.07373122
19	0xbe6ea639	-0.23305596
20	0x3e0b96d1	0.1363175
21	0xbe9da98b	-0.30793414
22	0xbda3f04b	-0.080048166
23	0x3e3be196	0.18347773
24	0x3e87d536	0.26529855
25	0xbcbc30c6	-0.022972476
26	0xbe2e05c7	-0.16994391
27	0xbe461df5	-0.19347365
28	0x3e478310	0.1948359
29	0x3dcb8e35	0.09939233
30	0xbe409726	-0.18807659
31	0x3c4e1ab5	0.01257961
32	0xbcdc9cb0	-0.026930183
33	0xbd03f37e	-0.032214634
34	0x3e68b148	0.22723877
35	0x3e370132	0.1787155
36	0x3dae1127	0.08499365
37	0x3d5e025d	0.054201473
38	0x3e7caa5c	0.24674362
39	0xbdee1cbf	-0.11626577
40	0x3df05b05	0.117361106
41	0xbea8b536	-0.32950753
42	0xbc13312d	-0.008983892
43	0x3e88a756	0.26690167
44	0x3e96a0fc	0.29419696
45	0xbd0c7c19	-0.034298036
46	0xbc89280c	-0.016742729
47	0xbe64e407	-0.2235261
48	0x3e288108	0.16455472
49	0x3e42bfc5	0.19018467
50	0xbd67fbe0	-0.05663669
51	0xbc67de1e	-0.014152078
52	0x3e0e5ab8	0.13901794
53	0xbe6467a5	-0.22305162
54	0x3e9ad4eb	0.3024057
55	0x3e4392f3	0.19099025
56	0xbd0a6899	-0.03379116
57	0x3e350419	0.17677344
58	0x3e917bdf	0.2841482
59	0xbd0ef628	-0.03490272
60	0x3ef25869	0.47333077
61	0xbd5ee55c	-0.054417953
62	0xbe32794f	-0.17429088
63	0xbe46e626	-0.19423732
64	0xbe49e0f5	-0.1971472
65	0x3e30dc9b	0.17271654
66	0xbf04cb9c	-0.51873183
67	0x3db5385b	0.088486396
68	0xbe44e637	-0.19228445
69	0xbe7736a3	-0.24141936
70	0xbcfcdeff	-0.030868052
71	0x3eaee3d5	0.34158197
72	0xbe885b98	-0.2663238
73	0x3e64c721	0.22341587
74	0xbdd00b9a	-0.10158463
75	0x3f2f51f3	0.6848442
76	0x3f0eed7b	0.55831116
77	0x3f0dd76d	0.5540684
78	0xbd007a3a	-0.031366564
79	0xbed533de	-0.41641134
80	0x3da042c2	0.07825233
81	0xbeb569a3	-0.35432157
82	0xbd732315	-0.05935963
83	0x3e5b4437	0.2141274
84	0x3e7ede09	0.24889387
85	0xbc8793fa	-0.016550053
86	0x3d82d316	0.06387918
87	0xbe5c982c	-0.21542424
88	0x3e4815bc	0.19539541
89	0x3dfa1276	0.122105524
90	0xbdd4c4b7	-0.10389083
91	0xbd60e5ff	-0.05490684
92	0x3c3567dd	0.011072126
93	0xbd8eed25	-0.069788255
94	0x3e6d355b	0.23164885
95	0x3e540abb	0.20707218
96	0xbe0e148f	-0.1387503
97	0xbafb2468	-0.001916063
98	0x3e81d7b5	0.25359884
99	0x3b5c02ef	0.0033571084
100	0x3ef08741	0.4697819
101	0x3cc06bb0	0.02348885
102	0xbec93b19	-0.393029
103	0x3e09939c	0.13435215
104	0x3e227f61	0.15868904
105	0x3ef04b8a	0.46932632
106	0x3e3e3259	0.18573894
107	0x3e0730ff	0.13202284
108	0xbe6fbc84	-0.23411757
109	0xbe0897a7	-0.13339101
110	0xbea186b4	-0.31548083
111	0x3eb7af74	0.35876048
112	0xbe4ba1e8	-0.19885981
113	0xbdbd0e9b	-0.092313014
114	0x3d8fe593	0.0702621
115	0x3d8bf2b7	0.068334036
116	0xbe48574b	-0.1956455
117	0x3e7e38bb	0.24826328
118	0xbcff6dc2	-0.031180266
119	0xbdf31fae	-0.11871277
120	0x3ec386f2	0.38188893
121	0xbe09b2c2	-0.13447097
122	0xbea3d4d7	-0.3199832
123	0x3e0e1921	0.13876773
124	0x3dc574a4	0.09641388
125	0x3d3900a6	0.045166634
126	0xbecad9f8	-0.39619422
127	0xbd7e9fe5	-0.062164206
128	0xbbfbe739	-0.007687476
129	0x3c28d869	0.010305502
130	0xbdc3d42d	-0.09561954
131	0x3e3dc9de	0.18534037
132	0xbea766f9	-0.3269575
133	0x3e39789c	0.18112415
134	0x3e00f15f	0.12592076
135	0xbc74d7f6	-0.014944067
136	0x3e8ec40c	0.27883947
137	0x3f1465a4	0.5796759
138	0x3e4bf25b	0.1991667
139	0xbebe71f2	-0.37196308
140	0x3ed15cb4	0.4089104
141	0x3e5da8bb	0.21646397
142	0xbf10d1b5	-0.5656999
143	0xbe9a4929	-0.30133942
144	0xbdfea0e9	-0.12433035
145	0x3eca4036	0.39502114
146	0xbe828035	-0.2548844
147	0xbe3f91c1	-0.18707944
148	0xbe771e4f	-0.24132656
149	0xbe849d5b	-0.25901303
150	0xbf105813	-0.5638439
151	0x3f03d24c	0.5149276
152	0xbdd0a5ec	-0.10187897
153	0x3e8068a1	0.25079826
154	0xbe1034f3	-0.14082699
155	0xbdc94a9d	-0.098286845
156	0x3e65b9b0	0.22434115
157	0x3e5cdd1f	0.21568726
158	0xbec4eb90	-0.3846097
159	0xbe2b6ffc	-0.16741937
160	0x3e39d0bd	0.18146034
161	0xbe8681d8	-0.26270938
162	0xbe4fb24a	-0.20282856
163	0x3e807978	0.25092673
164	0x3e54ca15	0.20780213
165	0xbe25d2af	-0.1619365
166	0xbe20b530	-0.15694118
167	0xbd5a80ec	-0.053345606
168	0x3dbedb21	0.09319139
169	0x3e20a2d7	0.15687118
170	0xbdcf64bd	-0.10126636
171	0x3e036140	0.12830067
172	0xbd31f9d6	-0.043451153
173	0x3da179e0	0.07884574
174	0x3e764fd7	0.24053894
175	0x3e64e783	0.2235394
176	0xbd27ca59	-0.04096446
177	0x3f205b86	0.62639654
178	0x3e8dda46	0.27705592
179	0xbd92c8b2	-0.07167186
180	0x3f06b4cf	0.5261964
181	0xbd5b519b	-0.053544622
182	0xbf1a606e	-0.6030339
183	0x3df06229	0.117374726
184	0x3dd59adc	0.10429928
185	0x3e448c80	0.19194221
186	0xbeeee8d2	-0.46662003
187	0xbe57e9d1	-0.21085288
188	0xbe3e9926	-0.18613109
189	0x3daa5afb	0.083181344
190	0xbebd31ef	-0.3695216
191	0x3e8c8262	0.27443224
192	0xbead6094	-0.33862746
193	0x3e76e2b0	0.24109912
194	0x3e6504aa	0.2236506
195	0xbde49549	-0.111612864
196	0x3eed0b95	0.462979
197	0x3f14f1a3	0.5818121
198	0x3de0c42e	0.10974918
199	0xbf022a5b	-0.5084588
200	0x3e10dd08	0.14146817
201	0xbdb83cb2	-0.08995952
202	0xbed76827	-0.4207165
203	0xbc683bc8	-0.014174409
204	0xbd0db3f8	-0.03459546
205	0x3ea07e74	0.31346476
206	0xbf17747f	-0.59162134
207	0x3e33f9a7	0.17575704
208	0xbe1cfc4b	-0.15330617
209	0x3bfec130	0.0077744946
210	0xbf38c05a	-0.72168505
211	0x3e87de82	0.26536947
212	0xbe2c3b7f	-0.16819571
213	0x3e34c286	0.1765233
214	0x3cb9968f	0.0226548
215	0xbd8fe1ab	-0.070254646
216	0x3edb9e8b	0.42894396
217	0x3e54ece5	0.20793493
218	0xbdfa1188	-0.12210375
219	0xbec6a678	-0.3879888
220	0xbe206134	-0.1566208
221	0x3f117bec	0.56829715
222	0xbd0de52f	-0.034642395
223	0xbf0b1e22	-0.54342854
224	0xbf070db4	-0.52755284
225	0x3e8f0358	0.2793224
226	0xbc63f05f	-0.013912289
227	0x3f075d37	0.5287661
228	0xbec8005b	-0.3906277
229	0xbefa2968	-0.48859715
230	0xbd8fc001	-0.07019044
231	0x3e511ce9	0.20421185
232	0xbe2ae426	-0.16688594
233	0x3eb94740	0.36187172
234	0xbf110560	-0.56648827
235	0xbed6dcd1	-0.41965345
236	0x3ecc6b2d	0.3992552
237	0xbe910be4	-0.28329384
238	0xbf0199f4	-0.5062554
239	0xbe028c5f	-0.1274886
240	0xbc991994	-0.018688954
241	0x3edada9a	0.42744905
242	0xbe3a3295	-0.18183358
243	0xbee4da97	-0.4469802
244	0xbee6d2ae	-0.4508261
245	0x3eb07eb4	0.34471667
246	0xbe45b6d7	-0.19308029
247	0x3ebd376f	0.36956355
248	0xbe9d265f	-0.30693337
249	0xbee2e39e	-0.44314283
250	0xbe4656f7	-0.19369112
251	0x3e981b93	0.29708537
252	0xbe9a54cf	-0.3014283
253	0x3eae6817	0.3406379
254	0xbec2b297	-0.38026878
255	0xbeca2e8d	-0.3948864

item_embedding.weight f4 [406, 20]
0	0xbe7f0d03	-0.24907307
1	0xbcbcafad	-0.023032987
2	0x3e444e77	0.19170557
3	0xbf297b54	-0.6620381
4	0xbea53abf	-0.32271382
5	0x3ec49056	0.3839137
6	0xbecc588d	-0.3991131
7	0x3dafdb7d	0.08586786
8	0x3f24db19	0.64396816
9	0xbeeb8368	-0.45998693
10	0x3ee9590d	0.45575753
11	0x3e8e4adb	0.27791485
12	0x3e99d9a7	0.30048868
13	0x3e693416	0.22773775
14	0xbf4ae472	-0.7925483
15	0xbe477250	-0.194772
16	0xbf01653f	-0.50545114
17	0xbf4d6538	-0.8023257
18	0x3f3b0150	0.7304888
19	0x3e9a5bb6	0.30148095
20	0xbe3f6034	-0.18689042
21	0x3f06fd66	0.52730405
22	0xbdf74ed1	-0.1207558
23	0xbecac873	-0.39606056
24	0xbf1249b2	-0.571437
25	0x3e4267c6	0.18984899
26	0xbe06ec2c	-0.1317603
27	0x3e101628	0.14070952
28	0xbf00213b	-0.50050706
29	0xbea1fc85	-0.3163797
30	0xbf2f50aa	-0.6848246
31	0x3eb8798b	0.3603023
32	0xbeb0d2ae	-0.34535736
33	0x3f184f34	0.59495854
34	0xbf13b6d7	-0.57700866
35	0xbef6179a	-0.48064882
36	0x3f3fd6cc	0.7493713
37	0xbf1a7b54	-0.60344434
38	0xbf27bf34	-0.6552613
39	0xbe75a7c9	-0.23989786
40	0xbd6edf56	-0.05831846
41	0x3edf58aa	0.43622333
42	0xbe17b12d	-0.14813681
43	0xbebb2eb4	-0.3655907
44	0xbea57c5a	-0.32321435
45	0xbd00798c	-0.031365916
46	0xbe5d1fce	-0.21594164
47	0x3f09935f	0.53740495
48	0xbd2c5f0e	-0.04208284
49	0xbee6fead	-0.45116177
50	0xbf1c25a6	-0.60994947
51	0x3e48e927	0.1962019
52	0xbe1a56f7	-0.15072237
53	0x3f0ead78	0.5573344
54	0xbed9158c	-0.4239925
55	0x3c9430b4	0.01808963
56	0x3f00f141	0.50368124
57	0xbf508e2c	-0.8146694
58	0xbf2db454	-0.67853284
59	0xbaca67f8	-0.0015442362
60	0xbe504b51	-0.20341231
61	0x3f359902	0.70936596
62	0xbf049bd3	-0.5180027
63	0xbf146f24	-0.5798209
64	0xbf1fea0a	-0.6246649
65	0x3e96c61d	0.29448023
66	0xbf33f362	-0.7029325
67	0x3f099d4e	0.5375565
68	0xbe20c030	-0.15698314
69	0x3d2c5f17	0.042082872
70	0xbe5b59e2	-0.21421006
71	0x3ce75c13	0.028242147
72	0xbe5dfc29	-0.21678223
73	0x3e3d11d0	0.18463826
74	0xbf3793ae	-0.71709716
75	0xbee2eff1	-0.44323686
76	0x3ea27e89	0.31737164
77	0xbf27e95f	-0.6559047
78	0xbf009617	-0.5022902
79	0xbf02266f	-0.50839895
80	0xbe33e959	-0.17569484
81	0x3f08fe7a	0.535133
82	0xbeee0bd8	-0.4649341
83	0xbf18d1fe	-0.5969542
84	0xbf42d52e	-0.76106536
85	0x3eabfb18	0.33590007
86	0xbf08aa0d	-0.53384477
87	0x3f1ac64e	0.6045884
88	0xbea6dd5a	-0.32590753
89	0xbe50b089	-0.20379843
90	0x3d990de8	0.074733555
91	0x3b3699ec	0.002786274
92	0x3d9ded19	0.077112384
93	0x3f3b6431	0.73199755
94	0xbf33d171	-0.7024146
95	0xbe8015f9	-0.25016764
96	0x3ecd238f	0.40066192
97	0xbf471efd	-0.7778166
98	0xbee31d27	-0.4435818
99	0xbec91efd	-0.39281455
100	0xbf15384a	-0.58289015
101	0x3f028c40	0.50995255
102	0x3f27cefe	0.6555022
103	0xbeee66ac	-0.46562707
104	0xbf00deda	-0.50340044
105	0xbf39221a	-0.7231766
106	0x3f24212d	0.6411312
107	0x3f2660b5	0.64991313
108	0xbf65df46	-0.89793813
109	0x3ddc0144	0.10742429
110	0x3f1b6414	0.6069958
111	0x3f4e8be5	0.8068221
112	0xbf13c9f6	-0.5773004
113	0x3e9cfe94	0.30662978
114	0xbd971e95	-0.0737888
115	0xbeb979bd	-0.3622569
116	0x3f539802	0.8265382
117	0xbe819168	-0.2530625
118	0xbed04e50	-0.40684748
119	0x3f0b82af	0.5449628
120	0xbe790c70	-0.24321151
121	0x3eb8481b	0.35992512
122	0xbcb1970c	-0.02167847
123	0xbee573a4	-0.4481479
124	0xbecf9051	-0.40539792
125	0xbe1d488e	-0.15359709
126	0x3e1b92fc	0.15192789
127	0x3dc554d6	0.09635322
128	0xbefa9341	-0.4894047
129	0xbeae57ef	-0.34051463
130	0xbdc6ed0b	-0.09713181
131	0x3ec11421	0.3771067
132	0xbe33c013	-0.17553739
133	0x3f2bce21	0.671114
134	0xbf1724e8	-0.5904069
135	0xbf35c4e5	-0.7100356
136	0x3efc3687	0.4926035
137	0xbf1f60e3	-0.6225721
138	0xbeec3312	-0.46132714
139	0xbda5e651	-0.0810057
140	0x3e41c2fb	0.18922035
141	0x3f1fdeca	0.62449324
142	0xbec0a4a2	-0.37625605
143	0xbec99ed3	-0.39378986
144	0xbf108d59	-0.5646568
145	0x3eeb706c	0.4598421
146	0xbf10c205	-0.5654605
147	0x3f00892b	0.502093
148	0xbeef3878	-0.4672277
149	0xbee1785c	-0.4403714
150	0x3da9e120	0.08294892
151	0xbe9117e8	-0.28338552
152	0xbf04d750	-0.5189104
153	0x3f267668	0.65024424
154	0xbf0846cf	-0.53233045
155	0xbdc3ea3d	-0.09566162
156	0x3e6a8ec4	0.22906023
157	0xbf517a5f	-0.8182735
158	0xbf11ce4d	-0.56955415
159	0xbece8fac	-0.40343988
160	0xbe88d398	-0.26723933
161	0x3f30298b	0.6881339
162	0xbc6f114b	-0.014591525
163	0xbf15a167	-0.58449405
164	0xbf3f72e0	-0.7478466
165	0x3e0472b7	0.12934385
166	0xbd9dcc45	-0.07704977
167	0x3f3475d1	0.70492274
168	0xbe2963e4	-0.16542011
169	0xbec0ee19	-0.37681654
170	0xbf3bb836	-0.7332796
171	0xbe9a9745	-0.30193534
172	0xbf07838c	-0.529351
173	0x3e941ee8	0.2892983
174	0xbf224233	-0.6338226
175	0xbeff81c1	-0.49903682
176	0xbe89a000	-0.26879883
177	0xbed6f083	-0.4198037
178	0xbf347421	-0.704897
179	0xbea7ce8c	-0.3277477
180	0xbf2ab118	-0.66676474
181	0x3f1a1be4	0.6019881
182	0x3f158de4	0.5841963
183	0xbed7ebe3	-0.42172155
184	0xbf17f326	-0.5935539
185	0xbee0966e	-0.4386477
186	0x3ed8ed51	0.42368558
187	0x3ec70e79	0.3887823
188	0x3e21a578	0.15785778
189	0xbe81ee79	-0.25377253
190	0x3f4b4955	0.7940877
191	0x3c0e41b6	0.008682659
192	0x3eff70b5	0.49890676
193	0x3e06c9e6	0.13162956
194	0xbf29cd5f	-0.66328996
195	0x3d9219cf	0.07133829
196	0xbdd75c75	-0.10515682
197	0xbf0a818e	-0.54103935
198	0xbeb63eb6	-0.3559472
199	0x3f3f7a57	0.7479605
200	0x3dde5612	0.1085626
201	0x3f146e1f	0.5798053
202	0xbef39ce9	-0.4758065
203	0xbe9d5197	-0.3072631
204	0xbeff443a	-0.4985674
205	0x3eee43ad	0.46536008
206	0xbe596d8b	-0.21233194
207	0xbd90c1f5	-0.07068244
208	0xbf1b3bab	-0.6063792
209	0xbeabdabc	-0.3356532
210	0xbf0792d0	-0.52958393
211	0x3ec0355c	0.3754071
212	0xbed563a5	-0.41677585
213	0x3f18c22d	0.5967129
214	0xbf2479eb	-0.6424853
215	0xbf36330d	-0.7117165
216	0x3f3cb967	0.737204
217	0x3e879182	0.264782
218	0xbf22ab12	-0.6354228
219	0xbeda5f7f	-0.42650983
220	0xbf35811a	-0.7090012
221	0x3e1e8171	0.15479065
222	0x3f3f5225	0.7473472
223	0xbe455619	-0.19271125
224	0xbe174fe8	-0.14776576
225	0xbf23d205	-0.6399234
226	0x3f16554f	0.5872392
227	0xbd466cfe	-0.048443787
228	0x3e515f07	0.20446406
229	0xbd0956bc	-0.033529982
230	0x3eaf8f9b	0.3428925
231	0xbf30dc19	-0.6908584
232	0x3ecd588d	0.4010662
233	0xbe5760bb	-0.21032993
234	0x3d82f0bd	0.063935734
235	0x3da46081	0.08026219
236	0xbe05bf00	-0.13061142
237	0xbf40ff5a	-0.75389636
238	0xbe36c800	-0.17849731
239	0x3f15c67e	0.58506
240	0xbdebb05a	-0.11508246
241	0x3ef6a2ff	0.4817123
242	0xbe96051c	-0.29300773
243	0xbf008c89	-0.5021444
244	0xbf21558e	-0.6302117
245	0x3e8c60a5	0.27417484
246	0xbea1c35c	-0.3159436
247	0x3f32997f	0.69765466
248	0xbedb9664	-0.42888176
249	0xbee1a92c	-0.4407438
250	0xbee11c5c	-0.4396695
251	0x3e9577ef	0.29193065
252	0xbeec5fae	-0.46166748
253	0x3ee25fb2	0.44213635
254	0xbf182fa0	-0.5944767
255	0xbeda2a3c	-0.42610347
