best_para_path/baseline_filmtrust50.20.650.150.250.251.01.00.5_p10_20mf_explicit_seed0_ex1_0.001_1e-05.pt (torch, 130919 bytes, 2 tensors)

user_embedding.weight f4 [1208, 20]
0.44910008 0.6591306 -0.74351394 0.40938377 0.3999278 0.5527618 -0.61384004 -0.53879815
-0.24817306 -0.523866 -0.72624654 -0.5126265 -0.66426766 0.21121532 -0.13389926 -0.7368172
0.4636774 -0.20396064 0.10204641 -0.5916501 0.6764417 -0.5328856 0.38717562 0.2923555
0.7889888 0.0669639 -0.4869543 -0.808281 0.74134207 -0.15971844 -0.7247998 -0.53897506
-0.18247417 0.24859893 -0.35876098 -0.25649923 0.30344218 0.24750133 0.34780082 -0.29583904
0.6358794 -0.50731343 0.26921743 0.49765518 0.5459979 -0.41369697 -0.61266047 -0.45863494
0.3036095 0.23512377 -0.49821115 -0.6107036 0.22604546 -0.31006363 0.39876983 0.5736588
0.03243301 0.051720414 0.4346252 -0.28066817 0.23865415 -0.49285895 -0.764677 -0.3477735
-0.37362862 0.31959265 -0.69789326 -0.37592325 -0.26555732 -0.5389149 -0.45419225 0.29542723
-0.67354786 0.484864 -0.05706247 0.81350744 0.6603124 0.7197615 -0.73796844 -0.74098504
0.67543 -0.64811444 0.011805427 0.6581925 0.47212207 0.20612253 0.2360367 -0.12501986
0.54589087 -0.0765918 -0.59547 -0.6721375 0.09633881 0.15576138 -0.0391007 0.3952185
-0.5640671 -0.26040792 0.44484442 0.20884375 0.655296 0.40157261 -0.7366143 -0.0150560355
0.44249853 0.66948164 -0.38587567 0.32872105 -0.39601704 -0.6636964 -0.7175302 -0.7635831
-0.4660317 0.6263295 -0.4553956 0.79773843 -0.5607841 0.74435353 -0.6281245 0.45332974
0.6964917 1.0118504 -0.17909195 0.513751 -0.015819235 0.13022247 -0.6243617 -0.7123085
0.14924708 0.01757597 -0.47092387 -0.5773346 -0.72349447 -0.1763751 -0.42606115 -0.3973562
0.6318566 -0.5828242 -0.30102116 -0.64496213 -0.47481173 -0.7769046 -0.79290944 -0.44712585
-0.25900263 0.65360856 -0.6137881 -0.4106622 -0.35896918 -0.56259215 -0.6532555 0.45295027
-0.35566658 0.3344302 -0.47087437 0.12877043 0.71388245 0.59977627 -0.7071517 -0.5172136
-0.012744182 0.6359929 -0.8410902 0.7464321 0.48999703 -0.29798663 -0.616816 -0.46543333
0.42196134 -0.038214628 -0.3921538 -0.34379795 0.29694742 0.5266812 0.2245738 -0.84926164
0.25411737 0.14353772 0.70627046 -0.056528166 0.5424824 0.74255985 -0.7639165 0.47645125
0.48707956 -0.76705974 -0.7246846 -0.556739 -0.4847534 0.1392172 -0.4642786 -0.11701167
-0.5433782 0.7332545 -0.47646582 -0.12909243 0.7214795 -0.7231108 0.1420455 -0.65553933
-0.50174874 -0.8384503 -0.7222361 0.06281166 0.25053373 0.45872083 -0.7334272 0.04991843
-0.25179502 -0.07721296 -0.7973052 0.35994044 -0.32282054 0.14168154 -0.299154 -0.6404258
0.6650143 -0.6961792 -0.6439926 -0.6152175 -0.63942045 0.4077398 0.3258435 -0.5863473
-0.589257 0.5009153 0.2716753 0.6935874 -0.50709325 -0.5107499 0.6484715 0.6081889
-0.4665823 0.52885044 -0.6321661 -0.3220294 0.63945645 -0.13625324 -0.4774337 -0.2794786
-0.51672745 0.3253525 0.016614156 -0.5984437 -0.5339688 0.6736096 -0.13164999 0.49918833
-0.575119 -0.52279216 0.642013 0.58251476 -0.4507907 0.61378735 -0.5413117 -0.48058036
00000000: 72f0 e53e c8bc 283f ee56 3ebf c09a d13e
00000010: 56c3 cc3e cc81 0d3f 9f24 1dbf adee 09bf
00000020: 1421 7ebe 151c 06bf 4beb 39bf 7e3b 03bf
00000030: 720d 2abf d448 583e e31c 09be 0da0 3cbf
00000040: 2067 ed3e 0fdb 50be b5fd d03d 6276 17bf
00000050: 492b 2d3f 316b 08bf e23b c63e 9faf 953e
00000060: 2cfb 493f 5f24 893d 1352 f9be 81eb 4ebf
00000070: 98c8 3d3f 3b8d 23be 7b8c 39bf 45fa 09bf
00000080: 82da 3abe b890 7e3e 85af b7be de53 83be
00000090: c65c 9b3e fd70 7d3e f312 b23e 3778 97be
000000a0: fec8 223f 4bdf 01bf ded6 893e a9cc fe3e
000000b0: 85c6 0b3f 17d0 d3be 51d7 1cbf 33d2 eabe
000000c0: b472 9b3e 49c4 703e 8815 ffbe 1257 1cbf
000000d0: 7678 673e a9c0 9ebe 8f2b cc3e 4edb 123f
000000e0: 7ad8 043d c9d8 533d 3287 de3e bdb3 8fbe
000000f0: c161 743e 0258 fcbe dfc1 43bf 5e0f b2be
00000100: 404c bfbe a6a1 a33e 22a9 32bf 0379 c0be
00000110: 21f7 87be 54f6 09bf e38b e8be 3d42 973e
00000120: a26d 2cbf 1840 f83e 56ba 69bd 0642 503f
00000130: 3c0a 293f 4a42 383f 80eb 3cbf 32b1 3dbf
00000140: fbe8 2c3f d4ea 25bf 8d6b 413c 4e7f 283f
00000150: fcb9 f13e c911 533e 9bb3 713e 3505 00be
00000160: 81bf 0b3f 29dc 9cbd b970 18bf 3411 2cbf
00000170: 484d c53d e97f 1f3e 0e28 20bd 145a ca3e
00000180: b466 10bf 3054 85be a6c2 e33e 23db 553e
00000190: 7bc1 273f ed9a cd3e c192 3cbf 97ad 76bc
000001a0: 2b8f e23e 2663 2b3f 7f91 c5be 204e a83e
000001b0: bfc2 cabe 02e8 29bf 0fb0 37bf 2f7a 43bf
000001c0: b59b eebe 2157 203f 9d29 e9be 9638 4c3f
000001d0: 8c8f 0fbf f48d 3e3f c4cc 20bf d61a e83e
000001e0: 484d 323f 5084 813f e163 37be 2f85 033f
000001f0: 5797 81bc 0a59 053e 2bd6 1fbf da59 36bf
00000200: 3ad4 183e 7bfb 8f3c ef1c f1be 33cc 13bf
00000210: ef36 39bf ad9b 34be b024 dabe 4672 cbbe
00000220: 5bc1 213f f733 15bf 721f 9abe 3d1c 25bf
00000230: 861a f3be 38e3 46bf 1dfc 4abf aeed e4be
00000240: fe9b 84be e452 273f 3821 1dbf 5142 d2be
00000250: cfca b7be 0a06 10bf c13b 27bf 19e9 e73e
00000260: ee19 b6be 6f3a ab3e 7216 f1be 65dc 033e
00000270: 00c1 363f f08a 193f e507 35bf 1c68 04bf
00000280: f9cc 50bc 6ed0 223f b051 57bf 2d16 3f3f
00000290: e4e0 fa3e b491 98be a7e7 1dbf 474d eebe
000002a0: 510b d83e f186 1cbd 62c8 c8be 4906 b0be
000002b0: 7e09 983e 94d4 063f adf6 653e 3669 59bf
000002c0: ac1b 823e 8dfb 123e 24ce 343f 148a 67bd
000002d0: 20e0 0a3f 6718 3e3f 0890 43bf 6bf1 f33e
000002e0: 7e62 f93e 075e 44bf ee84 39bf 7286 0ebf
000002f0: 9931 f8be f48e 0e3e edb5 edbe d0a3 efbd
00000300: d51a 0bbf 91b6 3b3f 54f3 f3be ce30 04be
00000310: e1b2 383f ca1d 39bf 6074 113e 6dd1 27bf
00000320: 9b72 00bf aea4 56bf 77e4 38bf 66a3 803d
00000330: f545 803e 75dd ea3e e3c1 3bbf 4577 4c3d
00000340: 47eb 80be d421 9ebd 321c 4cbf 1d4a b83e
00000350: bc48 a5be f714 113e b72a 99be f2f2 23bf
00000360: 613e 2a3f cd38 32bf b3dc 24bf e57e 1dbf
00000370: 0fb1 23bf 45c3 d03e f6d4 a63e db1a 16bf
00000380: 8cd9 16bf fc3b 003f 0619 8b3e f28e 313f
00000390: ddd0 01bf 81c0 02bf 3a02 263f 45b2 1b3f
000003a0: e0e3 eebe be62 073f a3d5 21bf 0ae1 a4be
000003b0: 6bb3 233f f885 0bbe 3172 f4be d217 8fbe
000003c0: 4048 04bf 9a94 a63e 691a 883c 9b33 19bf
000003d0: 2eb2 08bf ae71 2c3f 41cf 06be 9d95 ff3e
000003e0: 003b 13bf b5d5 05bf f75a 243f b01f 153f
000003f0: 0ace e6be 2b21 1d3f 6793 0abf a10e f6be

item_embedding.weight f4 [406, 20]
-0.64845854 0.10696832 -0.5996464 -0.8053044 -0.4673249 -0.27600858 -0.40402034 0.5895952
0.24642004 0.18573356 0.82555777 0.90222174 0.022762913 0.45496646 -0.50447845 0.84491134
-0.651943 -0.86129236 0.9350718 0.75073457 -0.61095065 -0.7060111 0.7505613 0.017011266
-0.5608686 0.5284285 -0.506086 0.46071848 -0.6356243 -0.3810765 0.40732604 0.73065984
-0.76585925 0.68919635 -0.72434783 0.9098478 0.78823316 -0.7715427 -0.59846276 -0.38820297
-0.5430594 -0.19366336 0.9019524 -0.452856 -0.389224 0.36549082 0.08787602 0.791106
-0.25200477 -0.4299395 -0.6012633 0.639673 -0.07677409 0.45323545 -0.6871215 0.95641756
0.6635836 0.21988697 -0.77623206 -0.116483174 -0.6976368 0.7565556 -0.048719667 -0.63576484
-0.73281354 0.27671126 -0.3115853 0.7311599 -0.4490729 0.11700208 0.6783796 0.677371
-0.5573206 -0.20987245 -0.85622466 0.001927487 0.42149144 -0.6916117 -0.28581324 -0.31976634
-0.5924467 -1.010258 0.56071544 -0.59297055 -0.8312507 0.5372636 -0.4152465 0.7585633
-0.5930213 -0.21355943 0.66128963 0.53979266 -0.4524087 0.5334746 -0.6366046 -0.54008424
0.48929188 -0.67818975 -0.55526686 -0.52932334 -0.6174934 0.80076694 0.76725173 -0.0112109035
-0.490028 -0.6809881 0.6225658 0.96221274 -0.89865685 -0.10692234 0.76605225 0.78587407
-0.71479374 0.7213146 -0.3449506 -0.4471548 -0.3573978 0.79680353 0.9091661 0.07047131
-0.65591925 -0.9447689 0.697258 -0.5109569 -0.5015236 0.07408214 0.5818821 0.65949935
-0.6390352 -0.3597414 0.6553091 0.79289514 -0.45787305 0.75989854 -0.40427396 -0.7746313
0.37462083 -0.45966482 -0.17076927 -0.117642134 -0.75469 0.64638853 -0.5826899 -0.47437435
-0.67022336 0.5839549 -0.08776881 0.62784314 -0.4874219 -0.39032188 0.82052726 -0.07534504
-0.28215438 0.7499544 -0.5674959 0.8921555 0.47330704 -0.81285405 -0.58712775 -0.37291753
-0.5240411 0.39635378 -0.3119716 -0.422893 -0.82178366 0.39974898 0.16140842 0.45229724
-0.63562703 -0.007006006 0.77553195 0.8230149 -0.19665956 0.44308716 -0.73813844 -0.663231
0.4717685 0.8044381 -0.68597823 -0.26967683 -0.7307751 0.65687186 0.7305592 -0.24671113
-0.8395978 -0.6003308 0.7459525 0.71968555 0.5164136 0.97553015 0.70567656 0.7811932
0.06182112 0.8210433 0.42028108 0.76982766 0.5748998 0.77784294 -0.8370412 0.7192472
-0.68024325 0.54508203 0.31053367 -0.07831048 -0.3942384 0.6198333 -0.21006003 -0.81864345
-0.662705 -0.5150461 -0.40052268 0.5569691 -0.4921056 0.59143054 -0.78055793 -0.8357528
0.72579736 -0.74012023 -0.6450587 -0.5204801 -0.8583818 -0.0961059 0.8647831 -0.74180543
0.2446098 -0.6310018 0.83691424 0.12921502 0.22955349 0.08485545 0.6622924 0.28597754
0.50033855 -0.19285809 0.61796206 0.74399227 -0.5077035 0.40601516 0.45265347 0.61529785
-0.6348296 0.06377595 -0.303998 -0.545943 -0.7038173 0.55317456 -0.56455845 0.8201829
-0.6273178 -0.340325 0.7692337 0.5684147 -0.625571 0.49719018 -0.62441224 0.6841451
00000000: 6101 26bf 3512 db3d 6d82 19bf 6e28 4ebf
00000010: 3645 efbe ff50 8dbe c1db cebe b6ef 163f
00000020: 8955 7c3e f030 3e3e c157 533f 01f8 663f
00000030: 4a79 ba3c 5df1 e83e 8025 01bf 1c4c 583f
00000040: bde5 26bf a87d 5cbf de60 6f3f 2430 403f
00000050: 4367 1cbf 25bd 34bf c924 403f 365b 8b3c
00000060: 1695 0fbf 1747 073f da8e 01bf 4be3 eb3e
00000070: 46b8 22bf 761c c3be 0a8d d03e 860c 3b3f
00000080: 5a0f 44bf 2c6f 303f dc6e 39bf c9eb 683f
00000090: a6c9 493f d383 45bf db34 19bf 8ac2 c6be
000000a0: f105 0bbf b04f 46be 5ae6 663f bedc e7be
000000b0: 5e48 c7be 9d21 bb3e 58f8 b33d ec85 4a3f
000000c0: c506 81be 0821 dcbe 64ec 19bf 9cc1 233f
000000d0: bc3b 9dbd 7a0e e83e 32e7 2fbf c8d7 743f
000000e0: 9de0 293f 0d2a 613e 25b7 46bf bb8e eebd
000000f0: 5398 32bf a1ad 413f 468e 47bd 7cc1 22bf
00000100: ab99 3bbf 19ad 8d3e 1c88 9fbe 4c2d 3b3f
00000110: e2ec e5be c99e ef3d 49aa 2d3f 3068 2d3f
00000120: 90ac 0ebf cee8 56be 8a31 5bbf bba3 fc3a
00000130: bacd d73e 770d 31bf 1d56 92be 6ab8 a3be
00000140: 96aa 17bf 2250 81bf 0c8b 0f3f ebcc 17bf
00000150: d9cc 54bf 1b8a 093f 309b d4be 3431 423f
00000160: 3ed0 17bf 53af 5abe 474a 293f da2f 0a3f
00000170: 1da2 e7be cb91 083f 85f8 22bf f642 0abf
00000180: 7784 fa3e d89d 2dbf f825 0ebf bc81 07bf
00000190: 0c14 1ebf 10ff 4c3f 9c6a 443f f0ad 37bc
000001a0: f3e4 fabe 3c55 2ebf 7960 1f3f 9353 763f
000001b0: 600e 66bf 1afa dabd 001c 443f 0b2f 493f
000001c0: b9fc 36bf 13a8 383f 5d9d b0be 79f1 e4be
000001d0: d8fc b6be 51fb 4b3f 1cbf 683f 4353 903d
000001e0: 53ea 27bf 60dc 71bf 807f 323f 12ce 02bf
000001f0: da63 00bf 61b8 973d 3af6 143f f3d4 283f
00000200: d097 23bf 0630 b8be 56c2 273f 2dfb 4a3f
00000210: 566e eabe b688 423f fffc cebe 3d4e 46bf
00000220: 4dce bf3e 3059 ebbe 24de 2ebe 5cee f0bd
00000230: 5d33 41bf b879 253f 2a2b 15bf 32e1 f2be
00000240: c293 2bbf 117e 153f 22c0 b3bd 54ba 203f
00000250: 5d8f f9be 45d8 c7be 130e 523f 804e 9abd
00000260: 8a76 90be 03fd 3f3f 6947 11bf 4e64 643f
00000270: 4d55 f23e 3417 50bf 014e 16bf 0cef bebe
00000280: 8f27 06bf e2ee ca3e beba 9fbe 6e85 d8be
00000290: 6a60 52bf e6ab cc3e 4048 253e 8193 e73e
000002a0: 74b8 22bf a392 e5bb 4389 463f 1bb1 523f
000002b0: 2061 49be 52dc e23e a4f6 3cbf 82c9 29bf
000002c0: a48b f13e a8ef 4d3f 459c 2fbf 1513 8abe
000002d0: 1414 3bbf c128 283f ed05 3b3f d8a1 7cbe
000002e0: e2ef 56bf 48af 19bf bef6 3e3f 503d 383f
000002f0: af33 043f 58bc 793f 38a7 343f 47fc 473f
00000300: 2538 7d3d e52f 523f 152f d73e 6d13 453f
00000310: a22c 133f b720 473f 5548 56bf 9620 383f
00000320: 6c24 2ebf 7f8a 0b3f 45fe 9e3e 3f61 a0bd
00000330: 9ed9 c9be 65ad 1e3f fa19 57be 9e92 51bf
00000340: 09a7 29bf 10da 03bf 4f11 cdbe 8795 0e3f
00000350: 44f5 fbbe fe67 173f a5d2 47bf e5f3 55bf
00000360: dbcd 393f 8578 3dbf 9122 25bf 2f3e 05bf
00000370: e9be 5bbf 2cd3 c4bd 6d62 5d3f f6e6 3dbf
00000380: fe7a 7a3e 5589 21bf 0340 563f f150 043e
00000390: 1210 6b3e b2c8 ad3d ff8b 293f a66b 923e
000003a0: 3016 003f 977c 45be c332 1e3f 4776 3e3f
000003b0: dbf8 01bf 38e1 cf3e 32c2 e73e 2984 1d3f
000003c0: 3184 22bf f79c 823d a0a5 9bbe ecc2 0bbf
000003d0: 5f2d 34bf d99c 0d3f e786 10bf 82f7 513f
000003e0: e697 20bf 143f aebe 80ec 443f a083 113f
000003f0: 6c25 20bf b68f fe3e 7bd9 1fbf 2224 2f3f
