best_para_path/baseline_filmtrust50.20.650.150.250.251.050.00.5_p10_sum20diffnet_explicit_seed0_ex1_1_0.001_1e-05.pt (torch, 131027 bytes, 2 tensors)

user_embedding.weight f4 [1208, 20]
0.48675662 0.38239896 0.038791314 -0.040072583 0.14494017 0.5482297 -0.42499444 -0.6782726
-0.48479143 -0.18379027 -0.53498447 -0.46225345 -0.5465484 0.25980657 -0.46696857 -0.39884213
0.41023332 0.5073357 0.4849315 -0.44230735 0.42745358 -0.5877543 0.18876745 -0.002220229
0.609574 0.379823 -0.36228207 -0.6142699 0.38557652 0.20600547 -0.51305073 0.44082963
-0.48255122 0.0038944264 -0.35957146 0.55215526 0.08288922 -0.53895986 0.32040814 -0.25671974
0.42846328 -0.50962794 0.5727062 0.49823803 0.38182896 0.54469967 -0.07948179 -0.44663572
-0.47097173 0.42256743 -0.4020236 -0.34474695 -0.40971595 -0.52817255 0.32429647 0.617809
0.2924203 0.3933269 0.40032732 0.073042594 -0.09048939 0.37991506 0.23351191 -0.033272907
0.11599178 0.2398582 -0.030380337 -0.43737498 -0.0778345 0.21790588 -0.45782065 -0.29537755
-0.23037252 -0.0035010274 -0.04148738 0.581037 0.3676248 0.48791173 0.4818054 -0.24411352
0.24302442 -0.5746924 -0.04712343 0.24662171 0.23440681 0.31235117 0.04756041 -0.48043692
0.39029354 0.30549017 -0.541122 0.3306251 -0.2582484 0.1468399 -0.22202136 0.48876712
-0.39700443 -0.6408452 0.6639144 0.080163084 0.60530734 0.5532519 -0.5037426 -0.2531893
0.37078974 0.37890297 0.4624733 -0.2583092 -0.4780748 -0.40131912 0.44827634 0.6042081
0.53185695 0.5878074 -0.5050415 0.4359265 -0.39077052 0.65559393 0.5733612 0.4942958
0.5973556 0.53787166 -0.42265138 -0.16970666 -0.10861607 0.3038549 -0.27424312 -0.5282957
-0.0009893798 -0.2342426 -0.578731 0.07553331 -0.47089857 0.4912609 -0.48459646 -0.27317783
0.19525492 0.27719867 -0.5136559 -0.41455838 0.5544757 0.20705062 -0.4911362 -0.55802315
-0.5196 0.48969078 -0.39739096 -0.4708475 -0.3911126 -0.41861647 -0.45454463 -0.2852659
-0.3561327 0.44732246 -0.40337572 -0.3708784 0.55323243 0.45769066 -0.5898825 0.008946793
0.53378123 0.5155901 -0.30924731 0.30917752 0.3110622 0.6123453 -0.54111624 -0.57021874
-0.5322154 0.23263733 -0.47351104 0.25777304 -0.3677516 0.43274596 0.12606953 -0.61667794
0.0462522 -0.47980908 0.71321344 -0.015408744 0.44703948 0.39597556 -0.5466335 -0.024028623
0.10794996 0.105346695 -0.11075412 -0.5277089 -0.047251012 -0.1559825 -0.5483071 -0.11053852
0.05612711 0.38462096 -0.076107666 -0.5560616 0.46766898 0.59784013 0.6112717 -0.38934746
0.20621145 0.102252096 -0.4869574 -0.24592933 0.2595256 0.5128992 -0.4478544 -0.011990865
-0.5742457 -0.31023514 -0.65102667 -0.4493509 -0.46330303 0.26704463 -0.44261724 -0.3460658
0.58468366 -0.30163118 -0.34115106 -0.38269362 -0.27490705 0.53519064 0.32470158 -0.50959015
-0.53244615 0.23891015 -0.4987688 0.60810065 -0.4512064 -0.51257396 0.47667643 -0.5034376
-0.39232445 0.51884645 -0.18843114 -0.35910308 0.66237164 0.5472762 -0.46860266 -0.5623007
-0.41824323 0.27986038 0.3132583 -0.5641498 -0.4766531 0.5111394 -0.5134219 0.47499007
-0.56392354 -0.5261489 0.19620256 0.36469436 -0.5062418 0.6094522 -0.40289867 -0.66565794
00000000: 2a38 f93e ccc9 c33e a4e3 1e3d 2623 24bd
00000010: 326b 143e c858 0c3f df98 d9be 46a3 2dbf
00000020: 9536 f8be 8433 3cbe bef4 08bf 7cac ecbe
00000030: 99ea 0bbf 5e05 853e 8116 efbe 0935 ccbe
00000040: 1a0a d23e c1e0 013f f148 f83e 1c76 e2be
00000050: 32db da3e 1177 16bf 414c 413e 4381 11bb
00000060: 0b0d 1c3f 2978 c23e 097d b9be cb40 1dbf
00000070: 496a c53e 19f3 523e 4b57 03bf 6cb4 e13e
00000080: f410 f7be a239 7f3b c019 b8be 0c5a 0d3f
00000090: d3c1 a93d 46f9 09bf 890c a43e c570 83be
000000a0: 8a5f db3e fa76 02bf e09c 123f 0e19 ff3e
000000b0: 167f c33e 7071 0b3f 59c7 a2bd 70ad e4be
000000c0: 3523 f1be c25a d83e 0ad6 cdbe ac82 b0be
000000d0: 4ac6 d1be 5136 07bf 300a a63e bb28 1e3f
000000e0: 1db8 953e 2562 c93e b4f7 cc3e 5b97 953d
000000f0: 8052 b9bd 3a84 c23e bf1d 6f3e 2c49 08bd
00000100: 198d ed3d 639d 753e 2fe0 f8bc 9def dfbe
00000110: b267 9fbd b822 5f3e 7867 eabe ba3b 97be
00000120: c6e6 6bbe 7e71 65bb acee 29bd d7be 143f
00000130: 5139 bc3e 91cf f93e 33af f63e e5f8 79be
00000140: 65db 783e 0b1f 13bf 7f04 41bd 678a 7c3e
00000150: 5708 703e 7eec 9f3e b4ce 423d d4fb f5be
00000160: 8ed4 c73e 3569 9c3e f986 0abf b147 a93e
00000170: 2239 84be 335d 163e 9159 63be af3f fa3e
00000180: 2a44 cbbe 6e0e 24bf 4bf6 293f 8b2c a43d
00000190: 6cf5 1a3f eba1 0d3f 46f5 00bf 07a2 81be
000001a0: 27d8 bd3e 92ff c13e 4dc9 ec3e 1a41 84be
000001b0: 38c6 f4be b379 cdbe 7a84 e53e 62ad 1a3f
000001c0: c727 083f 8c7a 163f 664a 01bf c231 df3e
000001d0: 1313 c8be 01d5 273f cdc7 123f 5714 fd3e
000001e0: 4cec 183f f5b1 093f c365 d8be 95c7 2dbe
000001f0: 1a72 debd df92 9b3e 9869 8cbe 633e 07bf
00000200: 14ae 81ba 4bdd 6fbe b727 14bf 35b1 9a3d
00000210: 9e19 f1be 8c86 fb3e 071d f8be f7dd 8bbe
00000220: e8f0 473e fcec 8d3e f47e 03bf ff40 d4be
00000230: 1ff2 0d3f 1405 543e 3476 fbbe 9bda 0ebf
00000240: 8104 05bf c0b8 fa3e d476 cbbe ec12 f1be
00000250: e93f c8be e654 d6be 13ba e8be 5f0e 92be
00000260: 0657 b6be 7307 e53e 4387 cebe c6e3 bdbe
00000270: a4a0 0d3f 6e56 ea3e 8a02 17bf 9295 123c
00000280: e3a5 083f b6fd 033f aa55 9ebe 844c 9e3e
00000290: 8b43 9f3e a9c2 1c3f 9886 0abf dbf9 11bf
000002a0: 453f 08bf 7b38 6e3e 0a70 f2be d4fa 833e
000002b0: f049 bcbe e190 dd3e 5f18 013e 9bde 1dbf
000002c0: f272 3d3d 89a9 f5be 2895 363f f574 7cbc
000002d0: 5ce2 e43e 4fbd ca3e 2cf0 0bbf add7 c4bc
000002e0: de14 dd3d 02c0 d73d 0ed3 e2bd ee17 07bf
000002f0: 478a 41bd e0b9 1fbe db5d 0cbf 0562 e2bd
00000300: 8ae5 653d 0aed c43e 56de 9bbd 0e5a 0ebf
00000310: 4f72 ef3e 0d0c 193f 4d7c 1c3f 8d58 c7be
00000320: 1829 533e 8c69 d13d 7b52 f9be e6d4 7bbe
00000330: 8ae0 843e 5d4d 033f 2c4d e5be 5575 44bc
00000340: c401 13bf 24d7 9ebe afa9 26bf 5211 e6be
00000350: 0e36 edbe 13ba 883e ba9e e2be 892f b1be
00000360: d4ad 153f 676f 9abe 5aab aebe 6bf0 c3be
00000370: 9ec0 8cbe 4102 093f 493f a63e 8074 02bf
00000380: 644e 08bf dda4 743e a05e ffbe 7cac 1b3f
00000390: 8604 e7be 0c38 03bf ef0e f43e 49e1 00bf
000003a0: c0de c8be 1fd3 043f 18f4 40be 5cdc b7be
000003b0: 3091 293f 4b1a 0c3f b0ec efbe f0f2 0fbf
000003c0: fa23 d6be dc49 8f3e 6463 a03e 1f6c 10bf
000003d0: e00b f4be 08da 023f 9e6f 03bf e631 f33e
000003e0: 4b5d 10bf b2b1 06bf 53e9 483e 38b9 ba3e
000003f0: 1099 01bf 0f05 1c3f bc48 cebe 8f68 2abf

item_embedding.weight f4 [406, 20]
-0.64966327 -0.6356884 -0.6910614 -0.52766025 -0.3366462 0.15893067 0.64809513 0.669652
-0.55660385 -0.32409486 0.69123423 0.61676306 -0.53872275 0.36087087 -0.47219083 -0.42121556
-0.56313527 -0.55137676 -0.18086733 -0.6855754 -0.6108289 0.30228323 0.6873384 -0.4188628
-0.5485898 0.5279892 -0.3431559 0.30014318 -0.2937875 0.030912602 -0.052397847 -0.23044437
-0.6389205 0.42003223 -0.3925405 -0.40720442 0.74048144 0.540669 -0.6155061 -0.45906994
-0.2055158 0.35853714 0.5810185 -0.2683338 -0.3900088 0.2841962 0.3804022 0.6055481
-0.18656008 -0.42422652 -0.09445908 0.037897747 0.16269843 0.2517023 -0.02550927 -0.25497925
0.51452994 0.5534749 -0.7406315 -0.51658803 -0.33695665 0.53486425 -0.5137904 -0.46525806
-0.6012964 0.05205165 -0.46408406 0.649537 -0.3173299 -0.21051604 -0.052979164 -0.5323278
-0.59907025 -0.30043545 -0.49603632 -0.27931464 0.71804637 0.4554468 -0.537959 -0.68890935
-0.645824 -0.65647095 0.47489887 -0.5564341 -0.6881159 0.37265489 -0.42288935 0.5471536
-0.5283417 -0.46091917 0.5577592 -0.62686336 -0.46896398 0.51555544 -0.6297473 -0.5627005
0.5257412 -0.50564075 -0.40299815 -0.53608763 -0.5559906 0.48724696 0.58121103 -0.55173755
-0.3693113 -0.6439099 0.16349967 0.77081126 -0.642555 -0.5274122 0.55983317 0.6190064
-0.54855275 0.5114498 0.51279247 -0.33962217 0.5681926 0.6100321 0.69308186 -0.63249004
-0.63953495 -0.07518021 -0.38331315 -0.5557461 -0.42669627 0.34275556 0.34486476 0.031137371
-0.48153546 -0.4647426 -0.29337102 0.76353174 -0.29878977 0.680278 -0.30142367 -0.6264508
-0.41097263 0.5536899 -0.42042485 -0.46952105 0.115303196 0.5398066 0.4112341 -0.32301554
-0.52520055 0.44228923 -0.40585312 0.50980663 -0.35713413 -0.39654037 0.6721445 -0.6210662
-0.46228564 0.64358085 -0.35181674 0.30662313 0.31923318 0.030575333 -0.6056447 -0.4407625
-0.48983672 0.6835454 -0.6470901 -0.5803195 -0.6623298 -0.077744 -0.6201579 0.54404104
0.14013408 -0.5645215 -0.37317345 0.70947784 0.16413304 0.0058191204 -0.58648694 -0.60871065
0.4721413 0.5310709 -0.5847987 -0.6807591 -0.6328057 0.3240368 0.58424264 0.22684458
-0.72800106 -0.4503299 0.26208484 0.58519286 -0.25714433 0.16883942 0.6177933 0.5173186
0.4337183 0.6887148 0.30564636 0.19248162 -0.35854363 0.7169908 -0.11724221 0.46564016
-0.35770354 0.27564025 0.3407167 -0.25971472 -0.39784858 0.4259638 -0.4535107 -0.4412906
-0.5464014 -0.35510388 -0.19150837 -0.10879136 -0.2891287 0.52589184 -0.4349419 -0.8078648
0.66255873 0.5314931 -0.5650731 -0.27938402 -0.5854362 -0.45055246 0.7308968 -0.27176744
0.07707532 -0.49220535 0.5330542 0.610876 0.46396443 0.17758909 0.53680646 -0.15517388
0.20661023 -0.13801534 0.5621806 -0.57201976 -0.38074076 -0.14135166 0.044452235 -0.3687968
-0.60272455 0.11694107 -0.09172107 -0.46454322 -0.54947716 0.47224715 -0.49961066 0.599012
-0.51456463 -0.45395404 0.55548173 -0.7396138 -0.5506127 0.42010465 -0.5648055 -0.3469848
00000000: 5550 26bf 7abc 22bf 66e9 30bf be14 07bf
00000010: e45c acbe b9be 223e 90e9 253f 506e 2b3f
00000020: 977d 0ebf c3ef a5be baf4 303f 2fe4 1d3f
00000030: bce9 09bf 11c4 b83e ffc2 f1be 91a9 d7be
00000040: a229 10bf 0727 0dbf 4935 39be df81 2fbf
00000050: 485f 1cbf dec4 9a3e 69f5 2f3f 2f75 d6be
00000060: 6270 0cbf 4d2a 073f 21b2 afbe 5eac 993e
00000070: 516b 96be 6d3c fd3c 209f 56bd 9cf9 6bbe
00000080: 4b90 23bf 770e d73e 12fb c8be 197d d0be
00000090: 3190 3d3f 4969 0a3f cf91 1dbf 370b ebbe
000000a0: bc72 52be 2e92 b73e a1bd 143f 0c63 89be
000000b0: 3caf c7be 2a82 913e 14c4 c23e 3305 1b3f
000000c0: 9b09 3fbe 3834 d9be c373 c1bd ab3a 1b3d
000000d0: 6b9a 263e 20df 803e d1f8 d0bc a48c 82be
000000e0: 3cb8 033f 88b0 0d3f 079a 3dbf 1d3f 04bf
000000f0: 9585 acbe ddec 083f c587 03bf 4e36 eebe
00000100: 90ee 19bf 1c34 553d 6d9c edbe 0f48 263f
00000110: 1179 a2be 8491 57be ae00 59bd a246 08bf
00000120: ab5c 19bf add2 99be 79f8 fdbe 5402 8fbe
00000130: e3d1 373f 5330 e93e aeb7 09bf 5d5c 30bf
00000140: b954 25bf 7b0e 28bf f225 f33e 7772 0ebf
00000150: 5d28 30bf 9fcc be3e f484 d8be 4212 0c3f
00000160: 6741 07bf 99fd ebbe 4fc9 0e3f 1e7a 20bf
00000170: 0c1c f0be 71fb 033f 1e37 21bf 240d 10bf
00000180: fa96 063f ac71 01bf c655 cebe 0a3d 09bf
00000190: 6655 0ebf 6f78 f93e 3fca 143f ac3e 0dbf
000001a0: 5f16 bdbe 47d7 24bf 756c 273e e353 453f
000001b0: 7c7e 24bf 7c04 07bf 3a51 0f3f 3477 1e3f
000001c0: f46d 0cbf 60ee 023f 5e46 033f f5e2 adbe
000001d0: 1275 113f 102b 1c3f d06d 313f deea 21bf
000001e0: 90b8 23bf 15f8 99bd 9f41 c4be 6045 0ebf
000001f0: ef77 dabe a87d af3e 1d92 b03e cd13 ff3c
00000200: d18b f6be bef2 edbe ba34 96be d176 433f
00000210: f9fa 98be b326 2e3f 3454 9abe 145f 20bf
00000220: 016b d2be 9fbe 0d3f ed41 d7be 1065 f0be
00000230: 1524 ec3d c430 0a3f 478d d23e 4b62 a5be
00000240: 8b73 06bf bc73 e23e fbcb cfbe b082 023f
00000250: 49da b6be 5707 cbbe a911 2c3f 32fe 1ebf
00000260: b4b0 ecbe b7c1 243f 5321 b4be b5fd 9c3e
00000270: 8872 a33e 1f79 fa3c 880b 1bbf 9fab e1be
00000280: e1cb fabe d5fc 2e3f b2a7 25bf d28f 14bf
00000290: 728e 29bf 3f38 9fbd abc2 1ebf 4646 0b3f
000002a0: 4f7f 0f3e 7b84 10bf 9710 bfbe 57a0 353f
000002b0: 7e12 283e 52ae be3b 0224 16bf 76d4 1bbf
000002c0: 81bc f13e 43f4 073f 5eb5 15bf 3a46 2ebf
000002d0: 8eff 21bf 27e8 a53e ed90 153f f249 683e
000002e0: 475e 3abf a491 e6be fc2f 863e 33cf 153f
000002f0: 6ca8 83be 3ee4 2c3e b427 1e3f fe6e 043f
00000300: 5310 de3e 9d4f 303f ae7d 9c3e e719 453e
00000310: 0893 b7be b68c 373f af1c f0bd 6368 ee3e
00000320: eb24 b7be b820 8d3e 6b72 ae3e 54f9 84be
00000330: cfb2 cbbe ed17 da3e 8e32 e8be d7f0 e1be
00000340: f6e0 0bbf 2dd0 b5be c51a 44be 01ce debd
00000350: ad08 94be d9a0 063f b4b0 debe 3ad0 4ebf
00000360: 739d 293f ef0f 083f a1a8 10bf 6c0b 8fbe
00000370: 26df 15bf d0ae e6be 0d1c 3b3f 1a25 8bbe
00000380: aad9 9d3d 5702 fcbe 3d76 083f 5f62 1c3f
00000390: bf8c ed3e ead9 353e 266c 093f e7e5 1ebe
000003a0: a291 533e e553 0dbe 11eb 0f3f e36f 12bf
000003b0: 74f0 c2be 7dbe 10be 8c13 363d efd2 bcbe
000003c0: 284c 1abf cd7e ef3d 42d8 bbbd 9cd8 edbe
000003d0: 89aa 0cbf 61ca f13e f8cc ffbe da58 193f
000003e0: 82ba 03bf aa6c e8be 0d34 0e3f 5457 3dbf
000003f0: f4f4 0cbf f517 d73e 1897 10bf fea7 b1be
