best_para_path/baseline_filmtrust50.20.650.150.250.251.030.00.5_p10_sum20diffnet_explicit_seed0_ex1_2_0.001_1e-05.pt (torch, 131027 bytes, 2 tensors)

user_embedding.weight f4 [1208, 20]
000000 f8 aa fd 3e 76 04 e6 3e d6 99 1f bf 4c d2 02 3f
       0.495445 0.44925278 -0.6234411 0.5110214
000010 5d 28 14 3f 2b d4 de 3e 6d 25 dd be f8 80 2a bf
       0.5787409 0.43521246 -0.43192616 -0.6660304
000020 c5 31 a3 bd 0f 8f 89 be b9 4b 0a bf 18 c7 11 be
       -0.07968477 -0.26866958 -0.54021794 -0.14236104
000030 38 83 1c bf 6c 15 25 bf bb 6a b6 be 36 a1 94 be
       -0.61137724 -0.6448581 -0.35628304 -0.29029244
000040 2b cc a4 bd 9f 26 71 bd 75 de 14 3f 5b d0 88 be
       -0.080467544 -0.058874723 0.5815194 -0.26721463
000050 cf 35 07 3f ec 81 03 bf c6 4c 07 bf 12 ce bf 3e
       0.5281648 -0.5137012 -0.5285152 0.37461907
000060 2e 00 0c 3f 19 31 b6 3e 8a a5 29 be 02 36 d9 be
       0.54687774 0.35584334 -0.16567054 -0.42424017
000070 f8 b7 fd 3e 47 70 89 3e df 9e 0f bf 78 0f e9 3e
       0.4955442 0.26843473 -0.56101793 0.45519614
000080 58 d1 a7 be cd ed 1b bf cf 6e b2 be 46 90 08 3f
       -0.32776904 -0.6090973 -0.34850165 0.53345144
000090 11 04 d7 3c 2f 19 1b bf 6a d8 82 3e cf 83 1a be
       0.026247056 -0.605853 0.25555736 -0.15089343
0000a0 d1 f6 f8 3e 4d dd ce be 71 e5 a2 3e c4 c8 05 3f
       0.48625806 -0.40403214 0.31815675 0.5225947
0000b0 32 85 f6 3e 07 17 01 3f 0f 44 be 3e 80 d3 fe be
       0.48148495 0.5042576 0.371613 -0.49770737
0000c0 d0 33 8c be be ac e8 3e 4d a6 ae be 1a 43 18 3f
       -0.2738328 0.45444292 -0.34111252 0.5947739
0000d0 5b 57 ab 3c d5 0f 25 bf f2 02 09 3f bd 37 13 3f
       0.020915678 -0.6447728 0.5352012 0.57506925
0000e0 3e 7b a6 be 18 10 93 be 85 eb ed 3e 0f 0d aa be
       -0.325159 -0.28723216 0.4646875 -0.33213088
0000f0 c3 3c 94 3d 2b 29 e1 3d d0 6d 70 bd b2 03 87 3c
       0.07238152 0.1099418 -0.058698475 0.016481254
000100 e9 05 02 be cc d9 2a 3e 62 8f 5c 3d 4c a1 0d bf
       -0.12697567 0.16684645 0.053847678 -0.55324244
000110 5e fd ed bd eb 6b c5 3d 6b 07 cb be b7 5d 90 be
       -0.116205916 0.09639724 -0.39654097 -0.281965
000120 b6 f1 c2 be 1b 9b 5b bd 4d 90 1f be e9 fc 31 3f
       -0.38075036 -0.053614717 -0.1558239 0.69526535
000130 73 b7 b7 3e e9 21 ee 3e f6 61 d0 3e cd de c5 bd
       0.35882148 0.46510246 0.40699738 -0.096616365
000140 91 42 2d 3e 99 af 0a bf 6c 36 38 be 31 ba 17 3f
       0.16919924 -0.5417419 -0.1798951 0.5926848
000150 3c fd 0d 3f b3 f0 fd bc 92 7a 13 3f 85 c5 72 3e
       0.5546453 -0.030998563 0.576089 0.2370816
000160 5e 15 f8 3e e8 07 11 3e 62 48 0c bf b6 a4 dd 3d
       0.48453802 0.14163172 -0.5479795 0.10822432
000170 f0 d3 47 be 40 ad 3d 3e 12 66 23 be fb 51 b2 3e
       -0.19514441 0.18523121 -0.15956905 0.3482817
000180 b3 c1 6c be 2f 75 2b bf 70 1b a4 3e 23 6b e2 3e
       -0.23120765 -0.6697568 0.32052183 0.44222364
000190 3c 62 22 3f 55 1e 16 3f 1d 65 13 bf b3 92 e4 3d
       0.63431144 0.58640033 -0.5757616 0.11160793
0001a0 a5 65 e5 3e 05 ef ce 3e 82 9b 96 be 8f a1 88 be
       0.4480411 0.40416732 -0.29415518 -0.2668576
0001b0 7e ee d7 be 07 16 95 be 20 9b 22 bf bc 77 80 be
       -0.42174143 -0.29118368 -0.6351795 -0.2509135
0001c0 aa da 6a 3e 6e ec 32 be 48 68 b2 be 4f 1b 52 3e
       0.22934976 -0.17473003 -0.34845185 0.2051823
0001d0 be fa 18 bf a9 86 f7 3e ec 29 d4 3e e7 aa 00 3f
       -0.597576 0.48344925 0.41438234 0.50260776
0001e0 4a f8 cf 3e 89 69 1e 3f 6f de a9 3d 5f a7 d6 3e
       0.40619117 0.61879784 0.08294379 0.4192457
0001f0 76 8b ee 3d 2d 23 68 3e 2a da be 3d 02 59 1a bf
       0.11647694 0.22669668 0.09318955 -0.60292065
000200 fc 6b 8b be e8 5b 8b be d2 a3 e1 be 4c 19 01 bf
       -0.27230823 -0.27218556 -0.44070297 -0.50429225
000210 54 ea 11 bf 47 ba 12 3c ef b6 fa be 50 a7 d7 be
       -0.5699818 0.008955545 -0.48967692 -0.42119837
000220 b3 0e c7 bd 66 98 14 3f 23 dc 03 3f c2 c6 c9 be
       -0.097196005 0.5804504 0.51507777 -0.39409453
000230 2a 60 09 3f 98 7b c5 3e 89 6f 26 bf 2c 9f e5 be
       0.5366236 0.38570857 -0.6501394 -0.44848
000240 b0 ef 5b be 2f 71 06 3f c3 39 e7 be 15 c4 19 bf
       -0.21478152 0.52516454 -0.45161256 -0.6006482
000250 f0 05 a5 be 28 75 ca be 35 fb 1c bf 98 0c 38 be
       -0.32231092 -0.39542508 -0.6132081 -0.17973554
000260 5e d9 b2 be 31 2a bd 3e d3 44 d9 be 9f b9 bc be
       -0.34931463 0.36946252 -0.4243532 -0.36860368
000270 33 19 e4 3e bf be c5 3d 3a 6f f9 bd df 22 3c 3e
       0.44550475 0.096555226 -0.12179418 0.18372677
000280 60 5e b2 3d eb a5 13 be 24 bd 23 bf 38 37 20 3f
       0.08709407 -0.14418761 -0.6396048 0.6258426
000290 28 ca e9 3e f6 d8 e4 bd b8 4c a3 3e 75 eb e0 be
       0.45662045 -0.111741945 0.3189447 -0.4392964
0002a0 6d 92 d1 3d ad fb 38 3e e5 1c 01 bf 0c 5c cb 3e
       0.102330066 0.18064757 -0.50434715 0.39718664
0002b0 05 23 f6 be 10 4a c4 3e 2f 80 e1 be a5 af 39 3e
       -0.48073593 0.38337755 -0.4404311 0.1813341
0002c0 ea e0 91 be 65 1f a1 be b4 92 43 3f dc d8 86 3e
       -0.28491908 -0.31469265 0.76395726 0.26337326
0002d0 0f 39 d3 3e 20 58 8b 3e df cd 0e bf 7d 0b af bd
       0.4125447 0.27215672 -0.55782884 -0.08547113
0002e0 73 6f 1a 3f 69 58 46 3e 13 a3 53 bd 40 63 0a bf
       0.6032631 0.19369663 -0.05166919 -0.54057693
0002f0 61 b7 c7 bd 73 6a ae bc 3c a2 c5 be 54 65 86 be
       -0.097517736 -0.021290993 -0.38600338 -0.26249182
000300 c7 4b d3 bd 23 3e cd 3e 60 f2 d0 3d ea 86 d0 bd
       -0.10317188 0.4008647 0.10202479 -0.10181983
000310 af b8 3f 3d 6a 48 29 be 29 c1 ed 3e 72 32 7d be
       0.046806987 -0.1653153 0.46436432 -0.24726275
000320 92 82 68 3d 05 3f 18 3d dc 1a 0b bf cf 4e ae 3e
       0.056765147 0.037169475 -0.5433786 0.340445
000330 a8 e3 21 3e f2 2d 09 3f ca 2c e6 be 5f c1 14 bf
       0.158095 0.5358573 -0.44956046 -0.5810756
000340 7a 73 cd be ad 48 4e be 1b 79 27 bf 4b 8d d4 be
       -0.40127164 -0.20144911 -0.6541917 -0.41514048
000350 9d 37 10 bf c0 1d 40 3e fb 28 ed be 8f 4a ea be
       -0.5633486 0.18761349 -0.46320328 -0.4576001
000360 d1 65 1b 3f 37 6f 2b bf 28 90 c3 3e 9e 93 c0 be
       0.60702235 -0.66966575 0.3819592 -0.37612623
000370 4c e7 12 be 35 c8 13 3f 7e 53 1c 3e 18 ea 05 bf
       -0.14346045 0.57727367 0.15266225 -0.52310324
000380 62 5d 07 bf 9c 8d e6 3e c2 1e 0c bf ec b0 04 bd
       -0.52876866 0.45029914 -0.5473443 -0.03239529
000390 a9 c1 f7 be 88 d7 07 bf 05 8b fe 3e 5a 57 12 bf
       -0.48389938 -0.5306325 0.49715438 -0.5716454
0003a0 ff f3 91 be fd 36 10 3f 94 88 0a bf a5 91 fa be
       -0.28506467 0.56333905 -0.5411465 -0.48939243
0003b0 72 84 23 3f 47 22 06 3f 7c f3 ff be 55 68 fe be
       0.6387397 0.52396053 -0.4999045 -0.49688974
0003c0 70 b1 45 be 2d 08 fa 3e f8 56 a5 be 68 eb 13 bf
       -0.19305968 0.48834363 -0.32292914 -0.57781076
0003d0 6b 54 10 bf 95 85 10 3f 9d 3e d7 be 00 d5 d5 be
       -0.5637881 0.5645383 -0.42039958 -0.4176407
0003e0 36 25 06 bf b3 f2 02 bf 98 26 bc 3d b7 1c 99 be
       -0.5240053 -0.5115158 0.09187049 -0.2990472
0003f0 c8 5c f6 be 5d 06 0b 3f a1 38 fa be 21 1e 10 bf
       -0.4811766 0.54306585 -0.4887133 -0.56295973

item_embedding.weight f4 [406, 20]
000000 c6 47 25 bf dc 6c 3f bf 68 bf 2e bf 60 3b f8 be
       -0.6456264 -0.7477548 -0.6826081 -0.484828
000010 27 05 dc be fd 87 23 3f 9b 3a 32 bf c8 b0 0a 3f
       -0.4297268 0.63879377 -0.69620675 0.54175997
000020 0f 74 03 bf 9c dc bb 3e 2f f1 3d 3f 52 6a 26 be
       -0.51348966 0.3669175 0.7419614 -0.16251495
000030 45 01 28 3f 10 7c 08 3f 7e 5a f5 be cc 7a 94 3e
       0.6562694 0.53314304 -0.47920603 0.28999937
000040 e2 3b b5 be 7a f1 10 bf 2f 56 45 be 7f e4 b1 3e
       -0.3539725 -0.56618464 -0.19271158 0.3474464
000050 9c 03 a5 be 7e a8 b3 3e 15 8a 2c 3f 7c 06 97 be
       -0.32229316 0.35089487 0.67398196 -0.29497135
000060 a3 b6 d1 be d2 f9 06 3f 71 4a 70 be 8a 8b d6 be
       -0.40959653 0.52724946 -0.23465897 -0.41903335
000070 6c c6 c9 be 76 1e 64 be a7 f1 00 bf eb 0c f9 be
       -0.39409196 -0.22277245 -0.5036873 -0.48642668
000080 e1 82 fe be 1c 25 2a 3f 42 df 28 bf 79 12 d0 be
       -0.49709228 0.66462874 -0.65965664 -0.40639094
000090 65 8c 40 3f 76 71 8e 3e da 66 27 bf 2b 62 8a be
       0.75214225 0.2782094 -0.65391314 -0.2702802
0000a0 2d 58 4e be 87 3f b0 3e 9b b4 07 3f 41 0b d0 be
       -0.20150824 0.34423468 0.5300996 -0.40633586
0000b0 84 28 01 bf 65 7d f4 3e c8 d4 b0 bb a9 68 dd be
       -0.50452447 0.47751918 -0.0053964593 -0.43243912
0000c0 53 d7 ab be 00 1e e8 be 1c 7e 26 bf 83 a1 82 be
       -0.33562717 -0.45335388 -0.6503618 -0.2551385
0000d0 ce b6 cf 3e d6 38 13 3f 1b 80 01 bf a7 78 06 3c
       0.40569156 0.575086 -0.505861 0.008207477
0000e0 17 af 15 3f 44 01 ea 3e a3 d3 47 bf 17 39 85 bd
       0.5847029 0.4570409 -0.78057307 -0.0650503
0000f0 2d 10 19 bf 67 9a e1 3e cc 46 1b bf a1 30 04 bf
       -0.5979031 0.44063112 -0.606549 -0.516367
000100 ff 63 18 bf f3 7d bf 3e 79 09 1b bf 4c fd 2e 3f
       -0.5952758 0.3740078 -0.6056133 0.6835525
000110 1b f4 0a bf dc e9 f1 bd d5 a8 db 3e 0c e1 0c bf
       -0.54278725 -0.11812183 0.42902246 -0.55030894
000120 14 40 3d bf ed 58 16 bf a1 24 2d bf cf 7b 0b bf
       -0.739259 -0.5872944 -0.67634016 -0.5448579
000130 42 3a 27 3f ec ba 0f 3f de b8 fc be f7 e0 2d bf
       0.6532327 0.56144595 -0.49359792 -0.67921394
000140 63 81 29 bf 62 91 38 bf 72 d0 f7 3e ec 91 80 be
       -0.66213053 -0.72096837 0.4840122 -0.2511133
000150 ba 87 25 bf e8 1c 1d 3f 64 9c 07 bf 87 da 29 3f
       -0.6466023 0.6137223 -0.5297301 0.6634907
000160 f1 38 15 bf 09 49 03 bf af 21 16 3e 8c 48 13 bf
       -0.5829001 -0.5128332 0.14661287 -0.5753257
000170 20 51 fd be 41 53 1b 3f 98 a0 29 bf b5 bc 0f bf
       -0.49475956 0.6067391 -0.6626067 -0.5614732
000180 a8 7f 06 3f c8 0b 14 bf af 51 f0 be 11 62 25 bf
       0.5253854 -0.57830477 -0.4693732 -0.6460276
000190 82 38 0a bf c8 b0 16 3f d4 93 12 3f c3 8c ff be
       -0.53992474 0.58863497 0.5725682 -0.4991208
0001a0 95 34 2c be 4b ee 0f bf 68 66 67 3d 8b cb 33 3f
       -0.16816933 -0.5622298 0.056494147 0.70232457
0001b0 d8 46 3f bf 25 b1 1c bf 33 0b e3 3e 96 3b 28 3f
       -0.74717474 -0.612078 0.44344482 0.6571592
0001c0 15 fd 51 bf a6 7e 0e 3f ea 23 fb 3e ae 2c cd 3d
       -0.820268 0.55662 0.49050838 0.100182876
0001d0 51 b0 1d 3f 06 53 f7 3e 24 17 61 be f1 2a 44 bf
       0.6159716 0.4830553 -0.21981484 -0.76628023
0001e0 0d 40 2d bf f7 b8 4d bf 26 4b ab be 96 96 0b bf
       -0.6767586 -0.8036036 -0.3345577 -0.5452665
0001f0 49 c2 d6 be a9 7c 27 3e 30 36 8e be 0e 10 23 bf
       -0.41945103 0.16356148 -0.27775717 -0.6369637
000200 8a 2d 08 bf 0b f1 b8 be c5 a9 07 3f 28 40 0f 3e
       -0.5319449 -0.361214 0.5299342 0.13989317
000210 0a 4d 28 bf 6e 37 2f 3f d8 71 09 bf 04 9a 07 bf
       -0.6574255 0.68443954 -0.53689337 -0.52969384
000220 1f 74 aa be 22 bf 0e 3f 35 fa 26 bf fc 3b 97 be
       -0.33291718 0.55760396 -0.65225536 -0.29537952
000230 a7 d7 1c be 31 7f 24 3f 20 16 d6 bd fe 8a 97 be
       -0.1531664 0.6425658 -0.10453439 -0.2959823
000240 dd c5 0e bf 74 28 c7 3e c0 81 08 bf 4f 14 56 3e
       -0.55770665 0.3889805 -0.5332298 0.20906185
000250 02 02 f9 be 48 8f c0 be 73 c7 01 3f ac b6 07 bf
       -0.48634344 -0.37609315 0.5069496 -0.5301311
000260 f5 a7 93 be 27 d3 2a 3f 97 63 bf be 38 e1 0e be
       -0.2883908 0.6672844 -0.3738067 -0.13953102
000270 25 f0 02 3f 5f 62 0c bd f5 4d 2c bf d8 a5 f2 be
       0.5114768 -0.0342735 -0.67306453 -0.47392154
000280 9e b0 06 bf 75 65 2b 3f 81 ce 3c bf 74 80 ee be
       -0.52613246 0.66951686 -0.737526 -0.46582377
000290 39 47 bd be ab 41 d1 be 13 41 13 bf e9 28 95 3e
       -0.369684 -0.40870413 -0.5752117 0.29132774
0002a0 e7 2c be be d4 3a 2f bf 0c 11 ab 3d d3 32 0f bf
       -0.37143633 -0.6844914 0.08352861 -0.55936927
0002b0 db 6a fd 3e eb dc 8b bd 5f d0 1f bf 22 c3 1f bf
       0.49495587 -0.06829246 -0.62427324 -0.62407124
0002c0 c6 12 00 3f 4a de 15 3f 3f 84 15 bf 9f 87 2c bf
       0.50028646 0.5854231 -0.58404917 -0.6739444
0002d0 30 c7 1b bf 41 aa 8c 3e df ec 1a 3f 33 d7 8e be
       -0.6085081 0.27473643 0.60517687 -0.2789856
0002e0 25 c4 26 bf 7b 17 6b be 59 b3 a3 be 5c 1c c5 3e
       -0.6514304 -0.22958176 -0.3197277 0.384982
0002f0 11 7f 6b 3b 7c 93 80 3e ec a7 1d 3f 73 24 84 3e
       0.0035933892 0.25112522 0.61584353 0.2580906
000300 8e 46 00 3f 21 df 2f 3f 7e 44 c3 be 7f bf ae 3e
       0.5010766 0.6869984 -0.38138193 0.34130475
000310 c0 28 1f bd ab 1e 14 3f 31 01 1e bf 23 a0 0c 3f
       -0.03885722 0.57859296 -0.6172057 0.5493185
000320 27 bf e1 be 9e 4d da 3e c1 ef 14 be 25 f4 ac 3e
       -0.4409115 0.42637342 -0.14544584 0.33780017
000330 af ba ad be 70 34 02 3f ef 68 16 be 1c a5 3c bf
       -0.3393149 0.50861263 -0.14688466 -0.73689437
000340 ef ea 0c bf 44 20 b4 be 36 08 c7 3d 2c 0a 16 bf
       -0.5504598 -0.35180867 0.09718363 -0.5860927
000350 d5 ec c2 be 87 f9 05 3f fa 31 20 bf 06 b3 32 bf
       -0.38071314 0.52333874 -0.6257626 -0.6980442
000360 54 0a 2d 3f ca 4a 0f 3f 26 8f 12 bf db ba ea be
       0.67593884 0.55973494 -0.5724968 -0.45845684
000370 3f 3e 14 bf b0 23 ad be 4e bb 28 3f df 17 3b bf
       -0.5790748 -0.3381629 0.65910804 -0.730833
000380 86 12 2c 3e 46 09 d4 be 7e bd 02 3f ec 22 03 3f
       0.16803941 -0.41413325 0.5107039 0.5122516
000390 c7 82 ea 3e f0 0d f7 3d e0 02 f9 3e 00 cb 2d bd
       0.458029 0.12063205 0.48635006 -0.042429924
0003a0 a0 f0 7a 3e 37 57 13 be e2 06 de 3e 55 a1 a3 3e
       0.24505854 -0.14388739 0.43364626 0.31959024
0003b0 d4 6c e6 3c 24 34 1f 3f 3f ff 02 bf ee 51 58 3e
       0.028128065 0.62188935 -0.51170725 0.21125004
0003c0 fa e3 0f bf e4 21 d1 3e 55 ec ec be 5e 00 f6 be
       -0.5620724 0.4084617 -0.46274057 -0.48047155
0003d0 56 94 d6 be 4d e5 10 3f 34 e4 f9 be 15 63 4b 3e
       -0.41910046 0.56599885 -0.48806918 0.19862016
0003e0 c2 01 06 bf 5d 6a d6 be 5c af e7 3e ff d3 3d bf
       -0.5234643 -0.41878024 0.45250976 -0.74151605
0003f0 b9 d9 28 bf 71 1b 04 3f 87 fe 11 bf 0a 02 f8 be
       -0.6595722 0.5160437 -0.57029 -0.48439056
