best_para_path/baseline_filmtrust50.20.650.150.250.251.050.00.5_p10_sum20lightgcn_explicit_seed0_ex1_2_0.001_1e-05.pt (torch, 131031 bytes, 2 tensors)

user_embedding.weight f4 [1208, 20]
000000 d8 50 fe 3e 29 77 71 bc aa 11 86 3f 0a 25 4d be
       0.49671054 -0.014737883 1.0474141 -0.2003366
000010 e8 42 a0 be 96 ef 77 3f 20 6d 83 bf 78 df 96 bf
       -0.31301045 0.96849954 -1.0267677 -1.1786947
000020 29 6a 58 bf 7d 65 58 3e bd f4 5b bf 20 72 78 3e
       -0.8453699 0.21132465 -0.85920316 0.24262285
000030 42 fe 62 bf 22 ce 5d 3f 8d 3a 82 bf 10 1a 65 bf
       -0.88669217 0.8664266 -1.0174118 -0.89492893
000040 7d 0e 78 3f 83 9c f9 3e 76 cd 2a be 2d fa e9 be
       0.9689711 0.4875222 -0.1667994 -0.4569868
000050 bf b5 a1 3f d5 d0 82 bf 2c 2f 80 3e 2a 10 1d be
       1.263359 -1.021998 0.2503599 -0.15338197
000060 b4 06 f1 3e 8d 02 12 3e b4 06 3b be 1e e7 e1 be
       0.47075427 0.14258786 -0.18264276 -0.4412164
000070 b8 52 d4 3e 6d c4 22 3f f3 4c 48 be 38 6d e9 be
       0.4146936 0.6358097 -0.19560604 -0.4559114
000080 b8 57 c8 be a2 47 c2 3e d4 19 08 bf 24 68 1e bd
       -0.39129424 0.37945276 -0.5316441 -0.038673535
000090 6c f4 a3 3e c8 9f 19 3f 70 17 38 3e a9 2f 77 3d
       0.32022417 0.6000943 0.1797769 0.060348187
0000a0 8a 3d a9 3f 26 67 81 bf 2c cd f3 3e 4c db 2e 3e
       1.3221905 -1.0109603 0.4761747 0.17075843
0000b0 33 5e 40 3f 9a 1f c7 be e0 ed 16 3e 2f 07 0b bf
       0.75143737 -0.38891298 0.1473918 -0.54307836
0000c0 30 5d 21 be d2 dd 2e 3f 58 f2 99 be 4f 55 20 bf
       -0.15758204 0.6830722 -0.30067706 -0.6263017
0000d0 24 a4 cb be 39 d8 9f bd 8d 5c 7d be 8a ae a0 be
       -0.39773667 -0.07804913 -0.24742337 -0.31383163
0000e0 80 46 8e bc b0 a4 7d 3f 0a 74 05 3f 37 4a b2 3d
       -0.017367601 0.9907942 0.52130187 0.087055616
0000f0 d6 94 97 3f b4 b8 7b bf a5 f4 2f be dd 9f 81 3d
       1.1842296 -0.9832871 -0.17183168 0.063293196
000100 45 6c bd 3e 19 d5 ab 3e 7e a0 31 bf e4 33 8c be
       0.36996666 0.33561018 -0.69385517 -0.2738334
000110 0a 59 84 bf f0 ad 0c 3f 06 39 5d 3f 33 a5 84 bf
       -1.0339673 0.5495291 0.86415136 -1.0362915
000120 9e 8b 18 bf e9 6f d1 3e dd 7f 8b 3f b8 08 84 3f
       -0.5958804 0.40905693 1.0898396 1.0315161
000130 22 80 59 3f 42 f2 b2 3f 18 d5 a1 be 9b 5a a8 bf
       0.8496114 1.3980181 -0.3160789 -1.315265
000140 de 2a a5 3f 96 13 90 bf 49 e4 51 3e fa 3f 94 bd
       1.2903707 -1.1255977 0.2049724 -0.07238765
000150 90 25 13 3f e8 61 0f bf 4f 12 d1 3e 51 c4 97 be
       0.5747919 -0.5600877 0.4083428 -0.29641965
000160 fa a0 04 3c 71 02 68 3f fa c3 be be 9b b0 db be
       0.00809502 0.90628725 -0.37258893 -0.42908177
000170 59 3e 72 be 20 3f a8 3e 01 01 67 be 51 75 bf 3d
       -0.23656596 0.3286066 -0.22558977 0.09348548
000180 2c 59 74 3e fb c2 3d 3f 4e 00 f4 3e c4 19 53 3e
       0.23862141 0.7412564 0.47656482 0.20615298
000190 59 63 b9 3f 12 77 39 3d e8 15 92 3e 04 31 22 3f
       1.4483443 0.04527957 0.28532338 0.6335604
0001a0 7b 99 61 3f 21 20 27 3f b4 12 9b 3e 07 1f 06 bf
       0.8812482 0.652834 0.30287707 -0.52391094
0001b0 9d 06 6b bf 7f af 05 bf 02 af 83 3b 2c c1 7a 3e
       -0.91806966 -0.5222091 0.0040186653 0.24487752
0001c0 5b 64 fb bc f0 69 54 3d 60 38 96 bf 9b a7 0a bf
       -0.030687502 0.051858842 -1.1735954 -0.54161996
0001d0 96 5f b3 bf 46 53 be 3f 50 75 9e 3a 52 a2 7c bd
       -1.4013546 1.4869163 0.0012089405 -0.06167824
0001e0 72 69 8f 3f 4e 90 08 bf 4c 18 15 3f 9c f8 f5 be
       1.1204054 -0.5334519 0.582402 -0.48041236
0001f0 a0 fe 40 3e e6 a6 2a be c7 07 d2 be 77 7f bc bf
       0.18847132 -0.16665229 -0.4102156 -1.4726399
000200 5a 0a 62 be b9 f3 1e 3f e7 8d 99 be bc 0a b7 3e
       -0.22074261 0.6209064 -0.29991075 0.35750377
000210 7c ec 83 bf 72 c7 a0 3f 16 6b 5e bf 75 ad 6c bf
       -1.0306544 1.2560866 -0.8688215 -0.92452174
000220 d8 20 69 3f db 4d 16 3f e4 b4 5e 3e bc 7e b1 be
       0.9106574 0.5871255 0.21748692 -0.34667003
000230 ff 8d 11 3f 41 0f bc 3d c0 38 ca 3d 96 4f a3 bf
       0.56857294 0.09182597 0.098741055 -1.2758663
000240 9a e6 f2 3c f4 e4 1d 3f a2 78 65 be fa 6b 89 bf
       0.029650975 0.6167748 -0.22409299 -1.0736077
000250 b2 91 ba be eb b3 74 bd eb 31 39 bf 82 79 f7 3e
       -0.36439282 -0.059741896 -0.72341794 0.4833489
000260 d9 fc 45 bf 33 07 54 3f 89 d7 25 bf 8f c2 3f bf
       -0.7733894 0.82823485 -0.64782006 -0.7490625
000270 67 ec 3e 3f b5 f6 6c be 29 de 24 bf 09 16 f5 be
       0.7457947 -0.23140986 -0.6440149 -0.47868374
000280 f5 61 af 3f 8f a7 80 bf f9 ef 54 3f e8 49 8d be
       1.3701769 -1.0051135 0.8317867 -0.27595448
000290 cd 2c be 3e fd 4a ce be cf 0a 40 bf e7 4d b4 bf
       0.37143555 -0.40291587 -0.7501649 -1.4086274
0002a0 7e ac 78 bf bc 39 7f 3f dc 5f e7 be 42 3d 27 be
       -0.971382 0.9969747 -0.45190322 -0.16331962
0002b0 64 51 29 bf b1 4b 0e 3f 1d 06 a2 3e 84 40 41 bf
       -0.6613982 0.55584246 0.3164529 -0.7548907
0002c0 7a 9c 2e 3f 23 5d 89 3f 73 fd e9 3e e8 04 3d 3e
       0.68207514 1.0731548 0.4570118 0.18458903
0002d0 04 7c 5e 3f 71 db 17 bf ef f4 3a 3f 8b 28 17 3f
       0.8690798 -0.59319216 0.7302999 0.5904624
0002e0 c5 c2 0f 3d 03 ab bc be d3 09 5b bf e0 4c 56 bf
       0.035097856 -0.36849222 -0.85561866 -0.8371105
0002f0 1e 64 a5 be f6 f5 8c 3f 0f 54 ef be de 24 08 3e
       -0.32302946 1.1012561 -0.4674382 0.13295314
000300 93 c5 98 be b3 d3 5a 3f a2 64 dd 3e 5c ee 69 bf
       -0.29838237 0.8547928 0.4324084 -0.9137933
000310 29 53 b5 3f 18 e7 a9 3e 2f f9 24 3f 74 39 4b 3d
       1.4166003 0.33184123 0.64442724 0.04961534
000320 75 d9 fa 3e 5a 43 f6 be 87 96 1b 3f 20 fd 38 bf
       0.48994032 -0.4809826 0.6077656 -0.7226124
000330 bb fc 56 bc 52 87 6d 3e a7 7b 56 bf 15 40 16 bf
       -0.013121779 0.23196152 -0.8378243 -0.5869153
000340 c6 28 23 bf fe fa d2 3d e1 d3 69 bf 10 e2 68 be
       -0.6373409 0.10301779 -0.91338927 -0.22742486
000350 68 ca e3 be 62 90 07 3e a7 39 a3 bd 4f 2b 5d bf
       -0.4449036 0.13238671 -0.07969981 -0.8639421
000360 70 91 5f 3f 40 5e 2c 3e 06 1b 0e bf 35 84 ed be
       0.87331295 0.16832829 -0.55509984 -0.46389928
000370 17 e2 cb bf 53 7e a7 3f 62 7f 63 3d b4 dd 21 bf
       -1.5928372 1.3085426 0.055541404 -0.6322892
000380 6f b8 83 bf 00 6b 40 3f 43 26 8e be 75 4b 7c 3e
       -1.029066 0.7516327 -0.27763566 0.2463816
000390 e8 25 a2 be d1 40 88 bf 6c d8 63 be 85 17 80 3f
       -0.31669545 -1.064478 -0.22250527 1.0007178
0003a0 de 54 d1 bd b9 5f b2 3e 22 55 64 be 67 2b 8f bc
       -0.10221265 0.34838656 -0.222981 -0.01747675
0003b0 3c 76 cf 3e 4f 2d a1 bf b5 f8 4b bf 10 8e 2d bf
       0.40519893 -1.2591952 -0.7967637 -0.67794895
0003c0 ce 05 b5 bf 77 75 2c 3f 6c ac 6a 3e f1 65 19 bf
       -1.4142396 0.6736674 0.22917336 -0.59921175
0003d0 7f 9c 6a bf ac c2 5f 3f 85 7a b6 be 6a 9f 0f be
       -0.91645044 0.8740642 -0.3564035 -0.14025655
0003e0 08 75 e2 be a4 c3 5d bf e7 b1 d3 be 6e d6 b4 3f
       -0.44229913 -0.8662665 -0.41346666 1.4127939
0003f0 0e 95 8e be 25 01 46 3f 23 42 ec be e0 1d 8e be
       -0.27848095 0.77345496 -0.46144208 -0.27757168

item_embedding.weight f4 [406, 20]
000000 43 a9 b6 bf 4a 54 8e bf cf 78 96 bf 6e a8 a1 bf
       -1.4270405 -1.1119473 -1.1755618 -1.2629526
000010 10 7f eb 3e 6c 31 5e 3f d5 46 bb 3f 77 2a 92 3f
       0.45995378 0.8679416 1.4630991 1.1419209
000020 58 95 b8 3f d0 d4 30 3f 84 c8 c7 3f 7d 5b ee 3f
       1.4420576 0.69074726 1.5608068 1.862167
000030 17 df 57 3f 67 58 3d 3f 21 3f 9c bf 86 75 51 3f
       0.84324783 0.73963016 -1.2206765 0.8181995
000040 17 5f 99 bf f5 51 ce bf 48 2f 65 3f 8e 24 5a 3f
       -1.1982144 -1.6118761 0.8952527 0.8521203
000050 cd 23 d8 bf 4e d7 99 3f 0c c7 1f bf 53 18 f4 be
       -1.6885926 1.2018831 -0.62413096 -0.47674808
000060 f9 d6 5d bf 9a 65 19 3f 07 fd 2f 3e 74 19 3c 3f
       -0.8665615 0.59920657 0.17186366 0.7347634
000070 95 f2 03 3f 17 54 e5 be 5c 50 ab be 10 08 a2 3f
       0.51542026 -0.44790718 -0.33459747 1.265871
000080 2c e8 93 3e bc a0 88 bd 5b 2e 4b bf c5 d2 8b 3f
       0.2888807 -0.06671283 -0.7936761 1.0923697
000090 9c 16 b0 3f 71 c2 d4 bf 79 7a a0 bf 59 0a 2f 3e
       1.37569 -1.6621839 -1.2537376 0.17093791
0000a0 53 26 ad bf 39 51 89 3f 37 17 26 bf 1d 5d 5e 3e
       -1.3527321 1.0727912 -0.64879173 0.21715207
0000b0 db 0b ec bd 84 85 b2 bd cc 2f 60 3f 4c c7 84 3f
       -0.11525699 -0.08716872 0.8757293 1.037332
0000c0 42 f5 e0 3e 0b a2 7c bf 6c 02 18 bd a1 1e ba be
       0.43937117 -0.9868476 -0.037111685 -0.36351493
0000d0 c3 a3 06 3f f2 aa d2 be 71 b2 16 3f 0e 0f 7f 3f
       0.5259363 -0.41146046 0.5886603 0.99632347
0000e0 5a 19 cb 3e 0e 1a ab bf 87 5e 81 bf fe ed 2a 3f
       0.3966778 -1.3367326 -1.0106972 0.667694
0000f0 62 0a ce bf c7 8e be 3f ab 9b d3 be 64 88 24 bf
       -1.6096919 1.4887322 -0.41329703 -0.64270616
000100 6c ff 8a bf a5 61 01 3f 1e b0 19 be 04 94 09 3f
       -1.0859199 0.5053962 -0.1500859 0.5374148
000110 61 7f 84 3e 2e 94 f9 bd ce 6e 0e bf 21 b6 12 3e
       0.25878432 -0.12186466 -0.55637825 0.14327289
000120 7e 6a 2f be 16 25 37 bf 8b 58 de bd d0 74 69 3e
       -0.17130467 -0.71540964 -0.10856732 0.22798467
000130 a1 d6 3b 3e a3 ba b9 bf 86 81 4f bf c3 4f c4 bf
       0.18343593 -1.4510082 -0.8105701 -1.5336841
000140 f7 ae eb bf f6 17 1c 3f f1 07 46 bf d0 f7 bf bf
       -1.841277 0.6097406 -0.7735587 -1.4997501
000150 60 81 e5 bf f1 bc 9a be 02 99 3e 3f cb f9 68 3f
       -1.7930107 -0.30222276 0.7445222 0.91006154
000160 53 17 52 3f 7b a2 73 bf ac 68 8e 3e cd e8 a3 3f
       0.8206684 -0.951698 0.27814233 1.280542
000170 b8 95 3c 3f 5c 87 38 3f 60 6a 91 bf 54 db 69 3f
       0.7366595 0.7208154 -1.1360588 0.91350293
000180 87 06 76 bd fd 0a ef bf 22 ae 5f bf 7b 47 a0 bd
       -0.06006482 -1.8675228 -0.8737508 -0.07826134
000190 c9 fd e2 bf 45 c2 8e 3f 52 1d 83 bf d4 3e 02 bf
       -1.7733699 1.1153036 -1.0243323 -0.5087712
0001a0 42 2e 46 be 25 f1 8f bf 99 4d a6 3f aa f2 e9 3f
       -0.19353583 -1.1245466 1.2992431 1.827718
0001b0 a5 85 a3 3d d1 c2 3a bf 60 7c 82 3f d4 db b7 3f
       0.07984475 -0.72953516 1.0194206 1.4363961
0001c0 5f 92 52 3f 66 85 7a bf a7 e7 90 3f d0 8a 85 3f
       0.82254595 -0.978598 1.1320695 1.0432987
0001d0 da 8d 89 be 6e 43 30 bf 5a 4e 11 3f 77 f5 4b 3f
       -0.26866037 -0.6885289 0.5676018 0.79671425
0001e0 3f 9e ac bf 19 6c 22 be c5 df 2b bf 31 24 63 bf
       -1.3485793 -0.15861548 -0.6713832 -0.887271
0001f0 c2 97 ea bc b4 5e 5b bf d9 b6 9b 3f de 75 34 3f
       -0.028636817 -0.8569138 1.2165176 0.7049235
000200 b6 7f a3 be 95 4a 17 bf f0 8c 0d bf c4 c2 68 3f
       -0.31933373 -0.5909818 -0.5529318 0.9092219
000210 31 cc 17 3f 03 9d 80 3f 85 30 6e 3e c9 0b c4 3e
       0.59295946 1.0047916 0.23260696 0.3829024
000220 5d 12 7a bf 4b 8a 99 bf 13 d4 c5 3e 92 fd 16 3e
       -0.9768427 -1.1995329 0.38638362 0.14745167
000230 b9 19 80 bf b5 b9 9b 3f 12 65 88 bd 46 c2 85 bf
       -1.000785 1.2166048 -0.06659903 -1.0449913
000240 16 bf 0b bf 1c 47 95 3f 57 80 f3 3b 92 89 47 3e
       -0.5458845 1.1662326 0.007431071 0.19486073
000250 95 ac 82 3d 8b 77 5e bf 3d 40 ef 3e b8 3a cd bd
       0.06380574 -0.8690116 0.46728697 -0.10020965
000260 89 b4 0a bf cc 20 72 3f a6 f1 84 bf 38 92 09 3f
       -0.54181725 0.94581294 -1.0386245 0.5373874
000270 ce 22 13 3d 70 20 b8 bf 6f a8 2d bf 30 8d 2c be
       0.035921864 -1.4384899 -0.67835134 -0.16850734
000280 33 ea bd bf 4f 2f c6 3f 1a 12 8c bf e1 0e be bd
       -1.4837097 1.5483187 -1.0943024 -0.09280182
000290 9f 1a a0 bf 5f 2f f0 3d 37 00 2a bf 8e 80 88 3f
       -1.2508124 0.11727785 -0.6640658 1.0664232
0002a0 12 6a 04 3f da 5a 46 3f 62 9c 5b 3f ed 86 eb 3f
       0.5172435 0.7748238 0.85785496 1.8400551
0002b0 d4 59 68 3f ee cc 94 be 2e b5 37 bf ed ca 0a 3f
       0.90762067 -0.290626 -0.71760833 0.5421589
0002c0 b2 2f 93 bf e8 16 c4 bf 64 05 7e bf ed a4 9f be
       -1.149893 -1.531949 -0.99226975 -0.31180516
0002d0 6c 70 e2 bf ec 2d 34 3f 06 4a d8 bf 38 21 2a 3f
       -1.7690558 0.7038257 -1.689759 0.6645694
0002e0 6e ec 4c bf 34 54 e3 be 8e 83 b2 3f 04 b4 ff 3f
       -0.80048263 -0.4440018 1.3946397 1.9976811
0002f0 67 56 a7 3f 74 00 35 bf 35 53 dd 3f d9 5a 87 3f
       1.3073243 -0.70703816 1.7291018 1.05746
000300 ad 07 d8 3f 48 61 1d bf 22 42 9d 3f 14 73 d3 3f
       1.6877342 -0.61476564 1.2285807 1.6519494
000310 b3 a0 ba bf aa e2 33 bf 90 0c 6d 3f 4e b4 9e 3f
       -1.4580292 -0.70267737 0.92597294 1.2398775
000320 c1 7f ee bf 32 c1 b8 3f 0a 4c 90 3d 05 8f b5 bd
       -1.8632737 1.4433959 0.07045753 -0.088651694
000330 05 49 85 bf 0c 64 14 3f c2 3e 2a bf b2 ec ac be
       -1.0412909 0.5796516 -0.6650201 -0.33774334
000340 08 7b fa be 49 e0 9e be 4e ff 82 be d6 21 8b 3f
       -0.4892199 -0.3103049 -0.25585407 1.0869701
000350 c3 52 b3 3e fb 70 37 3f 9d d1 32 be f9 3b 12 bf
       0.3502408 0.7165677 -0.17462774 -0.5712276
000360 a6 36 6a 3f a0 8b de bf 5f ef 82 bf c7 bd 2a 3e
       0.91489637 -1.738636 -1.02293 0.16673957
000370 f0 7b 7e bf 44 4f 25 be 7a bf c7 bf 7e 24 49 be
       -0.99407864 -0.16143519 -1.5605309 -0.19642827
000380 8c cb 35 3f a4 d5 b3 bf c2 c0 f0 3f fb a0 fa 3f
       0.7101371 -1.4049573 1.8808825 1.9580377
000390 73 56 e8 3f 06 7f 07 bf e0 e4 9e 3f 66 be b7 be
       1.8151382 -0.529282 1.2413597 -0.3588745
0003a0 b9 c8 cf 3f ce 2e a6 bf 88 02 d5 3f d1 3f cc 3f
       1.6233131 -1.2983034 1.6641397 1.5956975
0003b0 a6 52 d4 bf de 13 59 bf 6d 63 26 3e 84 17 ac 3f
       -1.6587722 -0.8479594 0.16248865 1.3444676
0003c0 d2 04 d9 bf f9 0a 8b 3f 9f 78 da be 3a f5 59 bf
       -1.6954596 1.0862724 -0.42670152 -0.8513981
0003d0 b8 02 b2 bf f7 d4 68 bc 71 c1 bf be e5 f9 18 3f
       -1.390708 -0.014210931 -0.37452272 0.5975631
0003e0 93 f4 3c be 79 a9 a9 bf 66 00 ce be 4a ef 2d 3f
       -0.18452673 -1.3254844 -0.4023468 0.6794325
0003f0 ce 14 07 be 85 4a b6 bb 12 d2 84 be 2a 71 51 3d
       -0.1319153 -0.0055630826 -0.2594152 0.051133312
