best_para_path/ciao100.10.20.70.250.251.020.00.5_p10_20gatv2_spill_var2_wo_att_explicit_seed0_ex1_0.005_0.0001_0.001_0.01.pt (torch, 448885 bytes, 3 tensors)

user_embedding.weight f4 [2541, 20]
000000 db 85 9d 2b 59 7f 48 22 d0 eb f8 be 38 12 15 ac
       1.1192673e-12 2.7172472e-18 -0.4861741 -2.1184287e-12
000010 8b 63 8e b7 3d 80 b5 be 01 ec 04 b4 6c 67 f7 b4
       -1.6974072e-05 -0.354494 -1.2379316e-07 -4.6082585e-07
000020 fd 11 52 35 eb e1 4c b8 34 13 39 28 40 2e 95 3e
       7.825727e-07 -4.8847793e-05 1.0273727e-14 0.29136848
000030 01 77 10 3f 3a b6 b5 3e e7 7b 9a 3d b7 15 28 35
       0.56431586 0.3549059 0.07543164 6.2616476e-07
000040 81 1a 86 27 25 b1 a8 a6 8c a9 a3 b2 25 1f 68 3f
       3.7221207e-15 -1.1705357e-15 -1.9052798e-08 0.9067252
000050 42 2a 15 2d 18 35 4f 25 75 c4 e6 bc 40 c9 c4 a9
       8.4790525e-12 1.7972377e-16 -0.02816985 -8.73906e-14
000060 61 97 13 37 0f f1 b8 bd 24 9b fc 33 88 cc 61 35
       8.797128e-06 -0.09030353 1.17628844e-07 8.4116664e-07
000070 2e d3 15 b8 71 99 0f 37 1b d5 dd a6 58 b9 d3 be
       -3.5721045e-05 8.55919e-06 -1.5392718e-15 -0.41352344
000080 8c 67 15 bf a9 bf 2a 3f 77 a2 51 3a 3d 88 0d 35
       -0.58361125 0.666987 0.00079969264 5.2724846e-07
000090 bb 5c f8 25 e4 75 69 a8 7f 57 b8 b4 6b 77 ae 3e
       4.308398e-16 -1.2959662e-14 -3.4336333e-07 0.34075484
0000a0 1e 92 ea 2d c3 f3 7c a6 a8 83 36 bd c3 1f 2c 2a
       2.6667609e-11 -8.776042e-16 -0.04455915 1.5287688e-13
0000b0 1f 50 d6 36 f5 0a 31 3d 87 e3 8a 32 60 86 91 34
       6.3870243e-06 0.04322334 1.6168782e-08 2.7106125e-07
0000c0 67 1f aa 37 4d 38 29 38 20 2a 14 28 07 c7 9e 3c
       2.0280202e-05 4.0345174e-05 8.224785e-15 0.019382013
0000d0 68 61 03 bb 43 0a 6e 3f bb c5 29 3a 6b 90 c5 b4
       -0.0020047072 0.9298441 0.00064763025 -3.6799187e-07
0000e0 df 5a 48 27 1b 68 a0 27 9b 06 ec 35 30 59 c5 3e
       2.7804837e-15 4.4521792e-15 1.7585293e-06 0.38544607
0000f0 ce c2 a9 ad f8 3e ea a5 0c b6 a1 3d 67 4f a8 2a
       -1.9299586e-11 -4.0635199e-16 0.07896051 2.989789e-13
000100 11 32 c9 b7 f1 03 17 be 99 5c 09 34 10 df 86 34
       -2.3984381e-05 -0.14747597 1.2792806e-07 2.5121744e-07
000110 47 af 55 38 4e 1c 27 38 4a 04 6b a6 69 23 bd be
       5.0946397e-05 3.9842264e-05 -8.1537816e-16 -0.36941078
000120 16 39 0b bf 6f e6 5b 3e da cf 3e bb f6 0a a4 b4
       -0.5438398 0.21474622 -0.0029115588 -3.0555356e-07
000130 5d cf 22 27 ad be e9 a8 9b 92 2a b5 04 4e 16 3f
       2.2594428e-15 -2.5950889e-14 -6.3543274e-07 0.5871279
000140 d6 c1 02 ad 8d bb be a7 80 b0 94 bc 47 f8 c3 a7
       -7.432685e-12 -5.2938937e-15 -0.018150568 -5.4392555e-15
000150 1e 00 3f 38 ac 96 7a 3e 25 f7 c1 32 0f 74 10 b6
       4.5538058e-05 0.2447154 2.2580545e-08 -2.1525227e-06
000160 ba 26 85 b6 3a a9 2e b9 e4 2d 09 a6 50 26 9f be
       -3.9682172e-06 -0.00016656975 -4.7593617e-16 -0.31083918
000170 81 da b0 3d fa 95 1e 3f 25 0f 18 ba 23 52 0e 36
       0.08635426 0.61947596 -0.00058005966 2.1207459e-06
000180 09 17 33 a6 2e 8f 84 29 19 95 85 b3 e8 f5 94 be
       -6.213432e-16 5.886815e-14 -6.220416e-08 -0.29093862
000190 73 d4 b1 2d 4f 53 da 26 18 48 a5 bd fb 30 1d 2b
       2.0216917e-11 1.514937e-15 -0.080703914 5.584558e-13
0001a0 6c 71 05 b9 a4 e0 85 bb 3a 61 ba 34 99 f6 d3 b4
       -0.00012726121 -0.004085617 3.471594e-07 -3.9481236e-07
0001b0 7e 96 ca 37 de 80 ab 3a ae b2 29 28 7c be 9e be
       2.4150355e-05 0.001308467 9.4201295e-15 -0.31004703
0001c0 1b ea fb be cd 4b 61 3e da a6 63 3c e4 29 3b b5
       -0.49202046 0.22001572 0.013894761 -6.972389e-07
0001d0 53 31 2a 26 cc 65 c8 a8 b6 05 c9 35 b4 f7 6d 3f
       5.9047445e-16 -2.2248608e-14 1.4977329e-06 0.9295609
0001e0 ea e1 9b ac dd b1 e8 25 5e 5c be 3d 2b dc 46 aa
       -4.4304465e-12 4.036611e-16 0.092949614 -1.7662319e-13
0001f0 fd f9 5b b8 77 ee 92 be 08 ef 8b 33 48 cb b5 33
       -5.244649e-05 -0.2869756 6.5161714e-08 8.465446e-08
000200 a3 f3 a8 b5 8f aa 03 ba d9 b2 6b 27 bc b9 a5 3e
       -1.2587883e-06 -0.00050226686 3.2709755e-15 0.32368267
000210 35 69 ec bd e8 7a 35 3f f2 1b 0a 3a e6 a4 b4 35
       -0.11543504 0.70890665 0.00052684464 1.3459037e-06
000220 7e b5 03 a8 e8 f0 e7 a5 db 34 4a b3 ac f8 f5 3d
       -7.311316e-15 -4.0235357e-16 -4.7079862e-08 0.12010321
000230 92 fa 8b ad 31 54 dc 25 8a 37 fb bb 3f 3c 56 2a
       -1.5913746e-11 3.8220967e-16 -0.007666533 1.902792e-13
000240 b9 53 b3 b6 db 61 33 bc 77 57 a5 33 a2 f8 9c 34
       -5.3443623e-06 -0.0109486235 7.699321e-08 2.9238169e-07
000250 13 8b 6a b7 18 8e 64 b4 94 93 18 27 6a ec de bd
       -1.3979868e-05 -2.1285848e-07 2.117424e-15 -0.10884936
000260 91 ab 4f 3e 80 6d 29 3f 07 71 7e 3a 8d a2 b9 b4
       0.20280291 0.6618271 0.00097061734 -3.4577207e-07
000270 a4 50 db 25 88 c1 9b 29 93 e6 59 b5 68 a2 9d 3c
       3.8045088e-16 6.916955e-14 -8.117433e-07 0.01924248
000280 17 a1 12 af 96 b4 f7 a4 43 5b 5a be 81 43 d8 aa
       -1.3335853e-10 -1.074251e-16 -0.21323876 -3.8416148e-13
000290 aa f6 81 b8 87 8a 31 be 00 d9 71 b3 49 d3 d8 b4
       -6.197144e-05 -0.17338 -5.6309545e-08 -4.0386865e-07
0002a0 fb 06 dd 37 97 1f 89 39 fd ea d5 24 c7 5c 8a bf
       2.6348504e-05 0.00026154213 9.277211e-17 -1.0809563
0002b0 80 cc 9c 3e 8a fe 1b be fe a6 6e bc 31 84 ea b2
       0.3062477 -0.15233818 -0.014566181 -2.7301299e-08
0002c0 5a ba d7 a8 77 ff 49 aa c4 47 93 b1 bd c8 0e bf
       -2.3950612e-14 -1.7941018e-13 -4.286422e-09 -0.5577505
0002d0 40 0b 30 b0 fc b5 94 a6 04 89 c5 be 61 f3 7a ab
       -6.4044414e-10 -1.031889e-15 -0.38581097 -8.91556e-13
0002e0 c7 83 a2 3b 01 35 cd be 0d c8 55 b5 b9 e6 1c b6
       0.0049595567 -0.400795 -7.9639796e-07 -2.338011e-06
0002f0 da f0 1f 37 15 af ab 3c cb df 95 a7 df 31 1c bf
       9.533216e-06 0.020957509 -4.1598444e-15 -0.610136
000300 0b fd 70 be fa 41 1c 3f 09 d1 83 3d 23 92 94 b9
       -0.23534028 0.6103817 0.06436355 -0.0002833764
000310 31 c7 2e 29 b5 2e f2 a8 5d a8 87 b5 8a c9 b0 be
       3.8808532e-14 -2.6887653e-14 -1.0107284e-06 -0.34528762
000320 92 ea 80 ae 1d 23 68 27 6d 3a 89 bd e0 60 b9 a9
       -5.862434e-11 3.2215503e-15 -0.06700597 -8.2324555e-14
000330 cb 7e ed 38 74 84 d5 bd c2 94 02 b5 cf 0c ca b4
       0.00011324658 -0.10425654 -4.8645245e-07 -3.7634751e-07
000340 6b 51 09 b7 a4 4a dc 36 78 95 96 26 77 71 b0 bc
       -8.184793e-06 6.5652002e-06 1.0448854e-15 -0.02153848
000350 bf 29 4c be b0 b2 5f 3f af ff 4f ba 54 89 a9 b4
       -0.199378 0.8738203 -0.0007934523 -3.1578622e-07
000360 90 00 09 27 09 87 32 28 31 78 99 34 18 a7 06 3e
       1.9012874e-15 9.910266e-15 2.8585922e-07 0.13149679
000370 65 90 fd 2e a9 21 db 26 96 71 e4 bd 7f 73 0d 2a
       1.15307576e-10 1.5205301e-15 -0.11154477 1.2563386e-13
000380 dc a9 89 b7 0c 16 3e 3e 17 a8 33 34 0f 23 96 35
       -1.641077e-05 0.18563098 1.6731825e-07 1.1186074e-06
000390 90 62 7b b7 43 d0 e0 b9 be 90 8d a7 55 4b 9e bd
       -1.4983714e-05 -0.00042879776 -3.929229e-15 -0.07729212
0003a0 5e 45 31 be 57 0c 29 3f aa 5e 74 3c d7 22 93 b2
       -0.17311618 0.66034454 0.014915148 -1.7128896e-08
0003b0 f2 26 5d 25 67 2b 7e 26 2b de 7e b5 0f b4 da 3e
       1.918189e-16 8.8182774e-16 -9.494567e-07 0.427155
0003c0 f7 20 fe 2c 1d 16 17 27 6e 20 66 bd 34 21 63 aa
       7.222774e-12 2.0967447e-15 -0.05618327 -2.017317e-13
0003d0 89 41 77 37 f1 49 9e 3d bc e1 34 b3 f7 22 d2 31
       1.4737606e-05 0.07728947 -4.211482e-08 6.1157794e-09
0003e0 e5 aa b8 b4 09 12 3d 38 f4 89 d0 a5 f7 fe 57 be
       -3.4397013e-07 4.5077908e-05 -3.617573e-16 -0.21093355
0003f0 e2 76 40 bd 3d 60 4a 3f a2 f9 10 b8 07 ef a7 34
       -0.046988375 0.790531 -3.4564764e-05 3.128009e-07

item_embedding.weight f4 [3019, 20]
000000 9a ba e8 a9 af 75 3e a6 9f 70 80 3c f4 ab fa 28
       -1.033524e-13 -6.6078983e-16 0.015678702 2.7830148e-14
000010 0e 00 bc b6 82 5c f8 bc 19 d1 32 31 97 86 a3 32
       -5.602843e-06 -0.030317549 2.6021267e-09 1.9036902e-08
000020 14 fd 72 b4 9d 2f cb b6 9b 99 81 a7 40 34 6e 3e
       -2.2630076e-07 -6.0554144e-06 -3.597123e-15 0.2326212
000030 41 2e d1 3d 41 b9 3f be bd 68 0d b8 6e e2 c3 33
       0.102139 -0.18723013 -3.3714565e-05 9.1215824e-08
000040 7a 30 ce a5 c3 a3 91 a7 3f 74 d6 af e3 59 90 3d
       -3.5768153e-16 -4.0423135e-15 -3.900897e-10 0.070483945
000050 7f 7f d5 2b ad 68 7a 24 11 9a 4f 3c 9f 1b 9a 29
       1.5169948e-12 5.4298772e-17 0.01267101 6.843765e-14
000060 1d dd 1c b9 8c f2 43 3d 9a 86 67 b3 ef 66 7e b1
       -0.0001495969 0.047838733 -5.3906298e-08 -3.7020376e-09
000070 d5 b4 8b b5 91 9f e1 b8 57 15 69 a7 48 a2 bc 3e
       -1.0408936e-06 -0.000107585576 -3.2346814e-15 0.3684256
000080 8b eb 5d bc 70 55 9e 3e 8a c9 57 b9 ac 87 3b 35
       -0.013544927 0.3092456 -0.00020579077 6.9860357e-07
000090 41 0e c2 a5 b7 b6 51 a7 eb 05 eb b3 9d 39 1a 3e
       -3.3663294e-16 -2.9103626e-15 -1.0944117e-07 0.1506104
0000a0 62 82 84 ab cf f9 8f 25 e0 1d 80 bc 25 f8 88 a9
       -9.415353e-13 2.4975823e-16 -0.015639246 -6.0826595e-14
0000b0 3d de b1 b7 21 68 6f bd 73 38 02 33 d3 61 17 30
       -2.1203532e-05 -0.058448914 3.0319324e-08 5.5072497e-10
0000c0 df c2 8f 35 51 d5 22 b8 00 49 44 a2 71 da 35 3e
       1.0711045e-06 -3.8822476e-05 -2.66016e-18 0.1775911
0000d0 68 2a 57 bd a3 aa 93 be df ec ac b8 26 6a 6c 31
       -0.052530676 -0.28841123 -8.24572e-05 3.4402858e-09
0000e0 2a 38 6d 25 17 cb 5a a8 b2 37 92 33 b8 40 78 3e
       2.0575502e-16 -1.2145469e-14 6.808786e-08 0.24243438
0000f0 35 3e 89 2b 3f f0 77 a7 6f 86 c0 bb 95 82 10 aa
       9.751701e-13 -3.4408374e-15 -0.0058754007 -1.2835074e-13
000100 e1 50 0f 37 94 80 01 bc de db eb 32 e4 c8 0a 33
       8.542295e-06 -0.007904191 2.7457585e-08 3.2313338e-08
000110 c4 a9 8d b7 1b fa b0 b7 76 dd 5c a7 66 8a 95 bd
       -1.6887563e-05 -2.10973e-05 -3.0651187e-15 -0.07301788
000120 73 58 af bc 20 21 63 bb 9f 80 7a 39 f1 55 53 34
       -0.02140448 -0.0034657195 0.00023889773 1.9682172e-07
000130 5e 63 b6 a6 7e dc 42 a6 80 5d b0 b5 4a b1 69 be
       -1.265572e-15 -6.7606094e-16 -1.3140234e-06 -0.22821537
000140 5a 77 9f ab 06 28 25 27 04 fa ac bb 22 15 da a7
       -1.1330756e-12 2.2920047e-15 -0.0052788276 -6.0530067e-15
000150 f7 17 a6 b6 25 e5 d3 bb 91 76 2e b0 7c c4 05 33
       -4.9499754e-06 -0.006466525 -6.3469324e-10 3.1145177e-08
000160 60 d8 32 b6 8b b2 d3 b7 7f b1 8f 26 b8 fa 43 3e
       -2.6650014e-06 -2.52363e-05 9.970729e-16 0.1913861
000170 c2 4f 67 bd 65 16 7c be 88 b8 37 b9 28 ed 69 34
       -0.056472547 -0.24617918 -0.00017520983 2.1786093e-07
000180 2b d2 d4 25 00 a3 87 a6 00 a7 4f 33 3a ec 14 3e
       3.6918553e-16 -9.411688e-16 4.834783e-08 0.14543238
000190 92 93 b2 ad 0a a5 da a4 e5 4b 0c be ba bb 57 2b
       -2.0301791e-11 -9.4822016e-17 -0.13700826 7.6643867e-13
0001a0 db 96 2f 3a fc 9d 4f 3e ff b4 d0 34 92 68 9d 32
       0.00066981994 0.2027511 3.887471e-07 1.8324759e-08
0001b0 bd 49 bd 36 82 ad 0a 3b 9f 4f 0d a7 6c e5 b4 3e
       5.641223e-06 0.0021160548 -1.9610843e-15 0.35331285
0001c0 e5 1e 2b 3e 2e 61 02 3f d7 5f 53 3c 1d 58 b6 b7
       0.16711004 0.50929534 0.012901268 -2.1737122e-05
0001d0 e9 ec 2b 27 8b 81 fe 28 e5 7e 1e 34 bc 66 1e 3f
       2.3859446e-15 2.8255845e-14 1.476106e-07 0.6187551
0001e0 8b 5e e1 2a ba 08 41 25 0f be 93 ba 4f a9 c3 29
       4.003363e-13 1.6743038e-16 -0.0011271852 8.68911e-14
0001f0 9b 11 26 36 55 7b 43 bd e0 c5 92 b2 31 04 b2 b3
       2.4746175e-06 -0.04772504 -1.708662e-08 -8.289533e-08
000200 05 21 2a 37 5b 5d ac b5 1f 97 82 a7 a5 e8 83 be
       1.0140478e-05 -1.2842169e-06 -3.6246094e-15 -0.2576343
000210 40 69 1f be 1e 5c 11 3f 77 aa 9d b9 00 f5 b8 33
       -0.15567493 0.56781185 -0.0003007238 8.612733e-08
000220 5e c8 3a 27 a3 b2 29 a9 28 7d 16 34 f8 1a ff 3d
       2.5921305e-15 -3.768048e-14 1.401537e-07 0.12456316
000230 e7 ca 39 ab ac 11 f8 25 09 bd a9 bb 6e 71 48 a8
       -6.6006787e-13 4.3033117e-16 -0.0051800054 -1.1126826e-14
000240 13 83 ba 35 6b 8f 0b bc ea 6b 5e b2 86 b4 42 b2
       1.3896228e-06 -0.00851808 -1.29466375e-08 -1.13333325e-08
000250 6e f4 88 b6 a6 d5 af 36 80 98 2f 27 b0 c9 4a 3e
       -4.081571e-06 5.2402784e-06 2.43688e-15 0.198035
000260 e1 de ab bc b2 a7 a2 bd 80 93 f5 b8 08 6d cc b2
       -0.0209803 -0.079421416 -0.000117099844 -2.3798307e-08
000270 fe 73 03 a7 8f 5b cc a3 45 87 e0 b3 22 12 8c 3d
       -1.8242782e-15 -2.2156501e-17 -1.0455418e-07 0.06839396
000280 47 6a 15 ad 9d a3 17 26 09 6d a2 bc 7a 41 7f 2a
       -8.493268e-12 5.2610386e-16 -0.019827383 2.2671266e-13
000290 52 7d 06 b9 6a 05 00 3e 01 e6 b8 b2 14 be ba b4
       -0.00012825921 0.12502065 -2.1525013e-08 -3.47835e-07
0002a0 7c c4 3b 38 cc e8 ca b9 8b 43 c2 26 12 c9 9a ba
       4.4767265e-05 -0.0003870189 1.3479762e-15 -0.0011809191
0002b0 e3 85 06 be c1 38 af be 56 af 56 b9 1c 32 54 36
       -0.13137011 -0.34222987 -0.00020473948 3.161963e-06
0002c0 5d bb e3 26 ad ae 5a a6 34 42 ad 36 fc 2d b5 bd
       1.5802074e-15 -7.5870673e-16 5.163509e-06 -0.088466614
0002d0 95 17 9b ad 7c c0 0d 26 4a 44 30 bb 13 f5 90 27
       -1.7631932e-11 4.9180067e-16 -0.0026896172 4.023374e-15
0002e0 33 7b 87 36 a8 9b 1d bd 1b f0 22 b3 10 dd f1 b3
       4.037656e-06 -0.038478523 -3.793694e-08 -1.1262648e-07
0002f0 a0 f3 2b b4 3b fd 64 36 1f b3 36 a7 1c a6 07 3e
       -1.6014246e-07 3.4122047e-06 -2.5354676e-15 0.1324696
000300 39 66 bb bd 79 d0 ad 3e 19 d5 19 36 59 17 44 b2
       -0.09150357 0.33948115 2.2922816e-06 -1.141401e-08
000310 f0 1c 10 27 bd d9 0d a6 01 17 e9 b1 f1 5d 2a 3d
       1.9999701e-15 -4.921429e-16 -6.7838077e-09 0.041593496
000320 2f f5 0b ad d1 80 df 24 f8 38 5d bc fb 72 39 a8
       -7.955677e-12 9.692906e-17 -0.013502352 -1.0294495e-14
000330 fb db 10 37 7d ab 29 3d a4 31 77 b3 6d 9e 72 b3
       8.634287e-06 0.04142331 -5.7554317e-08 -5.6489103e-08
000340 b3 0d e5 b4 36 72 2d b5 ae 66 d4 26 30 85 38 3e
       -4.266454e-07 -6.461372e-07 1.4738286e-15 0.18019557
000350 3e a9 29 3d 50 a0 fb bd 66 c3 9b 38 72 cc 08 34
       0.041421168 -0.122864366 7.427372e-05 1.2740364e-07
000360 15 e3 ed 26 3e 25 ca a7 6e 3b e4 b3 e5 58 2b 3e
       1.6506729e-15 -5.610664e-15 -1.06278875e-07 0.1673313
000370 c3 b2 01 2d 4f b2 b2 a6 ac c7 29 bc 67 b6 a1 29
       7.372494e-12 -1.2399562e-15 -0.010362547 7.181478e-14
000380 81 85 33 b9 da 5a c0 3b 73 a2 95 b3 df 9d 8e b3
       -0.00017120504 0.0058702054 -6.9679025e-08 -6.641107e-08
000390 13 1c 31 b5 4d 00 2b b8 88 c3 1d a6 27 fa e9 3d
       -6.597849e-07 -4.0769857e-05 -5.473531e-16 0.11424666
0003a0 9e 81 fd bc 47 78 2c be 3a 9d 04 39 44 93 8c b3
       -0.030945595 -0.16842757 0.00012647072 -6.5460455e-08
0003b0 4a ce 80 21 76 aa 2d 28 d8 c7 0b b3 bb 0f 26 be
       8.728222e-19 9.640392e-15 -3.2545216e-08 -0.16216938
0003c0 30 d6 ad ac d3 4c ca 24 99 4c a3 bc 91 9d 8a 29
       -4.9407353e-12 8.773368e-17 -0.019933986 6.1557645e-14
0003d0 d6 8d a1 b8 cd 6c 93 3c d2 24 37 34 30 04 db 33
       -7.703497e-05 0.017996216 1.7056598e-07 1.0198744e-07
0003e0 a6 6f a7 b6 bc 31 13 ba 64 d3 7a 26 8b 10 4b 3d
       -4.9899854e-06 -0.0005615016 8.702266e-16 0.049576323
0003f0 82 76 2d 3e e4 e2 ed be b2 39 2f b8 3d c4 80 36
       0.16939738 -0.46462166 -4.1776984e-05 3.8375424e-06

linear_trans_neigh.weight f4 [20, 20]
000000 9a 1e 96 ba 4a 41 15 a9 4c 88 f5 3d 4b 53 20 36
       -0.0011453212 -3.3141275e-14 0.11988887 2.389034e-06
000010 9e e7 d4 3b ff b2 60 3e a6 a0 4a 3a 13 4d 30 3c
       0.0064973375 0.21943282 0.0007729627 0.010760563
000020 9b 6e ba 3b 58 c9 91 3c 05 56 9e bb 2e 50 b8 3e
       0.0056894547 0.017796203 -0.0048320317 0.35998672
000030 98 9b 01 3e b9 d7 cd 3e 9c 4d c0 bc 87 c0 0c bc
       0.1265701 0.40203646 -0.023474507 -0.008590824
000040 9e 10 d6 3d 3a b3 eb 26 6a 6b ab b5 36 21 a8 3e
       0.10452388 1.635498e-15 -1.2771754e-06 0.32837838
000050 d2 70 48 3b 30 f1 6a a6 98 ec 11 3e 7d 48 43 bd
       0.0030584824 -8.151193e-16 0.1425041 -0.047676552
000060 eb 6b 18 bc 8c 8f 5f 3e 3e ea b5 bc 4d 94 98 3b
       -0.009303073 0.21832103 -0.022206422 0.0046563507
000070 a9 10 8f 3b 49 23 23 3d b2 12 b1 2e 7d e5 a4 3e
       0.0043659997 0.039828572 8.052349e-11 0.32206336
000080 8c 19 7b 3e 9c 23 cb 3e 22 07 3b bd 25 ad 01 bb
       0.24521464 0.39675605 -0.0456611 -0.001978704
000090 fe 6a d3 bd c4 63 c5 bc 69 14 c9 ae 27 e0 81 3e
       -0.103231415 -0.024095424 -9.144047e-11 0.25366327
0000a0 5d ef 07 3a d0 39 83 27 a9 0a 11 3e 27 17 97 31
       0.0005185509 3.6422484e-15 0.14164223 4.3973105e-09
0000b0 e2 8c 0c 3c 84 c0 cb 3d 64 27 32 bc d1 94 3a 3b
       0.008578511 0.09948829 -0.010873649 0.002847005
0000c0 90 46 4f bc bc 83 09 3c 14 9a 0e 25 3a d0 9a 3e
       -0.012651101 0.008393224 1.236874e-16 0.3023699
0000d0 16 4f 83 3e 7d f0 ca 3e 38 82 ed bc f4 8b 80 bc
       0.25646275 0.39636603 -0.028992757 -0.015691735
0000e0 8f 5f 24 3c 93 c5 22 3e c0 fd 3b b7 af c4 c6 3e
       0.010032549 0.15895681 -1.1205149e-05 0.38821933
0000f0 96 55 7f 39 a1 e8 09 39 14 4a d3 bd 99 7f 85 3a
       0.00024350578 0.00013151999 -0.10316864 0.0010185122
000100 a8 8c 8d bc 44 9c 62 3e 3a 25 b1 3b 8e 9b 03 bb
       -0.017278984 0.22129923 0.005406049 -0.0020081731
000110 17 ed 53 3b cc 2b 8d 3c ab 3b f4 a8 a8 5a ba 3e
       0.0032337361 0.017232798 -2.7115319e-14 0.3639729
000120 df 5c 78 3e 36 19 b9 3e 4c 7b 1c bd f4 cf 0a bb
       0.24254178 0.36152047 -0.038203523 -0.0021181079
000130 ac be f7 b7 38 5c 3b 3c a2 66 40 bc 65 48 ae 3e
       -2.9533483e-05 0.011435561 -0.01174322 0.34039608
000140 13 a8 20 3e 60 ac 20 bb da d4 09 bd 44 92 c9 32
       0.15689115 -0.0024516806 -0.033650257 2.3465994e-08
000150 3b 37 47 3c b0 43 61 3e 74 9f 3d 3a 84 3d 0a 3b
       0.012159164 0.21998477 0.0007233538 0.0021093795
000160 9e 39 a2 3b 99 df aa 3c cb 0d 91 36 64 bf 54 3e
       0.004950716 0.020858573 4.3229425e-06 0.20776135
000170 53 c1 ec bd 43 cb 6c 3e ca e1 18 bd 67 04 0b bb
       -0.11560311 0.23124413 -0.037324704 -0.002121234
000180 42 2d 78 a8 06 cc 35 b6 87 cb a6 bd 1f b3 ae 3d
       -1.3776579e-14 -2.708986e-06 -0.081442885 0.085302584
000190 8e 58 2f 39 d7 e0 c4 38 06 10 ea 3d 87 a8 41 b1
       0.0001672229 9.387888e-05 0.114288375 -2.8180993e-09
0001a0 41 bb b4 3d 00 cb 43 3e f2 c5 4e 3a b8 82 09 bc
       0.08824778 0.19120407 0.00078877725 -0.008392982
0001b0 fe 64 c5 3b 3f 26 86 3c f2 b1 7d ba d5 c3 ae 3e
       0.006024002 0.016375659 -0.00096777 0.34133783
0001c0 7b 60 7c 3e 70 af ca 3e 55 89 f2 bc 8e 8e 86 bc
       0.2464618 0.39586973 -0.0296065 -0.016425397
0001d0 45 82 8f b8 64 c9 63 bd 75 bf 81 b0 15 8e c6 3e
       -6.843036e-05 -0.055611983 -9.440401e-10 0.38780275
0001e0 5c 2b 18 3b d8 bc c2 3c 61 7c fb 3d a0 a2 54 36
       0.0023219204 0.023771688 0.12279583 3.1685122e-06
0001f0 93 82 10 3c c5 8c 5f 3e 8b c3 4b 3a eb fa 20 bb
       0.008820194 0.21831043 0.00077729736 -0.0024563621
000200 54 da e1 3b 44 f1 1a 3d 5b 72 8a a9 66 38 c2 3e
       0.006892482 0.037827745 -6.1482686e-14 0.37933654
000210 1d d5 82 3e 2f 4f ae 3e 65 38 a9 bc a2 4b ba ba
       0.25553218 0.34044787 -0.020656774 -0.0014213214
000220 d5 9f fb 39 97 c4 b6 28 d3 51 44 b7 d7 27 83 3e
       0.00047993535 2.0291316e-14 -1.1701562e-05 0.25616333
000230 d5 55 ad b9 f9 bf d5 b9 e8 3e d3 3d 7b 00 fd b0
       -0.0003306108 -0.00040769557 0.10314733 -1.8408309e-09
000240 ce f8 aa 3d fe 00 58 3e fa 42 3f 3a 66 91 11 3b
       0.08348237 0.21094128 0.0007296052 0.0022211908
000250 a4 75 01 be fb f8 94 3c 66 18 06 38 ad 0a c1 3e
       -0.12642533 0.01818513 3.1970812e-05 0.37703457
000260 05 bc 72 3e d0 35 cd 3e 8d ba be 3d 68 10 30 bb
       0.23704536 0.40080118 0.093129255 -0.0026865248
000270 11 03 53 a4 5c 44 68 b8 0e 70 18 ba eb 74 be 3e
       -4.575593e-17 -5.5376775e-05 -0.00058150373 0.37198576
000280 ac d9 70 39 ab 7b cb b6 4e cb 06 3e 9d b9 41 be
       0.00022969273 -6.0642683e-06 0.13163492 -0.18918462
000290 5b d7 09 3c 8e ed 62 3e 78 f9 d2 bc 0d 68 0b 3b
       0.008413161 0.22160932 -0.025753722 0.0021271736
0002a0 d0 2e 5f 3b 15 a9 15 bd 1b 88 bd ae fa f2 7c 3e
       0.0034055002 -0.036538202 -8.618902e-11 0.24702063
0002b0 3e cd 72 3e 7a a6 ae 3e ff 8a bf bc 9b 19 39 bb
       0.23711106 0.34111387 -0.023381708 -0.0028244022
0002c0 1d 9b 99 30 31 1d ca a6 ff 35 81 b7 90 f4 a2 3e
       1.1176301e-09 -1.4024478e-15 -1.5403142e-05 0.3182721
0002d0 97 ff 8f 3c 7a c6 54 ba 59 7e 13 3e 3d 6e fc b0
       0.01757793 -0.00081167335 0.14403667 -1.8366745e-09
0002e0 12 ea 06 3b d5 05 5f 3e ef 82 42 3c d3 8b 8a bc
       0.0020586294 0.21779568 0.011872037 -0.016912377
0002f0 e3 d5 be 3b 52 bc 9a 3c 6e 31 80 3c 81 13 aa 3e
       0.005823837 0.018888626 0.01564857 0.33218005
000300 97 ba 72 3e bc 0a cc 3e d3 d6 87 bc 87 4e c2 3c
       0.23703991 0.3985194 -0.016581928 0.023719085
000310 ea 42 06 be d5 9e 43 ae e1 32 00 3d c6 fc c6 3e
       -0.13111463 -4.4478938e-11 0.031298522 0.38864726
000320 34 5f 34 bd 87 01 81 a7 d0 a4 01 3e 5e 3e 92 b9
       -0.044036105 -3.580635e-15 0.12660527 -0.00027893757
000330 88 df 07 3c f5 5d 61 3e 29 a3 3f 3a ea c5 b3 bd
       0.00829304 0.22008498 0.00073103845 -0.087779835
000340 b8 2e 89 3b 46 37 88 3c 08 ef cf bd 45 8f a6 3e
       0.0041864775 0.016627919 -0.101530135 0.3253118
000350 c2 e3 64 3e 4f 70 c1 3e f9 03 db bc 94 a0 c3 ba
       0.22352508 0.37780997 -0.026735293 -0.0014925175
000360 f0 89 3d bb 36 dd 2f 3a 48 a4 cf 3b 26 e8 c5 3e
       -0.0028921328 0.0006708683 0.0063367225 0.38653678
000370 ed e9 ae 39 d2 56 04 ba 07 8d 13 3e 08 19 08 3b
       0.00033362154 -0.00050483376 0.14409266 0.0020766873
000380 2a 93 4b be 71 1e 60 3e 8e 4f 1b 3c 75 5d 0b 3b
       -0.19880357 0.21886612 0.0094794165 0.0021265422
000390 c7 96 68 3b 41 d7 c3 3b e2 71 8e 3d e7 a0 c3 3e
       0.003549026 0.005976588 0.06955315 0.38208696
0003a0 a3 2a 7d 3e ef 0c cc 3e 5f 8a 2d bd b1 3b 7d 37
       0.24723296 0.39853618 -0.04236829 1.5093873e-05
0003b0 8f 5b 3f bd 21 87 30 b8 33 20 99 3c cd 35 9d 3e
       -0.046718176 -4.208752e-05 0.018692112 0.3070511
0003c0 27 41 72 39 67 13 05 3c 71 0a f6 3d 17 db fe 3d
       0.0002310319 0.008122302 0.1201371 0.12444132
0003d0 0e 4b a5 3b a7 9a 59 3e 5d eb 62 3a 84 e3 a7 3b
       0.0050443476 0.21250401 0.00086562877 0.0051235575
0003e0 e1 31 ad 3b 08 a1 ff ba d6 cb c6 26 98 1e a6 3e
       0.005285487 -0.0019502947 1.379426e-15 0.32445216
0003f0 53 48 55 3e b4 d2 89 3e 2a 34 68 bd 53 11 68 3d
       0.20828371 0.26918566 -0.056690373 0.056657147
