best_para_path/ciao100.10.20.70.250.251.050.00.5_p10_20gatv2_spill_var2_explicit_seed0_ex1_0.05_0.0001_0.005_0.01_0.005_1e-05.pt (torch, 449545 bytes, 4 tensors)

user_embedding.weight f4 [2541, 20]
-8.250269e-05 0.00013299966 3.6072666e-05 -4.729713e-05 0.00051062676 9.58129e-05 9.115325e-05 2.9455796e-05
-1.3564092 -0.03335031 0.0002476717 -6.368582e-05 -1.3314939e-05 0.00029053006 7.675517e-05 0.15938774
-0.021005495 -0.43281412 2.1303456e-05 -3.108191e-05 -7.498158e-05 -1.4006842e-05 3.1293273e-06 -1.5265923e-05
-0.00023096504 1.2551784e-05 -2.8273576e-05 2.6691454e-05 -0.7439652 -0.7532106 3.4692377e-05 5.3466074e-06
1.2841252e-05 -1.1380852e-05 -6.6398e-05 0.016680576 -0.479074 -0.04651962 -4.9883765e-06 1.7075838e-05
1.124448e-05 -5.146164e-07 -0.0004217984 -0.001433592 -0.0010941882 0.00052788475 -0.0001399837 7.769285e-05
-0.6799762 -0.5603021 0.00064185425 -0.000418163 -0.0008501452 0.00062489125 0.00024047389 -0.0038754642
0.29473087 0.012796467 -0.0008447907 0.0028739464 3.280165e-07 6.260732e-05 0.0007434571 0.0002548707
-0.0007232944 -0.00014151285 -0.00034904236 0.0005600072 -0.43359634 -0.25863653 -0.00017335155 0.002657519
0.0021202574 0.00052923226 0.0004136595 -0.04381617 -0.19714685 0.123095125 -0.00030303627 0.0005905104
1.9606543e-05 -1.0037434e-05 -2.3854047e-05 4.600085e-05 -1.6459877e-05 1.5444795e-06 1.2252965e-05 5.9591024e-05
0.23086232 -0.5930679 3.616628e-05 2.006951e-06 1.6412938e-05 -6.0879825e-05 -4.1259686e-06 -0.015627079
0.05366582 0.041283026 2.643186e-05 -3.2565092e-06 9.037068e-05 9.7506665e-05 9.86541e-05 4.7691556e-05
-0.0005013301 2.4263025e-05 4.3971477e-06 2.659364e-05 -0.8220832 -0.28147027 2.5747484e-05 -6.398452e-05
2.857165e-05 0.000100665 -9.648153e-06 -0.023950828 -0.5367031 0.06639656 -0.00012260844 -7.4966933e-06
1.7651864e-05 0.00011738438 0.00028365487 -8.9881854e-05 -0.00011764967 -7.1184186e-05 -4.2632695e-07 -6.5057095e-05
-0.63193303 -0.1308183 -5.2109193e-05 -6.396029e-05 -4.529318e-05 5.1639585e-05 3.113572e-05 -0.06757811
0.22106218 0.17689127 2.0345688e-05 0.00014602664 -1.8527786e-05 -3.261771e-05 -7.224879e-05 1.0585593e-05
0.00029022864 4.2003932e-05 -5.067079e-05 5.765305e-05 -0.17253277 -0.6848713 3.8586542e-05 5.9448494e-06
4.6377534e-07 4.974458e-06 -9.380318e-06 -0.006624313 0.35035732 0.015541943 2.2082395e-05 1.1004734e-05
5.2246623e-06 2.2899037e-06 2.5036536e-05 -1.9218283e-05 -0.00023826072 -1.6205697e-05 1.1600708e-06 -1.0503222e-05
0.95426965 -1.0035616 -4.737437e-06 -1.7162809e-05 -1.8058818e-05 -2.4635046e-06 7.244484e-07 0.073535584
-0.6735798 -0.19405808 -9.9736535e-06 -1.2405493e-05 6.5924555e-06 -4.5708864e-05 -4.2125957e-05 -4.2914802e-05
0.0010954894 9.368895e-05 -1.2987193e-06 6.222576e-05 0.22702754 -1.3067421 5.2978936e-05 1.504339e-05
-2.9846598e-05 -2.0774802e-05 -1.2626415e-05 -0.037999276 0.076244794 0.10106139 2.4181389e-05 2.8549355e-05
3.566769e-05 -8.469011e-05 0.00026378216 1.0815482e-05 -0.0010657652 -0.00015385055 2.359504e-05 2.576516e-05
-0.56310725 -0.97283894 -4.3462504e-05 -0.00011448263 -1.192366e-05 6.1316714e-05 -3.6913457e-06 0.045593392
0.28853562 -0.11863032 -7.040726e-06 -3.0651823e-05 -3.319554e-07 -1.2035476e-06 1.9001243e-05 -1.3041292e-05
0.00038581784 -3.806663e-05 1.9018053e-06 1.491532e-05 -0.75383776 -0.8611643 6.4465945e-05 5.260282e-06
-2.0151863e-05 -3.498945e-05 1.6414917e-05 0.041574672 -0.16348472 -0.11274091 9.726557e-06 1.6019843e-05
-2.6695534e-06 -1.9467743e-05 -8.240379e-05 1.906711e-06 -9.1055794e-05 -7.833574e-06 6.547705e-06 6.77766e-05
-0.33760816 -0.82295614 -2.6982239e-06 1.9551479e-05 2.0908647e-06 -1.6865904e-05 -7.636462e-08 -0.0066969977
00000000: 4b05 adb8 d375 0b39 bb4c 1738 e860 46b8
00000010: 95db 053a 29ef c838 8729 bf38 d717 f737
00000020: d19e adbf 569a 08bd efd9 8139 108f 85b8
00000030: 3a63 5fb7 4952 9839 9ef7 a038 8a36 233e
00000040: b713 acbc d099 ddbe d3b4 b237 f25d 02b8
00000050: 6e3f 9db8 eefe 6ab7 6f01 5236 520f 80b7
00000060: 352f 72b9 8095 5237 0b2d edb7 76e7 df37
00000070: 8174 3ebf 69d2 40bf a882 1138 0267 b336
00000080: c270 5737 63f0 3eb7 283f 8bb8 b4a5 883c
00000090: 3049 f5be 5b8b 3ebd d461 a7b6 153e 8f37
000000a0: ada6 3c37 2b24 0ab5 d324 ddb9 5ee7 bbba
000000b0: dd6a 8fba bf61 0a3a 97c8 12b9 08ef a238
000000c0: ec12 2ebf f56f 0fbf 1c42 283a e33c dbb9
000000d0: 47dc 5eba becf 233a b827 7c39 80fb 7dbb
000000e0: f7e6 963e 46a8 513c f274 5dba d258 3c3b
000000f0: 3f1a b034 0d4c 8338 90e4 423a 2ba0 8539
00000100: 779b 3dba 1163 14b9 acff b6b9 72cd 123a
00000110: 5700 debe 026c 84be b4c5 35b9 c529 2e3b
00000120: 04f4 0a3b 2dbc 0a3a 70e0 d839 9678 33bd
00000130: dde0 49be 4c19 fc3d d7e0 9eb9 7bcc 1a3a
00000140: bb78 a437 7366 28b7 2d1a c8b7 09f1 4038
00000150: 5113 8ab7 e94b cf35 1592 4d37 60f1 7938
00000160: 2c67 6c3e 4cd3 17bf 3fb1 1738 28af 0636
00000170: 84ae 8937 3759 7fb8 cd71 8ab6 5c04 80bc
00000180: b1d0 5b3d 6418 293d fdb9 dd37 678a 5ab6
00000190: 6485 bd38 7e7c cc38 84e4 ce38 6b08 4838
000001a0: b26b 03ba 7388 cb37 368b 9336 6815 df37
000001b0: 0b74 52bf df1c 90be 4dfc d737 6d2f 86b8
000001c0: 27ad ef37 1c1c d338 80de 21b7 8734 c4bc
000001d0: 6065 09bf ebfa 873d 7490 00b9 1b8c fbb6
000001e0: 1713 9437 422c f638 83b7 9439 f47e bcb8
000001f0: b0ba f6b8 b848 95b8 eee1 e4b4 436f 88b8
00000200: 5dc6 21bf 3cf5 05be d28f 5ab8 6b22 86b8
00000210: 2ff9 3db8 9597 5838 ba97 0238 6466 8abd
00000220: 205e 623e fc22 353e 08ac aa37 ba1e 1939
00000230: 1e6c 9bb7 00cf 08b8 4684 97b8 c798 3137
00000240: d429 9839 612d 3038 5987 54b8 7ed0 7138
00000250: 6eac 30be ba53 2fbf fcd7 2138 de79 c736
00000260: ccfc f834 45ea a636 2960 1db7 c410 d9bb
00000270: 0962 b33e a2a3 7e3c 953d b937 f9a0 3837
00000280: 824f af36 3fac 1936 8d05 d237 f336 a1b7
00000290: a0d5 79b9 78f1 87b7 bbb3 9b35 ff36 30b7
000002a0: 044b 743f b574 80bf 46f6 9eb6 daf8 8fb7
000002b0: 047d 97b7 b052 25b6 b777 4235 d399 963d
000002c0: ba6f 2cbf 29b7 46be 8454 27b7 3021 50b7
000002d0: c334 dd36 85b7 3fb8 67b0 30b8 6bff 33b8
000002e0: 8696 8f3a df7a c438 a84f aeb5 337f 8238
000002f0: e879 683e 5343 a7bf b335 5e38 de62 7c37
00000300: 155f fab7 8c45 aeb7 0ad6 53b7 21a5 1bbd
00000310: 3b26 9c3d 46f9 ce3d 23d9 ca37 467d ef37
00000320: e499 1538 a89b b1b8 3e4c 8a39 2474 3537
00000330: 25b1 8bba f152 21b9 f6ed c537 4322 d837
00000340: cc27 10bf f90b 79bf 824b 36b8 6516 f0b8
00000350: bb0b 48b7 2997 8038 d6b8 77b6 23c0 3a3d
00000360: f1ba 933e 74f4 f2bd 603f ecb6 2590 00b8
00000370: 9a37 b2b4 9589 a1b5 dc64 9f37 eccb 5ab7
00000380: 9847 ca39 bca9 1fb8 8841 ff35 d03c 7a37
00000390: 83fb 40bf 4375 5cbf e431 8738 7a81 b036
000003a0: cc0b a9b7 a3c1 12b8 c4b2 8937 344a 2a3d
000003b0: 8a68 27be b5e4 e6bd 3f2f 2337 5a62 8637
000003c0: 9426 33b6 a94e a3b7 33d0 acb8 17ea ff35
000003d0: 35f5 beb8 f26c 03b7 5cb4 db36 4923 8e38
000003e0: fada acbe 41ad 52bf 2213 35b6 7b02 a437
000003f0: c850 0c36 417b 8db7 e5fd a3b3 7d72 dbbb

item_embedding.weight f4 [3019, 20]
0.00022660694 4.6327594e-05 -1.3328644e-06 0.00017659106 -0.00052891334 5.2473162e-05 -3.1254163e-05 -0.00011125541
-0.12131531 0.41668525 -5.5903893e-05 2.1382231e-05 3.771197e-05 0.00025490817 -6.7087774e-07 -0.0016206952
0.11593635 0.0040769307 -3.6618048e-06 -0.00013914017 6.70159e-05 -0.0012510198 0.00016297234 0.00074081594
0.00070630776 -0.00061439263 6.865195e-05 8.345171e-06 -0.44395688 0.1846826 -0.0017862689 -9.248097e-05
0.0004180575 -4.7011e-05 -0.00039996987 -0.015783267 0.26252735 0.04445429 0.00064590474 -0.00020294549
-2.6189134e-06 0.00015921018 -0.00023644631 -1.44298365e-05 -0.00030037708 -6.221957e-05 -2.4478827e-06 -8.2765955e-06
-0.15837103 0.5210047 -2.8832386e-05 6.4971487e-06 -5.2601517e-06 7.704967e-05 -1.957995e-06 -0.0047797384
-0.05677117 0.013249503 -2.168388e-05 2.5050633e-05 -0.0013708576 -0.0013316185 -0.0037654235 2.2905526e-05
0.0012031064 0.0007198625 -0.00046903628 -1.1964135e-05 0.10086664 -0.005266824 -0.0006761167 0.0012613495
0.0001871487 -0.00025399492 0.00030886455 -0.0016960978 0.092028886 0.0053329202 -0.0003197225 0.00025964683
-0.00015597144 -0.00054389593 -2.7058712e-05 8.315648e-05 0.001872116 7.123934e-05 -0.0030231832 0.00030751413
-0.23855834 0.40223712 4.8452603e-05 0.0001538334 -4.5353874e-05 6.995342e-05 -0.00012662083 -0.012354216
0.035426833 0.03430111 -0.0019642639 -0.00016242088 3.615893e-05 -8.9935405e-05 -1.19551605e-05 -6.117594e-05
-0.00034744808 -5.384388e-05 -3.587529e-05 1.4834355e-05 -0.8955399 -0.27912354 -1.1035904e-05 5.0769254e-06
-3.1727315e-05 7.127184e-06 3.270938e-05 0.022327153 0.33999944 -0.06254694 2.7230655e-05 -4.033328e-05
-7.411645e-05 3.0676692e-05 -2.7070848e-05 1.821593e-05 0.00013554755 1.0771816e-05 3.5352365e-05 1.5320162e-05
-0.23251566 -0.66376764 1.9307308e-05 -4.150225e-05 -7.4492834e-07 -7.3502247e-06 1.3236643e-06 0.002907557
-0.2608122 -0.00823861 -3.0482363e-06 -4.4288965e-05 0.00087754097 5.379341e-05 0.00031844174 -0.0005660772
0.0001261665 0.00041318717 -0.0007689957 -0.0026191047 -0.14914554 0.098793335 -0.0014102152 -0.00031536928
-0.0032092407 0.00043008712 -0.0018444717 -0.0020209318 0.08116203 0.0046399073 0.00014661053 0.00081590493
-0.00010779906 -0.00046822353 0.0004817314 -0.00061840605 -0.0013042624 -0.00024917495 -0.00056327163 -0.00023132123
0.26591027 0.3432443 0.0010930762 -0.000112683025 -0.0017314078 -8.3868064e-05 -0.0027393633 -0.034110934
0.019299975 0.094935186 0.00074408064 0.0010038314 2.6980635e-05 -0.00013119544 0.00021500012 -0.00024158653
-0.0001285853 -4.9707694e-05 0.00066718686 2.262016e-06 -0.2687831 -0.13132565 8.16822e-05 -0.0009182383
-0.0010821669 1.3838187e-06 -0.0010228824 -0.0032133255 0.3695656 0.012826459 0.0010417392 -0.00053550815
-4.8447277e-05 -0.00034975272 0.00041702957 3.856066e-05 -0.00012738709 -2.138399e-05 0.00028407222 0.000612122
-0.15435691 0.23416686 -0.00016628853 -0.0010431857 -0.0004551898 -0.00020963619 0.0005196758 -0.005166485
-0.06953674 0.012026359 4.7547004e-05 -0.000110283305 0.00050050963 7.922723e-05 0.0026004731 0.00051010284
-0.0013904617 -0.0014962789 0.0007590489 -0.0005088842 0.09115276 0.15105507 -0.00062000466 -0.00060132693
0.0008673311 -0.0002015016 -0.00067704736 -0.017353754 0.24331726 0.04792494 0.00066258124 -0.0002887581
-6.2516738e-06 9.741223e-06 -0.00047923013 -7.304191e-07 0.00015852056 5.3845806e-06 -2.4665735e-06 3.5950181e-06
0.1130261 0.5495615 -1.5324351e-06 -1.4920706e-06 -1.0683905e-06 -2.6726284e-06 1.1411729e-06 0.007545802
00000000: 569d 6d39 e04f 4238 dfe4 b2b5 4d2b 3939
00000010: c6a6 0aba a116 5c38 e716 03b8 cb51 e9b8
00000020: 2974 f8bd c557 d53e 597a 6ab8 fe5d b337
00000030: eb2c 1e38 32a5 8539 5e16 34b5 826d d4ba
00000040: 0970 ed3d c697 853b 54bd 75b6 28e6 11b9
00000050: e38a 8c38 42f9 a3ba 8ee3 2a39 5133 423a
00000060: 8327 393a 310f 21ba 3cf9 8f38 3d02 0c37
00000070: 514e e3be 6f1d 3d3e 3d21 eaba 58f2 c1b8
00000080: ba2e db39 ad2d 45b8 0cb3 d1b9 e94b 81bc
00000090: fc69 863e b415 363d ef51 293a c4cd 54b9
000000a0: 97c0 2fb6 a8f1 2639 93ee 77b9 ad17 72b7
000000b0: ee7b 9db9 e17b 82b8 4e46 24b6 b5db 0ab7
000000c0: 042c 22be 9060 053f 14dd f1b7 1502 da36
000000d0: 5c80 b0b6 ba95 a138 1966 03b6 5a9f 9cbb
000000e0: e388 68bd 7214 593c c7e5 b5b7 d323 d237
000000f0: 59ae b3ba b489 aeba 53c5 76bb 3e25 c037
00000100: 8db1 9d3a 28b5 3c3a fce8 f5b9 92b9 48b7
00000110: 2b93 ce3d 5295 acbb 6c3d 31ba de53 a53a
00000120: 593d 4439 9f2a 85b9 19ef a139 994f deba
00000130: a479 bc3d c7bf ae3b 6da0 a7b9 3521 8839
00000140: 448c 23b9 3d94 0eba 24fc e2b7 4c64 ae38
00000150: ca61 f53a 5466 9538 9920 46bb d939 a139
00000160: a348 74be 06f2 cd3e 9639 4b38 574e 2139
00000170: 5a3a 3eb8 f5b3 9238 85c5 04b9 5669 4abc
00000180: ba1b 113d 527f 0c3d e1ba 00bb 864f 2ab9
00000190: 5ba9 1738 b49b bcb8 0693 48b7 954b 80b8
000001a0: b129 b6b9 6dd6 61b8 cd78 16b8 12e1 7837
000001b0: 1a42 65bf 48e9 8ebe d926 39b7 755a aa36
000001c0: f212 05b8 0b26 ef36 6e31 0938 6fe7 b63c
000001d0: 6814 ae3e 9c18 80bd 636d e437 882b 29b8
000001e0: f76e 9bb8 d9aa 0038 3416 e3b7 69ce 9837
000001f0: c521 0e39 99b8 3437 5047 1438 cc83 8037
00000200: 9618 6ebe adec 29bf 21f6 a137 b412 2eb8
00000210: 16f7 47b5 f3a1 f6b6 c2a8 b135 b68c 3e3b
00000220: 2d89 85be 3cfb 06bc 4d90 4cb6 eac2 39b8
00000230: c70a 663a 3ca0 6138 87f4 a639 cc64 14ba
00000240: 904b 0439 0ba1 d839 6e96 49ba 49a5 2bbb
00000250: 9cb9 18be 2954 ca3d f8d6 b8ba 2658 a5b9
00000260: 2052 52bb 517d e139 33c2 f1ba 9c71 04bb
00000270: 4738 a63d 5d0a 983b 77bb 1939 74e2 553a
00000280: 2e12 e2b8 e67b f5b9 e590 fc39 871c 22ba
00000290: c9f3 aaba b2a3 82b9 85a8 13ba d28e 72b9
000002a0: 6425 883e b8bd af3e 8d45 8f3a 3d50 ecb8
000002b0: 68f0 e2ba 53e2 afb8 e486 33bb e8b7 0bbd
000002c0: fb1a 9e3c 616d c23d 680e 433a fe92 833a
000002d0: 7954 e237 8291 09b9 a871 6139 6452 7db9
000002e0: dbd4 06b9 3b7d 50b8 27e6 2e3a 24cd 1736
000002f0: f09d 89be 3b7a 06be cc4c ab38 eeb5 70ba
00000300: 7fd7 8dba a6bb b935 3d12 86ba a896 52bb
00000310: b437 bd3e 1126 523c f88a 883a 5861 0cba
00000320: de33 4bb8 045f b7b9 c3a4 da39 32bc 2138
00000330: 3693 05b9 c561 b3b7 87ef 9439 d076 203a
00000340: bd0f 1ebe 70c9 6f3e bd5d 2eb9 81bb 88ba
00000350: 8aa6 eeb9 c9d1 5bb9 da3a 083a 9e4b a9bb
00000360: 4769 8ebd 350a 453c 356d 4738 e647 e7b8
00000370: a234 033a cc26 a638 b36c 2a3b 6cb8 053a
00000380: 2740 b6ba ca1e c4ba e9fa 463a a466 05ba
00000390: 4cae ba3d 2eae 1a3e cf87 22ba 5ea2 1dba
000003a0: 9b5d 633a 2d4a 53b9 e17b 31ba 7629 8ebc
000003b0: 2928 793e f14c 443d 13b1 2d3a 7564 97b9
000003c0: 78c5 d1b6 3c6e 2337 2e41 fbb9 0512 44b5
000003d0: 8a38 2639 32ad b436 6987 25b6 f141 7136
000003e0: 3a7a e73d 10b0 0c3f 12ae cdb5 2843 c8b5
000003f0: 9e65 8fb5 685b 33b6 672a 9935 c642 f73b

linear_att_out.weight f4 [1, 40]
1.537219e-06 4.8961274e-06 -1.3122005e-05 -1.4959626e-05 1.0504984e-05 1.1947884e-08 2.6059859e-06 1.1193479e-05
-0.038335163 -0.30403224 4.107564e-06 3.7249172e-06 -2.2239417e-06 1.1793806e-05 7.4287063e-06 0.15730362
-0.2601182 -0.41260126 -1.697766e-05 -6.4071123e-06 -2.7675935e-07 5.7888205e-06 1.4821495e-07 1.95222e-07
9.1928644e-07 2.615143e-08 -9.584597e-08 -3.5057897e-07 -0.003822775 -0.07418601 2.0631454e-07 2.9679524e-05
1.1252342e-06 -2.3569758e-07 4.03936e-07 0.0016569467 -0.060061015 -0.0042958646 -6.918724e-07 1.0776923e-06
00000000: 7152 ce35 6a49 a436 9526 5cb7 1bfb 7ab7
00000010: 903e 3037 5943 4d32 7fe2 2e36 a0cb 3b37
00000020: 5505 1dbd 1daa 9bbe b5d3 8936 97f9 7936
00000030: 073f 15b6 03de 4537 1a44 f936 3314 213e
00000040: 362e 85be 7940 d3be 3f6b 8eb7 adfc d6b6
00000050: 8495 94b4 973d c236 0425 1f34 379e 5134
00000060: e2c4 7635 9aa3 e032 e1d3 cdb3 3537 bcb4
00000070: 8687 7abb d6ee 97bd 4f87 5d34 4bf8 f837
00000080: c106 9735 0f14 7db4 8bdc d834 e82d d93a
00000090: 8a02 76bd 53c4 8cbb 1cb9 39b5 3aa5 9035

linear_trans_neigh.weight f4 [20, 20]
0.04747731 0.061968893 -0.016512113 -0.01885946 0.0047428748 0.100254364 0.17222549 0.042714607
7.482322 5.833344 0.017094169 0.051888887 0.2572288 0.04147518 0.0038350853 1.1129649
5.6137056 1.3346591 0.0037207587 0.076260544 0.02136558 0.021997169 0.033626873 0.06126146
0.00864228 0.12974796 0.058376845 0.04898162 7.02395 6.03604 0.017447857 0.0656334
0.26151982 0.05533152 0.021590697 1.2434468 5.448185 1.1892769 -0.009613765 0.15199447
0.06667116 0.073753044 0.019182874 0.012257094 0.0039609103 0.038719647 0.20246957 0.032960758
7.4745736 6.1127367 0.019432342 0.12756701 -0.02581226 0.030801993 0.044221967 1.2295333
5.729148 1.3867744 0.04939438 0.12099706 0.039592326 0.05829041 0.013527079 0.04246505
0.005384589 0.04769961 0.14218186 -0.048057877 7.082839 5.986799 -0.004166003 0.1115863
0.20175657 -0.002339694 0.017034944 0.97355616 5.723473 1.1900063 -0.013563062 0.11956679
0.029271685 0.08072156 0.046664298 0.024725288 0.010550872 0.036210716 0.091240324 0.03301045
6.9109306 5.8953443 0.03692953 0.03915702 0.14460053 0.018241392 0.061277512 1.0817047
5.7388487 1.35578 0.032324843 0.28221765 -0.032446835 0.06800102 0.07032288 0.06921572
-0.00087507645 0.06762065 0.062230118 0.0152839385 6.983364 6.3339543 0.02157019 -0.01525286
0.24297415 0.03596247 -0.031628594 1.071797 5.3492823 1.2629243 0.0014106346 0.17285794
0.011371296 0.10269743 0.06020525 0.05727655 0.0069019697 0.03798965 0.10646232 0.061304174
6.491229 5.9091606 0.03592711 0.10966356 0.23264605 0.009632271 0.07580924 1.2654123
5.608073 1.3559442 0.0139342295 0.23444588 -0.011065112 0.058721174 0.06625939 0.022501169
0.0052945977 0.11902845 0.16194114 0.0977127 6.9362364 5.8843255 0.011907007 0.16351831
0.15345004 0.006654837 0.025678705 1.0742227 5.3211102 1.1111089 -0.025084663 0.3130111
0.05631316 0.0883934 0.05011344 0.072129704 -0.0020134677 -0.035272304 0.1883581 0.058473535
7.097396 5.7186685 -0.008206338 0.07385077 0.25772253 0.03032063 0.03892281 1.1592091
5.2540116 1.3346705 -0.013941762 0.1690334 0.041891154 0.07490603 0.05943454 0.024146346
0.005551278 0.04298493 0.079493165 0.026998427 6.8788733 6.1328545 0.012875912 0.15148252
0.1191567 0.005416424 -0.015188827 1.1800646 5.2175994 1.5364031 0.025712328 0.14297289
0.082015775 0.070572145 0.011395961 0.10286397 0.0063283164 0.07520704 0.11985466 0.016835751
6.9638453 5.585178 0.03250671 0.029073128 0.059512157 0.037310433 0.042639274 1.2050245
5.489366 0.90253276 0.013343751 0.20189613 0.03389943 0.055530354 0.03473583 0.012092726
-0.0053041787 0.10845566 0.19696642 0.027149357 7.279121 5.788674 0.033747505 0.12665126
0.10386647 -0.022064837 0.01816696 1.3141023 5.6649966 1.0935382 -0.0019529834 0.37012374
0.061865058 0.0601633 0.041439183 0.03510844 0.005490652 0.09505409 0.11493753 0.03188613
7.087179 5.7841077 -0.013067047 0.16291922 0.15582022 0.030333549 0.019793902 1.0101972
00000000: 9177 423d 18d3 7d3d 6944 87bc 277f 9abc
00000010: 1e6a 9b3b 2952 cd3d e15b 303e 83f5 2e3d
00000020: 2f6f ef40 c1aa ba40 1209 8c3c 7189 543d
00000030: 7eb3 833e e1e1 293d 0e56 7b3b a275 8e3f
00000040: 7aa3 b340 1cd6 aa3f f9d7 733b 7d2e 9c3d
00000050: de06 af3c 6833 b43c 55bc 093d 4ced 7a3d
00000060: 5998 0d3c a6dc 043e 8f1c 6f3d f4a0 483d
00000070: 33c4 e040 3d27 c140 cfee 8e3c ce6a 863d
00000080: ede5 853e 4ea3 623d f9de b03c 4429 9f3f
00000090: 8857 ae40 3a3a 983f 0e83 1dbc 70a4 1b3e
000000a0: e48a 883d d60b 973d 6725 9d3c fad1 483c
000000b0: 86ca 813b 7e98 1e3d 2f54 4f3e dc01 073d
000000c0: b52f ef40 8a9b c340 9330 9f3c eda0 023e
000000d0: 3c74 d3bc 7654 fc3c 1822 353d 5961 9d3f
000000e0: 2e55 b740 d381 b13f c351 4a3d 4ecd f73d
000000f0: 902b 223d edc1 6e3d aea0 5d3c d5ef 2d3d
00000100: 3571 b03b ab60 433d 1f98 113e 56d8 44bd
00000110: 9ea6 e240 db93 bf40 f782 88bb 5c87 e43d
00000120: 4699 4e3e 8d55 19bb de8c 8b3c fa3a 793f
00000130: b126 b740 2052 983f 9b37 5ebc 6fdf f43d
00000140: 2ccb ef3c 5851 a53d 1023 3f3d b08c ca3c
00000150: 91dd 2c3c b051 143d 35dc ba3d f735 073d
00000160: 5826 dd40 a9a6 bc40 6b43 173d 1d63 203d
00000170: 2912 143e f96e 953c 21fe 7a3d 4d75 8a3f
00000180: a6a4 b740 338a ad3f 0e67 043d d57e 903e
00000190: f9e6 04bd 1e44 8b3d 7105 903d f9c0 8d3d
000001a0: 6365 65ba b27c 8a3d 02e5 7e3d 7c69 7a3c
000001b0: b877 df40 c1af ca40 f8b3 b03c 22e7 79bc
000001c0: 37ce 783e 624d 133d fc8c 01bd a530 893f
000001d0: 522d ab40 81a7 a13f 0be5 b83a ac01 313e
000001e0: ac4e 3a3c 0853 d23d c899 763d d19a 6a3d
000001f0: eb29 e23b 099b 1b3d eb08 da3d 161a 7b3d
00000200: 26b8 cf40 d817 bd40 4e28 133d 4a97 e03d
00000210: c43a 6e3e acd0 1d3c e041 9b3d 08f9 a13f
00000220: 5675 b340 948f ad3f 654c 643c 9512 703e
00000230: 724a 35bc 9d85 703d 01b3 873d 5f54 b83c
00000240: 4e7e ad3b 30c5 f33d e6d3 253e 991d c83d
00000250: a6f5 dd40 654c bc40 9b15 433c 5871 273e
00000260: 0222 1d3e d210 da3b 265c d23c 2180 893f
00000270: 8946 aa40 d138 8e3f 5a7e cdbc fe42 a03e
00000280: a1a8 663d 9907 b53d c043 4d3d bdb8 933d
00000290: 62f4 03bb b179 10bd f2e0 403e f281 6f3d
000002a0: de1d e340 55ff b640 e073 06bc 133f 973d
000002b0: 35f4 833e f862 f83c 866d 1f3d f760 943f
000002c0: dd20 a840 7cd6 aa3f fd6b 64bc 1717 2d3e
000002d0: 0f96 2b3d 5568 993d a271 733d 8fce c53c
000002e0: 7fe7 b53b f710 303d 50cd a23d ce2b dd3c
000002f0: bb1f dc40 5840 c440 7df5 523c 3c1e 1b3e
00000300: 6e08 f43d 427c b13b 8fda 78bc 5b0c 973f
00000310: 93f6 a640 dba8 c43f a9a2 d23c 7c67 123e
00000320: e3f7 a73d 2188 903d 20b6 3a3c 58aa d23d
00000330: c45d cf3b 2606 9a3d 5c76 f53d 21eb 893c
00000340: d2d7 de40 c7b9 b240 c225 053d c52a ee3c
00000350: 05c3 733d d3d2 183d 85a6 2e3d 3e3e 9a3f
00000360: e3a8 af40 630c 673f c09f 5a3c dcbd 4e3e
00000370: 21da 0a3d cc73 633d 2847 0e3d 9220 463c
00000380: adce adbb 001e de3d 91b1 493e 5468 de3c
00000390: 8fee e840 d13c b940 d33a 0a3d deb0 013e
000003a0: f2b7 d43d 51c1 b4bc e0d2 943c 8134 a83f
000003b0: a747 b540 0ff9 8b3f 40fb ffba dc80 bd3e
000003c0: 3766 7d3d cb6d 763d 22bc 293d decd 0f3d
000003d0: edea b33b b8ab c23d 5e64 eb3d 089b 023d
000003e0: 2cca e240 6917 b940 2b17 56bc 4cd4 263e
000003f0: 568f 1f3e 107e f83c d226 a23c 244e 813f
