best_para_path/ciao100.10.20.70.250.251.010.00.5_p10_20gatv2_spill_var2_wo_att_explicit_seed0_ex1_0.001_0.0001_0.1_0.01.pt (torch, 448840 bytes, 3 tensors)

user_embedding.weight f4 [2541, 20]
000000 f7 10 3a bd 12 6c 02 3d bf 64 fa be 7f dd 21 bd
       -0.045426335 0.031841345 -0.48904988 -0.039517876
000010 7e 70 73 bc df 24 be be 39 e8 b2 bc b2 8e d9 bd
       -0.014858363 -0.37137505 -0.021839248 -0.1062292
000020 72 8e f9 be ab 84 42 be f4 15 b5 3d 0e 39 3a 3d
       -0.4874149 -0.18995921 0.08842078 0.045464568
000030 f8 16 c6 3e 7f 82 af 37 82 3d bb 3e aa fe 6c 3d
       0.386894 2.0922393e-05 0.36570364 0.057860054
000040 67 a0 91 bd 74 ec de 3d dc 0f 9d 3e c9 a3 cf 3e
       -0.071106724 0.108849436 0.30676162 0.40554646
000050 02 7e 27 be 61 14 19 3e 5c 4f cf be 88 81 5a be
       -0.16356662 0.1494918 -0.40490234 -0.21338475
000060 a8 5e 22 3e 79 8a c9 be 98 ae 12 be 4d 3e 09 be
       0.15856421 -0.3936346 -0.14324415 -0.13402672
000070 52 96 a0 be d9 d0 aa 3e 1b ad 26 3e 5b b9 04 be
       -0.31364685 0.33362463 0.16276972 -0.12961332
000080 fb 3d cd be a7 56 ff 38 a6 49 f1 3e 3f 80 02 be
       -0.4008635 0.00012175488 0.47126502 -0.12744235
000090 7e e9 92 3d 64 f3 14 be 3b 34 96 3e 23 b7 a9 3d
       0.07173441 -0.14545971 0.29336724 0.08286884
0000a0 30 a2 fe bd 71 67 11 3e 41 b3 d1 be 89 ff 5b bd
       -0.124332786 0.14199616 -0.40957072 -0.053710494
0000b0 1d 9b 0c 3e 64 be b6 be c4 ca dd bd 20 6d 22 be
       0.13731046 -0.35692132 -0.1082969 -0.1586194
0000c0 4c 3b ef be 3b 60 b3 3e a0 6c 10 3e 61 bc b4 bd
       -0.46724927 0.35034356 0.14103937 -0.08824993
0000d0 28 1f df be b1 71 e1 b5 5e 79 98 3e 50 2c 14 be
       -0.43578458 -1.6796895e-06 0.29780096 -0.14470029
0000e0 c9 e6 ba 3d 3f 0e a0 bd ac 10 02 3d 83 23 99 3d
       0.0912605 -0.07815217 0.03175418 0.074774764
0000f0 ed 1e 38 bd dd 77 03 3d 31 b0 4b 3c 2b fd 9c bd
       -0.044951368 0.032096732 0.012432144 -0.076654755
000100 a7 f1 a8 3d 16 7a c6 be d2 d7 8e bd 7c 61 2b bd
       0.082492165 -0.3876502 -0.06974758 -0.041841015
000110 99 43 ef be 65 fe 3f bd e2 fc 89 3d a1 51 5c bc
       -0.4673126 -0.04687347 0.06737687 -0.013447196
000120 bc 58 70 be ea 1e b1 38 58 c3 24 be 7c 1f 1c bd
       -0.2347135 8.445776e-05 -0.16090143 -0.038115963
000130 c2 0c be 3c bc f1 92 bd df cc 7f 3e 4f e0 c6 3e
       0.023199443 -0.071750134 0.24980496 0.3884301
000140 58 e7 0f be 91 72 d5 3d 48 21 ad be 24 13 cd bd
       -0.14053094 0.104222424 -0.33814454 -0.100134164
000150 d6 65 de 3d 64 af aa 3d b5 02 f2 bd 7e d8 f9 bd
       0.108592674 0.08334234 -0.118169226 -0.12199496
000160 ac 93 f4 3d 33 43 b8 3e 36 38 dc 3d 86 00 e0 bd
       0.11942229 0.3598877 0.10752909 -0.109376
000170 29 c7 80 be e2 c5 8e b8 8a db 56 3e bc 6e cb bd
       -0.25151947 -6.807946e-05 0.20982185 -0.0993323
000180 1f 24 c3 3d cd 65 8d bd 2d 48 8d 3e 28 ed 26 be
       0.09528374 -0.069041826 0.27594128 -0.16301405
000190 7e ab b4 bd 58 48 35 3e f7 b7 45 be 71 91 a5 3d
       -0.08821772 0.17703378 -0.19308458 0.08084381
0001a0 17 31 a4 3d 0f cb 1c 3e 7c 6e 1a bd 5a c9 27 be
       0.08017176 0.15311836 -0.037703022 -0.16385403
0001b0 23 9f fc be 69 38 a5 3e 63 44 1e 3e 51 a6 34 be
       -0.49340162 0.322696 0.15455775 -0.1764157
0001c0 96 61 98 be 1d 13 90 39 9b 7e eb bd 89 7d df bd
       -0.29761952 0.0002748006 -0.114987575 -0.10912616
0001d0 bd eb a1 3d a2 0f dc bd e2 e0 c3 3e 54 bf b5 3e
       0.07906292 -0.10745169 0.3825751 0.35497534
0001e0 db 07 08 be 2c 28 e0 3d 13 57 64 3e dd 10 ea 3d
       -0.13284247 0.10945162 0.22298841 0.11428998
0001f0 0b b8 cc 3b 96 cd be 3e a9 9f fd bd 7e 9c 0d be
       0.0062475256 0.37266225 -0.123839684 -0.13829228
000200 e9 ae e6 be 35 d9 85 3d f7 77 2b 3d 5c 30 92 bd
       -0.4505532 0.065355696 0.041862454 -0.0713813
000210 d5 03 ef be a5 29 fd 36 62 15 59 bd 29 84 00 be
       -0.4668261 7.5448356e-06 -0.052998908 -0.12550415
000220 f7 ec 00 3c a1 cf a9 bd e3 f2 8a 3e c0 7c 98 3e
       0.007868997 -0.08291555 0.27138433 0.29782677
000230 ac ca 27 be 0a 79 2e 3e d2 d2 e6 be 35 bd 1c be
       -0.16385907 0.1703836 -0.45082718 -0.15306552
000240 c1 9e de 3d 00 1d 8e 3d b0 46 1e be 2f 8b 2f be
       0.10870124 0.06939125 -0.15456653 -0.17142938
000250 ad dd 4c 3d 3d ad c1 3e b2 19 1c 3e 95 d9 f1 bd
       0.050016094 0.37827483 0.15244177 -0.118090786
000260 3d 07 13 be c1 68 5d 38 92 08 eb 3d a8 f9 a8 bd
       -0.1435823 5.2788066e-05 0.11476244 -0.08250743
000270 ea 2c 0a 3e 01 69 34 be 2c 6b 6f 3e 72 cf 90 3e
       0.13493696 -0.17618181 0.23380727 0.28283268
000280 7e ce 21 be 2e 57 2a 3e 6a 18 49 be 2f ba cf 3c
       -0.15801427 0.16634819 -0.1963822 0.025357334
000290 8a cd db 3d 76 64 cc 3e 66 9f 46 bd 70 71 30 be
       0.10732563 0.39920396 -0.048491858 -0.17230773
0002a0 34 af c0 3e 53 5f a3 3e 18 3c c7 3d b6 d9 1e be
       0.3763367 0.31908664 0.09728259 -0.15512738
0002b0 7a 70 82 3e a0 29 03 ba fb 24 9d be 61 d8 a7 bd
       0.25476438 -0.0005003456 -0.30692276 -0.08195568
0002c0 ea 90 c1 3d 9c 06 3f bd 3d fb fc 3e 21 1a 9a 3e
       0.09451468 -0.046637163 0.4941043 0.3009806
0002d0 f7 b8 23 be de a6 46 3e 40 cc a6 be 30 7d e6 bd
       -0.15988527 0.19399592 -0.32577705 -0.11254346
0002e0 1c f9 30 3e 14 0a 0d 3e 33 c1 de bd 29 cb 2d be
       0.17282528 0.13773376 -0.108766936 -0.1697203
0002f0 2b 1e a4 3b 44 77 a0 3e 0a 2b 36 3e ed 10 42 be
       0.005008479 0.31340992 0.17789856 -0.18951769
000300 44 34 4f be bf 08 92 39 6e 07 20 3e 3a bd 4a be
       -0.20234782 0.00027853806 0.15627834 -0.19798747
000310 5b 43 33 3e c6 4a 43 be ec 3b fb 3e e0 a6 c3 be
       0.17506163 -0.19071493 0.49069154 -0.38213253
000320 ef 1e 10 be dd f5 06 3e 59 5e 90 be 86 a4 dc bd
       -0.140743 0.13179727 -0.28196982 -0.10773568
000330 eb 9b d4 3d 78 46 18 3e 25 6f fd bd 9a 9a 08 be
       0.103813015 0.14870632 -0.12374715 -0.13340226
000340 53 2e d5 be 4e db 7a 3e c1 00 1e 3e b4 00 a4 bd
       -0.41636905 0.2449772 0.15429975 -0.080079466
000350 f0 c2 f8 be 52 9b c7 38 ba 25 c2 3e af 18 ed bd
       -0.48586226 9.51799e-05 0.37919408 -0.11576974
000360 a9 3e 0b 3e a0 87 01 be ea 3a 94 3d 7b 2d c1 bd
       0.13598122 -0.12649393 0.072377995 -0.09432503
000370 18 2a 2a be d2 a9 f2 3d 8e 41 d1 be 44 45 f1 bd
       -0.1661762 0.11848797 -0.40870327 -0.117807895
000380 b5 82 ce 3d 87 86 45 bc 30 e6 f8 bd d6 15 2e be
       0.10083524 -0.012056 -0.1215328 -0.17000517
000390 77 63 0c be 0e 0e 95 3e 51 76 fa 3d c1 46 00 be
       -0.13709818 0.29112285 0.12229598 -0.1252699
0003a0 55 9f cf be d7 7d 8e b8 70 61 b3 3e 70 9f 14 be
       -0.40551248 -6.794527e-05 0.35035276 -0.14513946
0003b0 c6 19 c3 3d f1 99 a0 bd 1f 15 76 3e b0 d3 64 3e
       0.095264 -0.07841862 0.24031495 0.22346377
0003c0 18 d9 09 be 69 7f d6 3d d4 c3 b3 be a0 82 08 be
       -0.13461721 0.1047352 -0.35110343 -0.1333108
0003d0 93 6d ab 3d c4 bc 5d be 64 d2 12 be d8 a8 0c be
       0.08370509 -0.2165404 -0.1433807 -0.13736284
0003e0 0e 54 94 3d 3d 4e c5 3e 9d 0d 00 3e 53 63 1f be
       0.07242595 0.38536254 0.12505193 -0.15565233
0003f0 b2 bb 87 be fc 92 99 38 e6 2e 82 3e 31 4c eb bd
       -0.26510388 7.3229865e-05 0.25426406 -0.11489142

item_embedding.weight f4 [3019, 20]
000000 1b 4a a0 3d 23 49 6a bd f2 05 38 3e 0d 2d fa 3c
       0.078266345 -0.057198655 0.17971018 0.03053906
000010 71 25 eb bc 44 36 09 be d4 24 89 3d ff 00 a6 3d
       -0.028704377 -0.13399607 0.066964775 0.08105659
000020 95 01 3a bd ba 66 45 be 9c 77 23 bd 4f 19 47 3d
       -0.045411665 -0.19277468 -0.03990899 0.04860812
000030 35 e4 e3 3d 37 c1 39 b6 ba 9e 0a 3d bf 71 21 3d
       0.111275114 -2.7679614e-06 0.03384278 0.039415117
000040 9b 7b 3c bd ae 5d 0c 3d 26 15 48 be ce f4 34 bd
       -0.046016317 0.034269027 -0.19539317 -0.044178776
000050 11 1b 0b 3d f2 9f da bc 87 3f b5 3b 7c 91 f1 3c
       0.03396136 -0.026687596 0.0055312547 0.029488318
000060 e6 0d 0e bd cd b1 2c 3e e5 6b 1f 3d 91 76 13 3d
       -0.034681223 0.168647 0.038921256 0.036001746
000070 ff 5d a7 be cf 2a f9 3c 40 25 37 bc 8f e8 15 3d
       -0.326889 0.03041592 -0.011178315 0.03659874
000080 c2 64 b2 bd dc 40 da 37 c2 8a c2 3d 5e a1 4e 3c
       -0.08710624 2.6017828e-05 0.09499122 0.012611715
000090 1c ee 0e bd 27 21 20 3c bd 77 b7 be 6b 38 3d bd
       -0.034895048 0.009773529 -0.3583354 -0.046196382
0000a0 6b f4 a0 3d f8 1c 65 bd 26 13 35 3e 7a 0d 50 3d
       0.07859119 -0.05593583 0.17683086 0.050794102
0000b0 c0 71 56 bd 3b ed 39 3e e4 20 5a 3d 30 b7 84 3d
       -0.052354574 0.18156902 0.053254023 0.06480253
0000c0 d1 a7 0d be df 0c 2f be ca 8e 62 bd 8b 01 08 3d
       -0.13833548 -0.17094754 -0.055311956 0.033204596
0000d0 42 49 3e 3e ad a9 fa 34 15 ad 25 3b 49 e2 38 3d
       0.18582633 4.6689584e-07 0.0025280167 0.045137677
0000e0 96 6a 37 bd 65 c4 e1 3c 65 2a 9d bd 8f 20 6b 3e
       -0.044779383 0.027559469 -0.07674102 0.22961639
0000f0 be cc 2b 3b 6e d9 aa ba 24 13 87 bc 8f a3 4f 3c
       0.0026214565 -0.001303477 -0.01648862 0.012673273
000100 ab ff ba bb ca f7 ca 3d 82 02 eb 3b 2c bd 08 3b
       -0.0057067475 0.09910543 0.00717193 0.0020864708
000110 f5 01 92 3d 8d 27 c7 bc 93 16 8d bb 7a e9 46 3b
       0.071292795 -0.024310851 -0.0043056696 0.0030351565
000120 e8 e6 c8 bc fb 1f 45 b4 5a ee bd 3c 93 15 36 bb
       -0.024524167 -1.8358689e-07 0.023184944 -0.0027783855
000130 45 76 37 bb ed db c2 3a 95 a8 01 3d 9e 70 11 be
       -0.0027994078 0.0014866568 0.031654913 -0.14203116
000140 2c 23 08 3d 19 5e f3 bc 6c b0 4b 3e fa c0 f6 3c
       0.033236668 -0.029707955 0.19891518 0.030121315
000150 6f 46 f8 bc 8c b9 79 3d c9 7a ea 3c 41 e8 02 3d
       -0.030307023 0.060967967 0.028623002 0.031959776
000160 36 de 63 bd 45 bb 6d be b1 17 25 bd 02 90 b5 3c
       -0.05563184 -0.23215969 -0.040305797 0.022163395
000170 d9 24 9b bc 3d 48 cd 37 a9 1a 58 3d cb 32 f3 3c
       -0.018938469 2.4471543e-05 0.0527598 0.029687306
000180 38 ef d6 bc a5 3e 95 3c 36 e6 69 be 51 21 f9 3d
       -0.026237115 0.018218348 -0.22841725 0.12164558
000190 62 13 ff 3b 14 18 21 3d 03 07 3f be b0 ef a5 bc
       0.007784293 0.039329603 -0.18655019 -0.020255893
0001a0 44 5d 71 3c dc 55 b8 be 16 08 86 bd 3a 09 8a bd
       0.014731709 -0.36003006 -0.06544511 -0.06740041
0001b0 77 9e db be 0a a9 7c be fb 57 13 3c f4 8f c3 bc
       -0.42894337 -0.24673858 0.008993144 -0.023872353
0001c0 7a 3f a0 be 8c 6e a1 39 d8 09 da 3e 60 6e 56 bc
       -0.3129843 0.00030790677 0.42585635 -0.013087839
0001d0 46 99 bd 3c 6e 72 67 bc 20 93 e5 bd fb 01 82 bd
       0.023144376 -0.014126403 -0.112097025 -0.06348034
0001e0 ea fa 04 be 2d ef 08 3e f8 e2 90 be 4f c2 03 be
       -0.12986341 0.13372488 -0.28298163 -0.12867092
0001f0 4c c7 15 3e aa 4c 2e be 2f 0c 18 be dd d3 fe bd
       0.14626807 -0.17021433 -0.14848398 -0.124427535
000200 48 2c 8c be dc 57 76 3e b8 7c 11 3e 73 30 c1 bd
       -0.27377534 0.24056953 0.14207733 -0.09433069
000210 b0 4b a9 be 57 ad ff 37 7e 86 3a 3e 3e 88 f9 bd
       -0.33065557 3.0479086e-05 0.18215367 -0.12184189
000220 64 85 ff 3d 2d 09 f1 bd 30 9f 4e 3e 71 4c 33 bd
       0.12476614 -0.11769328 0.20177913 -0.043774072
000230 2b f8 24 3c a1 78 02 bc 2d ef 51 3d 4b dc 0e 3c
       0.0100689335 -0.0079633305 0.051253486 0.008719514
000240 c8 93 e3 bb 36 db e3 3c bf f1 d8 3b df 1b 12 3c
       -0.006945107 0.027814489 0.0066206153 0.008917778
000250 6c 21 38 bd 3d b3 bf bd bc b5 1a bc 20 2f 1b 3c
       -0.04495375 -0.09360359 -0.009442743 0.009471685
000260 50 d0 45 3d 0f 4d 7c 35 4f 58 b4 3a 73 60 ea 3b
       0.048294365 9.398945e-07 0.0013759228 0.007152611
000270 ca d0 17 bc d4 58 87 3b a5 4d 0f be 1c c4 d8 3d
       -0.009266088 0.004130462 -0.13994463 0.1058428
000280 02 5d ca 3c f6 16 87 bc 64 f2 c0 3d 64 00 1b 3d
       0.024702553 -0.01649044 0.09421232 0.03784217
000290 11 5c 01 bd 7b 68 26 3e 36 d9 00 3d 73 ae 1b 3d
       -0.031581942 0.16250794 0.03145715 0.038008165
0002a0 d1 3b 7a 3e 53 4c ea bd e2 47 d6 bc 39 b9 93 3c
       0.2443688 -0.11440339 -0.026157323 0.018032657
0002b0 53 68 7d 3e bc 52 68 38 42 50 f7 bc d2 6a a8 3c
       0.24746828 5.5390163e-05 -0.030189637 0.020558748
0002c0 29 ff 68 bc 1f 86 82 3c a9 c3 56 bd 3d 97 60 bd
       -0.014220991 0.015933095 -0.05243269 -0.054831732
0002d0 97 0c 12 3c b8 e2 09 3c 28 54 f2 bd d0 c3 76 3d
       0.008914134 0.00841587 -0.11832458 0.060245335
0002e0 e8 c4 ab bc 4d 55 41 3e d6 55 f8 3c 2a c5 2e bb
       -0.020967916 0.18880196 0.030314367 -0.0026667812
0002f0 80 d0 37 be d2 d8 ef 3d 0a 7a 48 bb 70 58 03 3d
       -0.1795063 0.11711277 -0.003059032 0.032066762
000300 c0 42 21 be cd c3 d8 35 7d 83 23 3d 82 cb 50 bc
       -0.1574812 1.615024e-06 0.03992032 -0.012743833
000310 e4 a5 de bb b1 05 93 3c 0a bd 70 be b3 a7 0f bd
       -0.006794678 0.01794705 -0.23509613 -0.03507204
000320 6a e3 00 3c 2c 81 dd bb 48 46 23 3d 09 64 0f 3c
       0.00786672 -0.0067597833 0.039861947 0.008751878
000330 bd fb e9 bb 00 1d 31 bd da 65 39 3c 3b 0b 22 3c
       -0.0071406052 -0.043240547 0.011315787 0.009890373
000340 4e 83 03 be 42 9d 0f be 02 71 15 bc 42 77 10 3c
       -0.12843058 -0.14024833 -0.009121181 0.008817496
000350 d5 d3 30 3d 7f 26 1c 35 07 90 7b bc 81 4f 4c 3b
       0.04317077 5.817055e-07 -0.015354163 0.0031175318
000360 da 47 96 bb 91 1c 01 3c de ff 54 be 46 bf 16 3d
       -0.004586202 0.007880346 -0.2080073 0.036803506
000370 34 fd 13 3c 8c a3 34 bc d2 da ac 3d 01 90 ae 3c
       0.009032536 -0.011025321 0.08440174 0.0213089
000380 93 42 7b bc 41 90 05 3e 70 65 77 3c de 35 76 3c
       -0.015335697 0.1304331 0.015099868 0.015027491
000390 9a d6 09 3e cd ef 90 bd 20 a9 5d bc 88 0a 64 3c
       0.1346077 -0.07076988 -0.013529092 0.0139185265
0003a0 fb 14 a7 3d e3 24 07 b7 51 76 0b bd bf 20 d9 3a
       0.081582986 -8.055215e-06 -0.034048382 0.0016565545
0003b0 71 62 56 bc 76 83 88 3c da 95 10 be 77 d7 aa bd
       -0.013084994 0.016664248 -0.14119664 -0.08341878
0003c0 da 63 b9 3d aa 95 8e bd 45 ad 59 3e 91 ae 19 3d
       0.09052248 -0.0696214 0.21257503 0.037519995
0003d0 3d be 9b bd f4 ae ab 3d 08 86 b9 3d 2c 83 c5 3d
       -0.076046444 0.08382979 0.090587676 0.0964416
0003e0 73 fc 57 3e 8a 46 7f be 75 57 74 bd ec e4 5a 3d
       0.21092395 -0.24929252 -0.059653718 0.053440973
0003f0 8b 67 93 3e 0a f8 d8 36 d9 32 3f bd c6 b0 95 3d
       0.28789935 6.466177e-06 -0.04667935 0.073091075

linear_trans_neigh.weight f4 [20, 20]
000000 28 a0 e2 3c 45 1a b4 3c ec c7 5a 3e 4d 1a fc 3c
       0.02766426 0.021985183 0.21365327 0.03077426
000010 6a d0 c1 3c 9d 66 6a 3e 69 52 d7 3c d0 be e2 3c
       0.02365895 0.22890706 0.026284413 0.027678877
000020 02 25 93 3e 88 14 7d 3e 5c fa cc 3c d2 28 b3 3c
       0.28739172 0.24714863 0.025021724 0.02187005
000030 b2 4b 88 3e 55 fd 44 b3 d0 fb 29 3e 81 43 bd 3c
       0.2662025 -4.586521e-08 0.16599965 0.023103477
000040 6f b7 9e 3c 8d 2a be 3c 5f 8c a5 3e 38 28 7c 3e
       0.019374577 0.02321365 0.32333657 0.24624717
000050 fd 9b e2 3c 05 cd b5 3c ae ac 5a 3e 8d 63 fc 3c
       0.027662272 0.022192487 0.21354935 0.030809188
000060 f1 e4 c0 3c f1 a4 6a 3e 63 02 d5 3c 58 ad e2 3c
       0.023546668 0.22914483 0.026002115 0.027670547
000070 0a 36 93 3e cc 3d 7d 3e 77 bd cc 3c ad e2 b5 3c
       0.28752166 0.24730605 0.024992688 0.022202814
000080 1f 4d 88 3e 40 c6 49 b3 2f ab 29 3e c4 df bc 3c
       0.2662134 -4.6979267e-08 0.16569208 0.023055919
000090 c1 b6 9e 3c 9b 0d bd 3c 90 94 a5 3e 55 c4 7b 3e
       0.019374253 0.023077777 0.32339907 0.24586613
0000a0 9b 6d e2 3c 4e ef b6 3c 7e bf 5a 3e ff f0 fb 3c
       0.027640155 0.022330906 0.21362111 0.030754564
0000b0 a5 cf c1 3c 5b df 6a 3e 3e 15 d5 3c 68 5f e2 3c
       0.023658583 0.22936766 0.026011106 0.027633384
0000c0 54 e0 92 3e 7e 13 7d 3e d7 dd cc 3c d1 4c b2 3c
       0.28686774 0.24714467 0.025008125 0.021765145
0000d0 58 4b 88 3e 58 36 48 b3 9c f0 29 3e 6c 44 bd 3c
       0.26619983 -4.6615554e-08 0.16595691 0.023103915
0000e0 54 55 9e 3c 60 b1 bd 3c 20 87 a5 3e 47 b9 7b 3e
       0.019327797 0.023155868 0.32329655 0.24582396
0000f0 3d b8 e2 3c 2a 0f b5 3c 6e e6 5a 3e ba 1d fc 3c
       0.027675742 0.022101957 0.21376964 0.030775893
000100 47 e9 c0 3c 95 ac 6a 3e b0 16 d5 3c 11 b7 e2 3c
       0.023548735 0.22917397 0.026011795 0.027675183
000110 f4 ea 92 3e 91 26 7d 3e 93 2a cc 3c 11 ff b3 3c
       0.2869488 0.24721743 0.024922645 0.021972211
000120 f2 3f 88 3e 9a 2b 59 b3 d6 fd 29 3e 29 8f be 3c
       0.26611286 -5.0563905e-08 0.16600737 0.023261623
000130 35 31 9e 3c 1e c8 bc 3c f1 73 a5 3e ac 15 7c 3e
       0.019310573 0.023044642 0.3231502 0.24617642
000140 57 31 e3 3c 4b 2a b5 3c 50 e3 5a 3e 10 72 fe 3c
       0.027733488 0.022114893 0.21375775 0.031060249
000150 60 00 c1 3c 8a 5d 6a 3e 9f 0e d5 3c 60 8b e2 3c
       0.02355975 0.22887245 0.026007948 0.02765435
000160 52 42 93 3e 3c 2a 7d 3e 76 df cc 3c e4 a7 b3 3c
       0.28761536 0.24723142 0.025008898 0.021930642
000170 ce 45 88 3e ef 1e 42 b3 93 f5 29 3e a4 79 be 3c
       0.26615757 -4.519728e-08 0.16597585 0.023251362
000180 cf 37 9f 3c 88 9a bc 3c 05 67 a5 3e f6 b3 7b 3e
       0.019435791 0.023022905 0.3230516 0.24580368
000190 6f a5 e4 3c 72 fd b4 3c 23 bc 5a 3e c0 44 fc 3c
       0.027910916 0.022093508 0.21360831 0.030794501
0001a0 52 60 c1 3c cf ad 6a 3e 7b 82 d8 3c da 86 e2 3c
       0.0236055 0.22917865 0.026429405 0.027652193
0001b0 6a dc 92 3e 0f 32 7d 3e 6a fb cc 3c 39 4f b4 3c
       0.28683788 0.24726127 0.025022227 0.022010433
0001c0 a8 36 88 3e 4a 77 50 b3 8d f7 29 3e ca 45 bd 3c
       0.266042 -4.8537267e-08 0.1659834 0.023104567
0001d0 4e 18 9e 3c 84 2c bd 3c 6e 9d a5 3e a4 b7 7b 3e
       0.019298699 0.023092516 0.32346672 0.24581772
0001e0 ed 99 e2 3c ee 4c b5 3c ac 95 5a 3e bd 0f fc 3c
       0.027661288 0.02213141 0.21346158 0.030769223
0001f0 f1 1f c3 3c 36 da 6a 3e 70 52 d7 3c f1 cd e2 3c
       0.023818942 0.22934803 0.026284426 0.027686091
000200 a0 db 92 3e 89 3c 7d 3e cc d3 cb 3c ef 60 b3 3c
       0.28683186 0.24730124 0.024881266 0.021896807
000210 09 36 88 3e 3f ee 34 b3 93 fd 29 3e 7a d8 bc 3c
       0.26603726 -4.21262e-08 0.16600637 0.023052443
000220 6a 3c 9e 3c 65 32 c1 3c bb 6c a5 3e d4 c1 7b 3e
       0.019315917 0.0235836 0.32309517 0.24585658
000230 1c d9 e2 3c b0 44 b5 3c 03 d3 5a 3e 66 85 fd 3c
       0.027691416 0.02212748 0.21369557 0.030947398
000240 fa 5e c1 3c 04 dc 6a 3e a9 db d5 3c b3 91 e2 3c
       0.023604859 0.22935492 0.026105719 0.027657365
000250 34 d5 92 3e 7f 15 7d 3e c4 9c cc 3c 40 8b b3 3c
       0.28678286 0.24715231 0.024977095 0.021916986
000260 ad 44 88 3e a3 19 42 b3 ba fe 29 3e a7 01 bd 3c
       0.26614895 -4.519246e-08 0.16601077 0.023072077
000270 10 2d a0 3c ed b9 bc 3c 23 6f a5 3e a8 f7 7b 3e
       0.019552737 0.023037875 0.32311353 0.24606192
000280 0c 19 e3 3c 61 1b b5 3c 3d a2 5a 3e 1e 00 fd 3c
       0.027721904 0.022107782 0.21350951 0.030883845
000290 56 ef c0 3c 54 c3 6a 3e c9 0f d5 3c 04 60 e5 3c
       0.023551624 0.22926074 0.026008504 0.027999885
0002a0 89 f8 92 3e 4f 36 7d 3e 54 b9 cc 3c 60 d0 b3 3c
       0.28705242 0.24727748 0.024990715 0.021949947
0002b0 56 45 88 3e e9 ea 35 b3 c1 f2 29 3e ad 01 bd 3c
       0.266154 -4.2355996e-08 0.1659651 0.023072088
0002c0 4a 3f 9e 3c 8f a1 c2 3c 84 83 a5 3e 3c f0 7b 3e
       0.019317288 0.023758678 0.323269 0.24603361
0002d0 c9 af e2 3c ed 45 b5 3c 54 c6 5a 3e 7e 87 fd 3c
       0.027671712 0.02212807 0.21364719 0.030948397
0002e0 e3 cb c0 3c 4f 8e 6a 3e 05 1a d5 3c 0e b1 e2 3c
       0.02353472 0.22905849 0.026013384 0.027672317
0002f0 de 42 93 3e d9 d7 7c 3e e1 13 cd 3c 51 cf b3 3c
       0.28761953 0.24691714 0.025033893 0.021949442
000300 30 44 88 3e 88 e1 44 b3 6b f7 29 3e 0b 16 bd 3c
       0.26614523 -4.5839926e-08 0.16598289 0.0230818
000310 69 c3 9e 3c 6c 80 bc 3c d6 70 a5 3e 27 c4 7b 3e
       0.019380288 0.023010455 0.3231265 0.24586545
000320 20 b3 e2 3c cc 02 b7 3c ca 83 5a 3e 6d 2d fc 3c
       0.027673304 0.0223402 0.21339336 0.03078338
000330 63 fa c5 3c 62 fc 6a 3e 35 ea d4 3c 16 f1 e2 3c
       0.024167245 0.22947839 0.025990585 0.02770285
000340 ec da 92 3e ad 26 7d 3e a2 7e cd 3c 60 a9 b1 3c
       0.2868265 0.24721785 0.025084797 0.02168721
000350 d2 2c 88 3e 9f ca 52 b3 cf fc 29 3e 03 da bc 3c
       0.26596695 -4.9078718e-08 0.16600345 0.023053175
000360 0a 51 9e 3c 90 e0 bc 3c 4f 72 a5 3e 16 cd 7b 3e
       0.019325752 0.023056298 0.32313773 0.24589953
000370 6a b2 e2 3c 5c 48 b5 3c a5 c8 5a 3e d6 1b fc 3c
       0.027672965 0.02212923 0.21365602 0.030774992
000380 83 6c c1 3c 76 78 6a 3e 1b 1d d5 3c 0c 5b e6 3c
       0.023611313 0.22897515 0.026014855 0.028119586
000390 19 e0 92 3e 6b 1c 7d 3e e3 73 cd 3c 33 a6 b3 3c
       0.28686598 0.24717872 0.025079673 0.021929836
0003a0 17 39 88 3e f2 6c 44 b3 72 12 2a 3e 11 bc bc 3c
       0.26606056 -4.573389e-08 0.16608599 0.023038896
0003b0 ce 8a 9e 3c 2a c5 bc 3c b3 75 a5 3e d9 04 7c 3e
       0.019353297 0.023043234 0.3231636 0.24611224
0003c0 4c 51 e2 3c 73 4a b5 3c c0 c9 5a 3e ee d7 fc 3c
       0.027626656 0.022130227 0.21366024 0.030864682
0003d0 14 e3 c0 3c a0 6c 6a 3e 54 4e d7 3c 06 a4 e2 3c
       0.02354578 0.22893 0.026282467 0.027666103
0003e0 40 12 93 3e 61 29 7d 3e c2 51 cc 3c 85 0e b2 3c
       0.2872486 0.24722816 0.024941329 0.02173544
0003f0 8b 63 88 3e e7 32 47 b3 53 ff 29 3e d5 42 bd 3c
       0.26638445 -4.6379593e-08 0.16601305 0.023103157
