best_para_path/ciao100.10.20.70.250.251.050.00.5_p10_20gatv2_spill_var2_wo_att_explicit_seed0_ex1_0.1_0.0001_0.005_0.01.pt (torch, 448840 bytes, 3 tensors)

user_embedding.weight f4 [2541, 20]
5.2205864e-06 4.9533643e-05 0.20181431 -5.0834788e-05 -1.5814729e-05 -6.818585e-05 7.917563e-05 4.636488e-05
0.00013781137 0.088971294 -8.738314e-06 0.257832 -0.00023778036 1.0345562 0.13555965 0.00022358834
-6.040431e-05 -1.3373405e-05 -2.910017e-05 -0.02083328 -2.8640778e-05 5.3051294e-06 0.15262695 3.464495e-05
0.00014576987 2.4817802e-05 -0.00011407197 7.5160446e-05 0.00018635023 0.03264268 1.913402e-05 -0.5050066
0.0006676563 0.7292926 -0.046172947 -4.595776e-05 1.1926032e-05 2.1741935e-05 -5.0986295e-05 -2.6831078e-05
3.6283116e-05 1.075664e-05 -0.33466136 -1.051984e-05 4.051139e-06 -2.577785e-05 4.3633783e-05 -1.004249e-05
5.7576857e-05 0.07875 6.738538e-05 -0.3264626 -3.8420323e-05 0.7914073 -0.014835692 0.0003710652
-3.435177e-05 1.4031098e-05 -1.1090975e-05 0.00039729264 9.828853e-06 2.7937988e-06 0.49719357 3.9343586e-06
0.00020924959 -2.7083368e-05 4.378195e-05 -1.893749e-05 6.341013e-05 0.39697734 -2.7705807e-06 -0.24622789
-0.00026655593 0.46981332 -0.2842808 -0.000114504975 1.8653953e-05 -9.095172e-06 3.175066e-05 0.0033061414
2.3574456e-05 2.4116664e-06 -0.4455653 -2.3025841e-05 -4.349596e-05 2.0838585e-05 0.00013677901 -2.0154877e-05
0.00015976105 0.15446028 -1.7028084e-05 -0.7087523 -0.00027030552 -0.020831585 -0.025888864 -1.9405015e-05
-3.3459502e-05 -3.920509e-05 -2.0445048e-05 -0.00027958147 -5.5598593e-06 2.5887131e-05 0.53480846 6.5316345e-07
-0.00089503155 5.9404634e-08 5.371634e-05 1.0215768e-05 5.343695e-05 0.40274456 7.784083e-07 -0.19592726
-7.69145e-05 0.7752622 -0.07510481 4.4658762e-05 4.206205e-05 -3.0815027e-06 -2.244146e-07 0.009782797
-8.4252515e-06 -1.9208512e-06 -0.30297798 -3.370175e-06 -0.00015415926 2.9511273e-05 5.6920802e-05 1.0478179e-06
2.6143827e-05 -0.026266046 -1.3367257e-05 -0.050695036 -6.1715116e-05 0.6518198 -0.014846866 0.0006190459
-2.5055884e-05 2.7448661e-05 2.8981676e-05 -0.0026849597 -5.974074e-07 -1.3835956e-05 -0.48759502 2.1057394e-05
1.7796187e-05 3.3112177e-05 5.7486348e-05 9.44023e-05 -9.276173e-06 -0.2919486 1.1964337e-06 -0.50908625
0.00013039273 0.29842225 0.07152797 0.00017121826 -3.7633818e-05 -8.610221e-06 -2.9954716e-05 0.005590536
5.5528057e-05 1.9112878e-05 0.1873238 -5.535488e-05 -0.00046164796 6.4111206e-05 0.00011934166 -0.00012373317
5.2326363e-06 0.2839276 1.5259736e-06 -0.78505313 -0.0010786306 -0.7093585 -0.007446098 -0.00041339226
3.3147862e-05 -1.5505126e-05 7.3679104e-05 0.0060151685 -7.6773665e-07 1.4532488e-05 -0.16425359 1.119017e-05
0.00042885193 -0.00010754865 3.624373e-05 3.9038438e-05 -0.00021957148 0.4225081 -3.142189e-06 -0.879201
-0.0005756873 0.048025034 0.16022089 -9.462656e-05 5.3501267e-06 1.5197833e-05 -1.3985687e-06 -0.021434877
5.612038e-05 -3.897431e-06 -0.54178363 5.2212905e-05 -2.8794631e-05 4.972088e-06 -3.078706e-05 -1.287976e-05
1.5007154e-05 -0.2073532 -1.801315e-05 -0.58634806 -4.0466297e-05 0.6228169 -0.1318479 -0.00028944036
-2.9577986e-05 3.4047578e-05 -2.4189208e-05 -0.00084998267 7.721511e-06 2.8207498e-05 0.042477906 -1.1509092e-06
-0.0013114314 -1.9332281e-05 -2.087083e-06 -4.4894794e-05 2.4186442e-05 0.15229103 4.1867606e-05 -0.38174686
-0.00026514224 0.73224205 -0.055824965 1.431568e-05 -2.6955986e-05 1.2180796e-05 4.5711793e-05 -0.0032491626
-2.8833023e-05 -3.4396406e-05 -0.24667189 5.8867015e-05 2.54255e-05 -1.6219808e-05 0.00012459776 4.5473298e-05
-6.0612372e-05 -0.11062279 9.8049095e-06 -0.5652053 -0.00017821063 0.55749416 0.00010723513 8.777514e-05
00000000: 7f2c af36 58c2 4f38 69a8 4e3e 7037 55b8
00000010: dfa9 84b7 00ff 8eb8 180b a638 e977 4238
00000020: 7581 1039 9536 b63d c69a 12b7 8e02 843e
00000030: ae54 79b9 566c 843f 26d0 0a3e 0a73 6a39
00000040: a25a 7db8 565e 60b7 241c f4b7 8eaa aabc
00000050: 9a41 f0b7 b702 b236 3d4a 1c3e bb4f 1138
00000060: cdd9 1839 d32f d037 ec39 efb8 759f 9d38
00000070: 0267 4339 55b4 053d ff81 a037 1d48 01bf
00000080: a805 2f3a ebb2 3a3f d81f 3dbd c5c2 40b8
00000090: eb15 4837 7362 b637 1eda 55b8 4d13 e1b7
000000a0: b32e 1838 6b77 3437 bc58 abbe 5e7e 30b7
000000b0: 05ef 8736 833d d8b7 6b03 3738 2b7c 28b7
000000c0: ae7e 7138 ae47 a13d 4051 8d38 1b26 a7be
000000d0: 8225 21b8 ab99 4a3f 6711 73bc 878b c239
000000e0: ef14 10b8 1b67 6b37 6013 3ab7 b74b d039
000000f0: 9ae6 2437 197d 3b36 2890 fe3e e203 8436
00000100: 026a 5b39 1731 e3b7 83a2 3738 f3db 9eb7
00000110: 0efb 8438 9d40 cb3e 37ee 39b6 2a23 7cbe
00000120: 88c0 8bb9 5f8b f03e 418d 91be 6422 f0b8
00000130: 0f7b 9c37 7797 18b7 032c 0538 d9ab 583b
00000140: c2c1 c537 1dd8 2136 2321 e4be 9e27 c1b7
00000150: 6e6f 36b8 85ce ae37 566c 0f39 4512 a9b7
00000160: 8885 2739 d62a 1e3e 88d7 8eb7 ca70 35bf
00000170: cbb7 8db9 00a7 aabc e214 d4bc f4c7 a2b7
00000180: de56 0cb8 2570 24b8 6881 abb7 ca94 92b9
00000190: d48e bab6 3128 d937 35e9 083f 0d55 2f35
000001a0: 8da0 6aba 1624 7f33 7b4d 6138 6464 2b37
000001b0: 7d21 6038 8934 ce3e d0f3 5035 28a1 48be
000001c0: 284d a1b8 9577 463f 8dd0 99bd fb4f 3b38
000001d0: c86b 3038 d0cb 4eb6 9ef6 70b4 0648 203c
000001e0: 2e5a 0db7 f9e7 00b6 ee1f 9bbe 2a2b 62b6
000001f0: d0a5 21b9 fa8e f737 3fbe 6e38 c0a2 8c35
00000200: 714f db37 e42b d7bc ef43 60b7 99a5 4fbd
00000210: 0d6d 81b8 aadd 263f 4540 73bc 7847 223a
00000220: 1a2f d2b7 8d41 e637 ad1d f337 26f6 2fbb
00000230: 865d 20b5 fb20 68b7 0ea6 f9be 69a4 b037
00000240: 0549 9537 eee1 0a38 7f1d 7138 d9f9 c538
00000250: dca0 1bb7 497a 95be 2695 a035 7a53 02bf
00000260: 08ba 0839 cdca 983e 427d 923d 0d89 3339
00000270: 01d9 1db8 9e74 10b7 4347 fbb7 d130 b73b
00000280: cce6 6838 9854 a037 cfd1 3f3e da2c 68b8
00000290: 5709 f2b9 7173 8638 1147 fa38 5fbe 01b9
000002a0: 0194 af36 f55e 913e 0ed0 cc35 3ef9 48bf
000002b0: d660 8dba 8598 35bf 66fe f3bb 92bc d8b9
000002c0: 3f08 0b38 0111 82b7 2b84 9a38 e41a c53b
000002d0: 7616 4eb5 90d0 7337 1832 28be 6abd 3b37
000002e0: 88d7 e039 be8b e1b8 6904 1838 34bd 2338
000002f0: c53c 66b9 fb52 d83e 65de 52b6 5113 61bf
00000300: b9e9 16ba e6b5 443d f210 243e 3f72 c6b8
00000310: 3d85 b336 32fa 7e37 74b6 bbb5 3298 afbc
00000320: cd62 6b38 adc6 82b6 55b2 0abf 2eff 5a38
00000330: 008c f1b7 e9d5 a636 5b21 01b8 2616 58b7
00000340: 3cc7 7b37 6654 54be f21a 97b7 e81a 16bf
00000350: 5bba 29b8 ee70 1f3f 2303 07be 07c0 97b9
00000360: 3e1e f8b7 4fce 0e38 eee9 cab7 5fd1 5eba
00000370: a38b 0137 249f ec37 50fd 2d3d f078 9ab5
00000380: 56e4 abba c22b a2b7 d00f 0cb6 6b4d 3cb8
00000390: fde3 ca37 2ef2 1b3e 009b 2f38 5374 c3be
000003a0: ca02 8bb9 3774 3b3f b8a8 64bd 612d 7037
000003b0: 8a1f e2b7 1f5c 4c37 aaba 3f38 e7ef 54bb
000003c0: 72de f1b7 dc44 10b8 8e97 7cbe fae7 7638
000003d0: d848 d537 c60f 88b7 75a6 0239 95ba 3e38
000003e0: 0a3a 7eb8 348e e2bd c47f 2437 4bb1 10bf
000003f0: 0dde 3ab9 f0b7 0e3f 6ce3 e038 eb13 b838

item_embedding.weight f4 [3019, 20]
3.912856e-05 8.984658e-06 -0.0039073564 -3.2799257e-05 5.9266305e-05 -3.6194975e-05 -3.0635034e-05 5.128501e-05
5.069013e-05 -0.078709945 2.1030962e-06 0.29236585 -7.9967045e-05 0.0021436352 -0.002490127 4.930201e-05
3.844214e-06 2.527276e-05 -1.6692702e-05 0.00048648508 3.816767e-05 1.0077797e-05 -0.10336287 -3.0943834e-06
0.00019747413 -9.834815e-06 3.7407783e-05 1.9908686e-05 -3.3805954e-05 0.01747416 2.0455846e-05 0.14356287
4.7438185e-05 0.46257606 0.0015496381 3.029341e-05 2.1714724e-05 3.0989355e-05 -6.3105945e-06 -4.7904807e-05
1.2801576e-05 2.0253674e-05 0.21160702 1.628295e-05 -1.4472532e-05 -9.084675e-07 6.4552087e-06 -6.7088886e-06
-4.51533e-06 0.07455415 1.0230879e-05 0.33998746 2.0264299e-05 0.07848219 0.002650707 -4.709857e-05
3.539843e-05 -5.101213e-05 -2.4060126e-05 -0.00023366616 3.9229493e-05 -4.23715e-06 -0.12837215 2.7519438e-05
1.1505883e-05 -1.3848987e-05 -1.6374543e-05 4.0785068e-05 1.0426794e-05 0.0033755838 -1.0841316e-05 -0.1050575
1.7518681e-05 -0.19315532 0.002218256 9.7963e-05 -2.3248735e-06 -1.4120267e-05 -1.46197e-05 7.603382e-05
-2.9124678e-05 -3.2206794e-05 0.09102484 -1.0302279e-05 -3.8946393e-05 -6.8053945e-05 -1.2276644e-05 6.497816e-06
2.2916347e-05 0.0016370082 8.392841e-06 0.3285446 1.5068749e-05 0.027992547 -0.0026144956 2.9736091e-05
-1.0829559e-05 -1.6983471e-05 -3.085565e-05 -0.00015273037 7.69276e-06 -1.133278e-05 -0.24137156 -8.0037876e-07
0.0016556537 -1.1834106e-05 -0.0001389132 2.9242412e-05 6.5192426e-06 -0.39475188 -6.3203875e-06 0.058628123
-0.000304392 0.75615215 0.13240351 -0.0009495223 3.895413e-06 -2.0987489e-05 -1.2952797e-06 0.0066967723
-6.3907405e-06 -1.4881401e-06 -0.011704337 -2.4291558e-05 5.7243447e-05 3.6152873e-05 -4.805236e-05 0.00016551289
0.00011416942 0.031074509 3.617844e-05 -0.53462404 -8.993487e-05 0.36470896 -0.0011665378 7.010813e-05
-9.434017e-06 -4.0519848e-05 -2.5985968e-05 0.0019540337 1.5794467e-05 3.3871047e-06 -0.052987527 -3.05472e-05
3.6716363e-05 1.6682246e-05 -5.002964e-05 2.5508656e-05 1.97134e-05 0.015652973 -1.0372549e-05 0.19289862
1.7576277e-06 0.11120001 -0.005426335 -1.6767599e-05 -6.3630237e-06 -1.249577e-05 -4.8017478e-06 0.00026632877
1.5991442e-05 -3.8492948e-05 -0.0148938205 5.7269164e-05 8.798368e-05 -1.8229644e-05 2.350173e-05 5.6985868e-05
-8.0867816e-05 0.292937 -5.330822e-05 0.2501316 0.00014807806 -0.15988313 -0.0027578613 1.713748e-05
1.6525102e-05 1.5305537e-05 7.2158614e-06 0.0013993033 1.7918966e-05 -2.452205e-05 -0.15697773 2.273876e-06
-2.239976e-05 1.0937829e-05 -3.2063463e-06 -5.259391e-05 5.3255066e-05 2.4064126e-05 1.5102908e-05 -0.087924555
-3.2200634e-05 0.31991825 0.004587869 1.1360137e-05 -2.4912446e-05 3.38609e-06 3.199113e-05 -4.2318174e-05
3.0045177e-05 8.838823e-06 0.120069884 3.249679e-05 -1.4045646e-05 -2.5940079e-05 6.688769e-05 -1.6714923e-05
-1.8484854e-05 -0.001031928 -6.950523e-06 0.23449437 -1.5456428e-05 0.060297377 -0.0038567784 -2.917048e-05
-7.501724e-05 -2.8689303e-05 -6.221623e-06 -1.9195846e-05 -2.6420864e-06 -3.6532e-05 -0.068477206 3.0626536e-05
4.127724e-05 9.596826e-06 3.786877e-05 -3.8896083e-05 -1.0631729e-05 0.05358173 4.4219243e-05 0.18305625
-4.688705e-05 -0.16654283 0.006875952 2.9242243e-05 8.173975e-06 7.6059796e-06 2.8873636e-05 -8.431262e-05
-2.0112795e-05 4.6992674e-05 0.23060505 4.492668e-06 -5.068475e-05 6.0405873e-05 1.9648329e-05 -6.850644e-05
-1.5051022e-05 -0.021953303 -3.2338296e-05 0.27194238 7.9572514e-05 -0.3092987 0.00536125 2.7722555e-05
00000000: f91d 2438 d0bc 1637 4809 80bb ef91 09b8
00000010: b694 7838 0fd0 17b8 1e7e 00b8 dc1a 5738
00000020: 1d9c 5438 ae32 a1bd eb22 0d36 fab0 953e
00000030: fbb3 a7b8 3b7c 0c3b 6631 23bb a1c9 4e38
00000040: 8cfd 8036 d700 d437 4e07 8cb7 ec0e ff39
00000050: 3916 2038 cf13 2937 eaaf d3bd 1aa9 4fb6
00000060: 0f11 4f39 3500 25b7 4de6 1c38 9401 a737
00000070: deca 0db8 f825 8f3c 9898 ab37 2502 133e
00000080: 5df8 4638 c5d6 ec3e 3a1d cb3a 9a1e fe37
00000090: 0428 b637 91fa 0138 98bf d3b6 65ed 48b8
000000a0: 5ac6 5637 6fe6 a937 83af 583e 5e97 8837
000000b0: 0dcf 72b7 69dd 73b5 d299 d836 ea1c e1b6
000000c0: 6482 97b6 d9af 983d 4aa5 2b37 d612 ae3e
000000d0: 40fd a937 45bb a03d 7cb7 2d3b b48b 45b8
000000e0: c678 1438 dcf5 55b8 bad4 c9b7 4804 75b9
000000f0: 598a 2438 d72c 8eb6 fd73 03be 8bd9 e637
00000100: 6409 4137 f258 68b7 105c 89b7 a210 2b38
00000110: bdee 2e37 e638 5d3b 19e3 35b7 6328 d7bd
00000120: 15f5 9237 82ca 45be 2960 113b 7c71 cd38
00000130: 0605 1cb6 16e6 6cb7 2247 75b7 5974 9f38
00000140: c550 f4b7 c815 07b8 3b6b ba3d f4d7 2cb7
00000150: 5f5a 23b8 2fb8 8eb8 c9f7 4db7 d007 da36
00000160: 7b3c c037 e190 d63a face 0c37 ff36 a83e
00000170: c9cf 7c37 a050 e53c f557 2bbb c571 f937
00000180: 9ab0 35b7 ba77 8eb7 006b 01b8 3f26 20b9
00000190: 2710 0137 eb21 3eb7 1b2a 77be 9cd9 56b5
000001a0: 8502 d93a 198b 46b7 3aa9 11b9 9a4d f537
000001b0: debf da36 eb1c cabe b713 d4b6 0b24 703d
000001c0: cd96 9fb9 3093 413f c994 073e 5de9 78ba
000001d0: 58b5 8236 4a0e b0b7 79d9 adb5 9970 db3b
000001e0: 0b70 d6b6 1bbc c7b5 8cc3 3fbc b9c5 cbb7
000001f0: af18 7038 daa2 1738 d48b 49b8 878d 2d39
00000200: 3e6e ef38 f88f fe3c 4ebe 1738 1fdd 08bf
00000210: 6a9b bcb8 22bb ba3e 83e6 98ba 0407 9338
00000220: cb46 1eb7 dbf3 29b8 71fc d9b7 3f0f 003b
00000230: 5c7e 8437 044e 6336 7309 59bd ce1f 00b8
00000240: e5ff 1938 daf0 8b37 ebd6 51b8 6cfb d537
00000250: 345e a537 aa3a 803c c205 2eb7 3787 453e
00000260: a1e7 eb35 d5bc e33d 66cf b1bb 25a8 8cb7
00000270: f581 d5b6 eca4 51b7 b31e a1b6 0ba2 8b39
00000280: 5c25 8637 7d73 21b8 3605 74bc 4c34 7038
00000290: e183 b838 ddeb 98b7 9525 c537 1c04 6f38
000002a0: 9497 a9b8 d7fb 953e 4497 5fb8 4011 803e
000002b0: 6745 1b39 67b8 23be 3cbd 34bb 75c2 8f37
000002c0: 639f 8a37 6464 8037 c71f f236 d468 b73a
000002d0: b050 9637 b4b4 cdb7 c5be 20be e498 1836
000002e0: 1ee7 bbb7 9e81 3737 9c2c 57b6 4898 5cb8
000002f0: 315e 5f38 51dd c937 7f62 7d37 ca11 b4bd
00000300: 2b0f 07b8 53cc a33e d655 963b 6b97 3e37
00000310: 12fb d0b7 953c 6336 372e 0638 cb7e 31b8
00000320: 8709 fc37 754a 1437 33e7 f53d 2a4d 0838
00000330: 97a5 6bb7 e599 d9b7 0e46 8c38 0637 8cb7
00000340: ec0f 9bb7 c241 87ba 8a38 e9b6 4b1f 703e
00000350: 6da8 81b7 62fa 763d 01c2 7cbb 21b3 f4b7
00000360: 9352 9db8 cfa9 f0b7 56c3 d0b6 c406 a1b7
00000370: b34e 31b6 f039 19b8 c73d 8cbd fe74 0038
00000380: 1921 2d38 0e02 2137 48d5 1e38 5a24 23b8
00000390: ee5e 32b7 8478 5b3d 0d78 3938 1973 3b3e
000003a0: 96a8 44b8 348a 2abe aa4f e13b 3d4d f537
000003b0: f522 0937 de36 ff36 a935 f237 fed0 b0b8
000003c0: e6b7 a8b7 001a 4538 bb23 6c3e b9bf 9636
000003d0: 5696 54b8 505c 7d38 77d2 a437 1dab 8fb8
000003e0: a683 7cb7 6ad7 b3bc fba2 07b8 083c 8b3e
000003f0: 2be0 a638 665c 9ebe 6dad af3b bc8d e837

linear_trans_neigh.weight f4 [20, 20]
-5.69221e-05 -5.5609125e-06 0.37104052 -5.5765464e-05 0.010745936 1.7236594e-05 -3.610552e-05 -0.00053890824
7.382839e-05 0.23658675 0.00018345467 0.3917285 -0.005679592 0.4057588 -0.12214634 0.0011719264
0.038278937 1.02761605e-05 3.594687e-05 0.049883623 7.309139e-05 -2.4765377e-06 0.34487092 -0.0039698654
0.009161098 -7.314066e-05 0.00040061137 0.00019584017 4.5478464e-05 0.22562963 -4.6762507e-05 0.3507692
-0.0004696323 0.40871063 -0.14033836 0.000795621 -0.03827073 -0.00058224285 2.2829292e-05 0.057458807
-5.0450544e-05 -8.5902656e-07 0.3425572 -5.6196104e-06 0.0034732926 0.00042647167 -6.6867244e-05 -0.00010707552
0.00022494495 0.20438638 -1.0075825e-06 0.33303472 -0.0011181695 0.40863696 -0.12826756 0.00087454333
-0.0005026905 0.07801961 -4.6606787e-05 0.008958879 2.4760132e-06 -5.717988e-05 0.0617552 9.649862e-05
0.0060525206 5.0923412e-05 -0.0002315201 4.8392747e-05 -0.00016238178 0.23569395 2.266239e-05 0.3966291
-0.0006982171 0.3864001 -0.13632941 0.00041846588 9.147841e-05 -0.00049802347 0.00021274165 0.046772856
0.08850892 -0.000110390705 0.13323434 6.284745e-06 -0.0013078074 3.6152094e-05 -5.6858666e-05 -3.70827e-05
-6.8139285e-05 0.22718534 8.128562e-06 0.25041497 -0.118556984 0.2930588 -0.13563764 0.00042613468
-1.9868527e-05 -5.7935933e-05 -0.030177537 0.007675443 2.6762114e-05 -7.774794e-05 0.36996907 -3.482197e-05
0.017333258 -6.808854e-05 -4.230753e-05 -8.825497e-05 -8.657532e-05 0.23057848 -0.00016509814 0.36857086
-0.0006925763 0.40852708 -0.12886636 0.00080724014 8.608936e-05 -0.010695371 -7.8432895e-06 0.010220974
0.00016640243 0.0008444838 0.30986992 -6.7991066e-05 0.0059645744 -0.00012625256 -3.7635516e-05 6.237984e-05
-0.0003099188 0.22567226 2.7882274e-05 0.418401 -0.0010696575 0.3729213 -0.11464859 0.0007219909
6.720718e-05 -4.8999987e-06 6.987232e-05 0.057565186 3.5452056e-05 -5.2039326e-05 0.3662734 -9.492349e-06
0.015240884 -2.5520343e-05 -4.330584e-05 -5.613902e-06 -0.03971727 0.23703757 -8.54318e-05 0.41452122
-0.0012552242 0.40810212 -0.0073563997 0.00081033155 -9.334853e-06 8.308096e-05 -0.00016452423 0.028156849
-1.7904056e-05 1.06757125e-05 0.37142444 -0.089666165 0.0024363576 -7.571136e-06 0.00043304046 2.9798057e-06
5.1006387e-05 0.14220306 4.1281015e-05 0.2844936 -0.0012092016 0.3733115 -0.11229526 0.00082634675
-9.8004175e-06 1.1598662e-05 1.3768229e-05 0.05217815 0.00070369546 -0.00014296055 0.3500503 -9.118063e-06
0.011587946 -6.96841e-05 -0.0004563411 -2.8291737e-05 -0.00014093785 0.22632858 -0.000349069 0.35838923
-0.0013164509 0.40885663 -0.10753377 0.0044670883 -0.056930143 -1.0686165e-05 0.0008554107 0.00664484
-0.0006653533 1.0149601e-05 0.3154304 -3.1268606e-05 0.009063221 0.037380893 -3.4791145e-05 -0.011604736
0.00028922994 0.23427565 -0.037066925 0.35365844 0.0007200987 0.39958212 -0.12595634 0.00085235015
-3.4581124e-05 0.0001538301 1.588784e-05 0.012908264 5.5916087e-05 -8.210192e-05 0.36027572 -0.000112509515
-0.121888466 -6.4350174e-06 -0.0005828822 2.8888248e-06 6.178894e-05 0.20033035 0.0180774 0.42389238
-0.000700574 0.40885606 -0.13933623 -0.000559322 -0.00799608 7.082925e-05 -0.00047714633 0.054323025
8.186963e-06 -0.00044664976 0.37107763 0.05968618 0.011289287 -2.6191039e-05 4.7233076e-05 0.0001881583
-0.00016240572 0.188018 7.88447e-06 0.35290343 0.0012363042 0.32258046 -0.11122649 0.020153362
00000000: a4bf 6eb8 e097 bab6 06f9 bd3e b6e5 69b8
00000010: b90f 303c 4e97 9037 0270 17b8 8545 0dba
00000020: 51d4 9a38 cc43 723e bd5d 4039 a390 c83e
00000030: df1b babb 9ebf cf3e dc27 fabd 539b 993a
00000040: 60ca 1c3d c667 2c37 a8c5 1638 c552 4c3d
00000050: a448 9938 9832 26b6 ec92 b03e a515 82bb
00000060: 6e18 163c 1863 99b8 2609 d239 725a 4d39
00000070: 21c0 3e38 740b 673e dc22 44b8 0598 b33e
00000080: fb38 f6b9 8542 d13e dcb4 0fbe 3991 503a
00000090: c5c1 1cbd a8a1 18ba 8881 bf37 ed59 6b3d
000000a0: dc9a 53b8 db97 66b5 a863 af3e 1690 bcb6
000000b0: 2ea0 633b 0f98 df39 143b 8cb8 bb8d e0b8
000000c0: 33df 6b39 aa4a 513e 453c 87b5 8783 aa3e
000000d0: 8b8f 92ba dd38 d13e 9258 03be 9c41 653a
000000e0: fdc6 03ba bfc8 9f3d a87b 43b8 43c8 123c
000000f0: 9529 2636 6ed4 6fb8 05f3 7c3d 4d5f ca38
00000100: 3954 c63b 9996 5538 34c4 72b9 51f9 4a38
00000110: 0745 2ab9 c159 713e 1d1b be37 f812 cb3e
00000120: 8e08 37ba 3cd6 c53e f099 0bbe 8a65 db39
00000130: 19d8 bf38 ca8d 02ba 6713 5f39 e594 3f3d
00000140: 2a44 b53d 8f81 e7b8 956e 083e 8ce1 d236
00000150: bc6a abba 04a2 1738 877b 6eb8 3f89 1bb8
00000160: 00e6 8eb8 46a3 683e e85f 0837 6436 803e
00000170: 01ce f2bd ce0b 963e 98e4 0abe d46a df39
00000180: 56ab a6b7 3c00 73b8 e236 f7bc 4882 fb3b
00000190: 347f e037 9c0c a3b8 966c bd3e ce0d 12b8
000001a0: 7afe 8d3c c2ca 8eb8 5d73 31b8 8715 b9b8
000001b0: c58f b5b8 c41c 6c3e 321e 2db9 52b5 bc3e
000001c0: 028e 35ba 762a d13e 8bf5 03be f89c 533a
000001d0: e08a b438 a33b 2fbc ac96 03b7 df75 273c
000001e0: 507c 2e39 5960 5d3a 45a7 9e3e 6d96 8eb8
000001f0: 7a72 c33b aa62 04b9 d4da 1db8 ecd1 8238
00000200: 997c a2b9 a116 673e bae4 e937 a838 d63e
00000210: c033 8cba 8aef be3e e1cc eabd fd43 3d3a
00000220: 94f1 8c38 ab6a a4b6 6b88 9238 79c9 6b3d
00000230: 5bb2 1438 cd44 5ab8 3088 bb3e 5441 1fb7
00000240: e7b4 793c 8514 d6b7 4ba3 35b8 0d5f bcb6
00000250: 93ae 22bd fab9 723e d929 b3b8 203c d43e
00000260: 5686 a4ba c3f2 d03e f40d f1bb 6e6c 543a
00000270: e39c 1cb7 c03b ae38 2384 2cb9 31a9 e63c
00000280: ab30 96b7 d61b 3337 582b be3e e5a2 b7bd
00000290: 4cab 1f3b 900b feb6 b509 e339 acf8 4736
000002a0: b1ef 5538 ae9d 113e 2725 2d38 25a9 913e
000002b0: 137e 9eba af22 bf3e 0ffb e5bd 319f 583a
000002c0: 796c 24b7 e097 4237 18fe 6637 c1b8 553d
000002d0: 3478 383a aee7 15b9 cb39 b33e c8f9 18b7
000002e0: 5edb 3d3c 5e23 92b8 1141 efb9 0b54 edb7
000002f0: b7c8 13b9 aec2 673e 4003 b7b9 cb7e b73e
00000300: c38c acba a855 d13e aa3a dcbd a760 923b
00000310: 952f 69bd bb48 33b7 a43d 603a f5bc d93b
00000320: 1b6b 2eba 3448 2a37 1880 a13e 6926 03b8
00000330: e77d 143c b51c 193d b5ec 11b8 ca21 3ebc
00000340: c9a3 9739 f5e5 6f3e 7dd3 17bd b812 b53e
00000350: 01c5 3c3a 0796 cc3e b3fa 00be 4070 5f3a
00000360: 330b 11b8 744d 2139 e046 8537 2f7d 533c
00000370: 7187 6a38 222e acb8 0f76 b83e 16f3 ebb8
00000380: a9a0 f9bd 61ec d7b6 90cc 18ba a2dd 4136
00000390: af94 8138 6623 4d3e 0e17 943c 6c08 d93e
000003a0: baa6 37ba 9555 d13e 28ae 0ebe 779f 12ba
000003b0: fe01 03bc 2a8a 9438 7f29 fab9 d281 5e3d
000003c0: bd5a 0937 512c eab9 e3fd bd3e 7f79 743d
000003d0: b4f6 383c d4b4 dbb7 211c 4638 5c4c 4539
000003e0: 744b 2ab9 ca87 403e 8a47 0437 c2af b43e
000003f0: 7c0b a23a 4429 a53e b7ca e3bd aa18 a53c
