best_para_path/ciao100.10.20.70.250.251.030.00.5_p10_20gatv2_spill_var2_wo_att_explicit_seed0_ex1_0.05_0.0001_0.005_0.01.pt (torch, 448880 bytes, 3 tensors)

user_embedding.weight f4 [2541, 20]
00000000: 00e1 8c38 81e7 4d37 a74c 50bc 882d 03b7
00000010: c627 01b8 1d1d 783a 3c2b 28b9 baa8 a6b7
00000020: e2ec 7aba 3e9e 66bf fa7b 7eb6 48e8 3d3e
00000030: 0b29 73ba 1bde 2f3f f8a3 45bc df5e aab9
00000040: 306b 1db7 94df cbb7 1c76 9e37 025b 2e3f
00000050: ec8e 8ab8 7f20 8db6 bfe0 823e 77f4 5636
00000060: 4636 ee38 0884 0939 adfc bc38 3740 a137
00000070: 57ac 24b9 793a b03e 413a 12b7 4419 c1be
00000080: e921 d03a 8f8d 393f a316 083b a744 a739
00000090: e627 b836 db6e 4137 fe8f 89b7 022f 643e
000000a0: 0c21 1fb7 2767 f8b6 a42b 803d 1ed0 c0b6
000000b0: 093f 8c39 72c5 f3b8 c372 f4b7 40fb 9e37
000000c0: fb4a a839 4e06 59bd 249b 4bb7 c5a2 04be
000000d0: 6562 a038 678d 693f 4fe0 2cba 9a78 77b8
000000e0: 34a2 8ab7 3a99 bfb6 4b97 c036 090c a2bd
000000f0: 93dc 4db7 3a42 1936 7fd0 893e 5b2f b835
00000100: 4fa5 4038 319c 96b9 9d83 eeb7 d1eb 89b8
00000110: d55d 0836 70f1 233f 75ed bb36 1f0e 81be
00000120: 4d3f fbb8 158f a23e 3008 1a3c 2dae fcb8
00000130: 2167 eab7 c8ce 3537 74f0 48b8 a8e2 153f
00000140: d4e4 9938 5ff3 90b6 c85b 8d3d f9d8 4fb7
00000150: a42f 3c3a 3aea 0a38 9c8b af38 8c19 1538
00000160: 2f5f 33ba 4337 293e c87d 1eb6 8f15 0abf
00000170: 5f36 41b9 9cf1 813e 42ca dd3a 11ff 30b9
00000180: d2ab 9a35 b97d 70b7 ac55 c537 4752 d3be
00000190: 67d5 bbb6 e316 93b6 668e 83be 5da9 5037
000001a0: bdca e5b9 9c6f 3639 4af4 e6b8 d5d7 2039
000001b0: caf4 35ba 9752 f83c c3b7 0c37 4bac eebd
000001c0: c812 ec39 25d0 ed3e 1ee2 0f3a 28cc 133a
000001d0: 89cb 3138 513b 5c37 a135 ce38 4cd6 613f
000001e0: 5713 5a38 f0aa 8db7 1c59 a13e 1123 b337
000001f0: 406b 9539 0107 0c3a 526d 38b9 16c8 9bb8
00000200: f5c1 e539 1a35 09be 5a8d 8636 cd26 fd3d
00000210: 668b 9039 8e63 2c3f 425a 63bc 450a 3139
00000220: 2c52 1ab6 58d0 5037 5bb5 6ab7 86ee 95bd
00000230: 5c0d 97b8 5e38 cab7 23c9 173e 055d 3eb7
00000240: 3daf 0739 dc9a b5b8 5fbb 3438 4c28 7339
00000250: b065 1f39 e709 1bbd a560 0d37 c832 d5be
00000260: 3deb 03b9 9146 0f3f 50c2 84bb e03c f137
00000270: bc48 0fb4 6803 b0b5 a721 68b8 e944 8ebe
00000280: aea1 7f39 291c 0436 91fe 0abd d5e7 9b38
00000290: 07e9 ca3a eb70 d039 84d3 2739 24df 74b9
000002a0: d91f 483a d582 85be 5c57 b7b7 f375 75bf
000002b0: a548 21bb 26b4 2ebf b7e6 803c bb6c 8fb9
000002c0: 4c2e f836 ab2f a237 a61f 8f39 bd79 a1bd
000002d0: f25d 1ab8 217d c8b6 e21c 273e 170f 0138
000002e0: 4ddb 6cba ab5f 9eb8 df90 13b9 6f81 8fb8
000002f0: 9cee 70ba b4dd 223f 00f1 2237 dd82 3cbf
00000300: 9d8b b539 fb07 813e d01c 813d 1324 46ba
00000310: 207d 61b7 3dce 3f36 1970 46b9 84cb 80be
00000320: bc3f 8539 af2e cfb6 e078 0a3e f823 19b7
00000330: 90d3 7b38 c677 40b9 ce68 4538 0737 4eb6
00000340: 0a7a 9b3a 9a98 1abd fc4e b337 ebfa d0be
00000350: 1b4e 3bba d00c 5b3f 0123 933b 5d68 99b6
00000360: d36f b836 97b8 ff36 ca66 3838 4fa6 91be
00000370: 9665 9037 c279 d236 e513 593e fcd1 1238
00000380: 252f 89ba 66a1 89b8 258c 1a39 5075 82b8
00000390: cd2f 6fb8 443b a43c d924 4ab7 6210 8dbe
000003a0: 9929 263a df71 3b3f 3593 a43a 77de d639
000003b0: d012 eeb6 4074 9436 31b5 6738 c542 023e
000003c0: 3657 7539 7999 9e36 cdc5 ccbc fe08 7db7
000003d0: 58f0 c138 f0e3 8239 d9be 3939 4bcd 2f38
000003e0: d95d ef38 b0b1 d2bd 33da 0936 4ba6 c5be
000003f0: b207 b2b9 1800 443f 4bc2 12bb d1b4 ddb8
6.71763e-05 1.2272853e-05 -0.012713588 -7.8188095e-06 -3.079304e-05 0.00094647874 -0.00016037835 -1.9867311e-05
-0.00095720415 -0.9008521 -3.7921113e-06 0.1854564 -0.000927583 0.6869828 -0.012063019 -0.0003249561
-9.382886e-06 -2.4303597e-05 1.8890067e-05 0.68107617 -6.606974e-05 -4.2059105e-06 0.25562093 3.2030782e-06
0.000113588336 0.00013114524 9.011603e-05 1.9222598e-05 -0.0001570446 0.3441961 -8.715841e-06 -0.3771459
0.0015879247 0.72481626 0.0020765446 0.00031903872 5.488272e-06 1.1529507e-05 -1.6398724e-05 0.22283557
-9.484833e-06 -7.4029845e-06 0.06258324 -5.746274e-06 0.00026749846 -0.0001162392 -2.9140507e-05 1.8952065e-05
0.00032099322 -0.05298453 -1.2135864e-05 -0.12952717 7.647722e-05 0.9123139 -0.0006594704 -5.9001708e-05
-1.6526414e-05 -5.7100815e-06 5.7396587e-06 -0.07912452 -1.2270309e-05 2.2837326e-06 0.26916882 1.372285e-06
4.5930323e-05 -0.000287266 -2.8433098e-05 -6.576593e-05 2.0320197e-06 0.6404028 5.600678e-06 -0.25206086
-0.00011980403 0.31749788 0.009401366 -0.00012048739 -2.7942997e-05 1.0836586e-05 -4.7907655e-05 0.58548975
7.338231e-05 -4.3198665e-06 0.069022715 -1.2388679e-05 0.000717873 3.3119904e-05 8.3706545e-05 3.554816e-05
-0.00068424916 0.16524987 -2.361705e-06 -0.53939146 -0.00018426169 0.25379646 0.001692124 -0.00016879688
1.15239e-06 -1.4334387e-05 2.3524124e-05 -0.4127371 -5.5978776e-06 -4.3836058e-06 -0.2569458 1.2437199e-05
-0.00043829335 0.0001739845 -0.00011012757 0.00015339193 -0.00069410785 0.03031282 8.387436e-06 -0.11653956
0.0004502742 0.46447864 0.0005488711 0.00056380266 4.2389645e-05 1.31268325e-05 9.8328346e-05 0.88217616
5.1993262e-05 -1.6888109e-05 0.31513298 2.1354792e-05 0.00028499402 0.000534162 -0.00017588332 -7.428245e-05
0.00043822793 -0.13399163 4.0099667e-06 0.12360916 0.0002756968 0.6733941 -0.0138765 0.00016883861
-2.2995619e-06 1.2446275e-05 -1.3989712e-05 -0.07320885 -7.2027295e-05 -2.4106525e-05 0.14822821 -1.134654e-05
0.00012939885 -8.6595974e-05 4.3089847e-05 0.00023189298 0.00015201303 -0.03785124 8.426757e-06 -0.41640306
-0.00012580767 0.5596705 -0.004051484 2.8757786e-05 -1.3344373e-07 -1.3114013e-06 -5.534445e-05 -0.2778695
0.00024378925 1.9685924e-06 -0.03393418 7.434158e-05 0.0015480825 0.00039756982 0.00016005157 -0.0002335278
0.000763414 -0.2607638 -2.185598e-05 -0.958831 -0.002460995 -0.68243635 0.015735013 -0.00027356096
7.3963656e-06 1.9334102e-05 0.00027298665 -0.07884548 -3.6803955e-05 -5.9750314e-06 0.16319612 3.077005e-05
-0.0009035364 -7.551847e-05 -0.00014072981 -6.84288e-05 -0.0009190829 0.6361954 9.712065e-06 -0.7363718
0.0003462703 0.252014 0.06304324 -0.0007558476 -1.3440178e-05 2.8581264e-06 -0.00018924511 -0.2515527
0.00025415223 -6.1745154e-06 0.13522673 -9.127885e-06 6.0040096e-05 -0.00018355166 4.7066067e-05 -3.0728422e-06
0.0011861932 -0.03774319 2.1375243e-05 -0.40816435 -0.00071451225 0.85566425 0.004490257 -4.571905e-06
5.4966454e-06 7.6210813e-06 4.396475e-05 -0.28447196 1.7213442e-05 6.272662e-06 0.21198995 3.5004676e-05
-0.0010466321 -6.562732e-05 0.00014738792 -6.220734e-05 -5.702656e-05 0.020047791 -1.20487175e-05 -0.27551562
0.0006338596 0.7322063 0.0012556078 0.0004098301 -7.095143e-06 4.424277e-06 5.524344e-05 0.12720783
0.0002339751 4.7266335e-06 -0.024996663 -1.5082069e-05 9.247725e-05 0.0002496536 0.00017714071 4.1914445e-05
0.000114138886 -0.102877975 2.05416e-06 -0.38603434 -0.0003395654 0.76562643 -0.002239364 -0.00010571781

item_embedding.weight f4 [3019, 20]
00000000: d28d eb37 3af9 64b6 436c 2bbd dfb4 8cb6
00000010: 5388 be35 3764 81b6 d9ff 74b8 4fcd 1f38
00000020: 45a3 2ab8 6220 d3bc 4f7f b3b6 c8dd 9a3e
00000030: 412e 8537 419b 40bd 8667 32ba ecbe eb35
00000040: aecd 0ab6 6938 68b7 a4c2 8fb7 a33d 813d
00000050: 7593 5fb8 7d5e 9c36 c234 74bc 95e4 7937
00000060: 1b81 1139 01a9 4b38 57dd f237 34ed 3637
00000070: 2697 ce37 b6bb d03c 58f8 1e36 b8dd 8c3e
00000080: d1d0 c9b8 7a77 d43e 36a0 19ba eaea aab7
00000090: 8a86 f636 551b a2b7 c238 2937 a24e 4b3c
000000a0: 7e07 fd36 1f30 0237 aa33 923c 7a36 ee36
000000b0: b76a 5637 e408 e5b8 4b53 2838 8bad 94b5
000000c0: fddf 1cb9 e60a bc3d 81b6 7eb6 9028 8e3e
000000d0: 00b3 a0b8 ea47 70bd 209d 9e39 6630 85b8
000000e0: 9dad 39b7 0da8 b135 f557 1f38 206a 973e
000000f0: b7e4 0b38 555d 1337 adab 4c3c fa93 91b7
00000100: a6ee 8936 a060 6037 ce66 9337 1c0a 7e37
00000110: 7ae3 0b38 caa2 e93c b7f0 a6b7 8e1c cbbd
00000120: d3b2 1037 3c2e 0cbe 4e38 89b9 344f 24b8
00000130: 4856 46b7 5dfb d636 edc8 6cb6 5399 39be
00000140: e183 5b37 d821 1037 618b 51bb 8519 c336
00000150: 2392 5d38 d107 92b8 39db 9836 ad4c 1437
00000160: 281d a8b7 55f7 4e3c 0f5c 5cb7 1b69 8f3e
00000170: cf97 a038 ea7b 89bd 0d27 8639 bfb4 4438
00000180: 472e 80b6 0b49 4836 2693 df36 388f 323e
00000190: e719 8cb8 0d97 2735 c162 3f3d 8100 52b7
000001a0: f95b 06ba 7630 8d3a 5262 18b9 948e 8ab8
000001b0: 6ba1 203a dd65 d2be 57d8 3fb6 86c7 6d3e
000001c0: f8da 24bb 83c5 443f 65f2 55bc c9f6 103b
000001d0: d0ce d035 d06f 30b7 d20d 2b3a f842 033d
000001e0: 840c 2639 33bc 3b37 d69d a4bc 0b7b 6bb8
000001f0: 28c4 f238 b8ad 85b8 5d42 ff38 6c7e c739
00000200: 6ab5 89b9 ba44 9d3d 9718 9936 2b05 d3be
00000210: 24de 6e39 e382 ef3e 0e12 8cba 70c0 b438
00000220: 216f 1eb7 54e2 fb35 8667 9f35 7e5b 213b
00000230: 8576 37b7 662c d537 fd40 b93b de11 e836
00000240: e5bb df35 54b7 4336 c823 e536 300c 1cb7
00000250: cb34 3c37 bd40 e13c 758e 6db7 173c 4a3e
00000260: 024b 3ab7 90a3 aa3d 96c4 083a 03e0 4bb7
00000270: 3ce4 2936 d983 eb36 1a17 ec36 b16a 923d
00000280: 3fb6 a0b6 1900 bd33 4cac 00be ea39 4db7
00000290: e426 e7b6 fb96 4738 da22 22b8 bf37 ea36
000002a0: 99cb 2638 bd51 583e 9154 a336 b014 673e
000002b0: 2d87 8d38 453a 74be 0398 b3b9 fa45 d937
000002c0: c029 75b7 7351 02b5 b8a1 b9b6 d057 68bd
000002d0: 5997 09b7 ad52 f336 44fd a03c 79f8 13b7
000002e0: 8cda efb8 46f0 b9b8 cfc3 ec37 5886 1c37
000002f0: a760 c537 ef45 533d b730 5637 6647 903a
00000300: d3b5 a2b8 4999 b83e 807c 0c38 a1f2 4bb8
00000310: 06d4 1036 2902 5435 2227 9db7 c8ce 81bd
00000320: 704e 1437 1fac b5b5 a67b e339 602d 1c37
00000330: a01a c637 ec35 c837 4b5c 14b8 3daa 6d37
00000340: cd95 9937 7143 ab3b 8552 22b7 cc50 503e
00000350: 4d77 7038 ab87 a6bc 705b 45b8 ac49 f336
00000360: a035 2c37 dd9e 99b7 e1c7 4938 6a81 3e3e
00000370: 3eb6 c437 6679 45b7 62ec 80bc 9905 1cb4
00000380: 9610 f2b7 48d0 bd37 8345 db37 4f2d e235
00000390: 9e0f 37b8 c18b 1e3d aa20 e937 3006 113e
000003a0: 508c b638 2e6c 36be 1ef0 04ba 0004 e036
000003b0: 9249 0eb8 7be6 8d37 6fe7 5c36 fbd1 ecbd
000003c0: 3d5b 67b7 9b72 da37 a3f8 553d e815 8bb4
000003d0: 125b f438 36f9 95b8 5e44 d937 d631 4f37
000003e0: b8e9 dbb7 1a2d e6bc 6c8b 42b6 5ff0 313e
000003f0: f936 a5b8 a123 d7be f774 183a 17ef 32b8
2.8080223e-05 -3.4119716e-06 -0.041851293 -4.1933813e-06 1.4195779e-06 -3.856166e-06 -5.841241e-05 3.8099763e-05
-4.0683215e-05 -0.025772277 -5.3494364e-06 0.3024733 1.5876374e-05 -0.04702306 -0.00068055873 1.756443e-06
-2.0683324e-06 -1.3841412e-05 -1.7137565e-05 0.063105844 -5.3304673e-05 4.660162e-06 -0.014905157 1.4894777e-05
0.00013876373 4.855637e-05 2.8951717e-05 1.09032735e-05 2.4627498e-05 0.025480133 2.368839e-06 0.27512908
-9.623322e-05 0.41497403 -0.000586036 -2.037497e-05 7.3470337e-06 -1.9324632e-05 1.00864e-05 0.012408884
7.5408598e-06 7.759808e-06 0.017846901 7.0992946e-06 1.27802405e-05 -0.00010921227 4.0131894e-05 -1.1077367e-06
-0.00014960761 0.09181766 -3.795518e-06 0.27765322 -7.662736e-05 -0.058662333 0.00030253176 -6.350949e-05
-1.1067282e-05 1.3236437e-06 3.799047e-05 0.29573154 3.335319e-05 8.783613e-06 0.012492103 -1.7354254e-05
4.1107005e-06 1.3373938e-05 1.7571638e-05 1.51419335e-05 3.3352037e-05 0.028520007 -1.9900834e-05 -0.09917556
8.624705e-06 -0.13689512 -0.00026172627 -3.917441e-05 -1.1821809e-05 6.4069595e-06 -3.5283695e-06 -0.18124895
1.3084123e-05 8.590949e-06 -0.0031973945 5.8144237e-06 5.2826606e-05 -6.9632784e-05 4.555474e-06 8.83934e-06
-2.0040738e-05 0.012632211 -1.3134456e-05 0.28009877 7.657671e-05 -0.06713088 0.00025587567 4.6898374e-05
-3.8200847e-06 2.984484e-06 6.663048e-06 0.17437446 -6.680545e-05 6.2432156e-07 0.04672504 -1.2517093e-05
-0.00051253993 0.0010771889 -0.00014532477 -6.60691e-05 0.0006127569 -0.4109334 -2.8587144e-06 0.23220643
-0.002515493 0.7686388 -0.01305828 0.0022119752 1.5557398e-06 -1.0516451e-05 0.0006525192 0.03204629
0.00015835656 1.1189887e-05 -0.020094793 -5.614296e-05 0.00011575996 -6.374292e-05 0.00012171709 0.0003805043
-0.0002626584 0.07679124 4.562618e-06 -0.4121488 0.00022780203 0.46779546 -0.0010686533 8.618913e-05
-9.443408e-06 1.8766827e-06 1.1876552e-06 0.0024621184 -1.0935245e-05 2.5412253e-05 0.005653499 6.916219e-06
1.6669479e-06 2.9163975e-06 6.8288973e-06 -9.301162e-06 1.1217965e-05 0.02749669 -1.4159469e-05 0.19749485
-1.1103928e-05 0.08331978 0.0005217282 -1.21519e-05 2.5315812e-06 7.018895e-06 7.0360375e-06 0.07149256
-4.789588e-06 8.801016e-08 -0.12565726 -1.2232436e-05 -6.888864e-06 4.758591e-05 -3.8656268e-05 6.980233e-06
3.97671e-05 0.2112493 4.8676234e-06 0.22566485 6.7485824e-05 -0.23850353 -0.00034254798 2.5901001e-05
-1.4612859e-05 -4.85473e-07 -5.532256e-06 -0.05672437 -8.201075e-06 7.251589e-06 0.019652016 -8.819735e-06
-0.000114371156 -8.866242e-05 2.8224573e-05 9.329604e-06 2.3529237e-05 0.051580366 1.2766736e-05 0.0011007607
-7.758629e-05 0.36054447 3.349455e-05 -4.8624937e-05 2.1581086e-06 7.89793e-07 -1.8734081e-05 -0.063382685
8.83975e-06 -1.3535645e-06 0.0004338894 9.308889e-06 2.3615838e-05 2.3866967e-05 -3.5371904e-05 1.41659375e-05
1.8308778e-05 0.0052265455 -9.6751655e-06 0.20343322 5.7331566e-05 -0.020328363 -4.7053618e-05 7.250541e-06
1.0264484e-05 -1.8312998e-05 4.8108286e-05 0.18604055 2.3449884e-05 -1.177038e-05 -0.015737716 -1.4530669e-07
-2.8856372e-05 2.2627544e-05 2.6139203e-05 1.6851499e-06 -4.3645145e-05 0.0387075 2.7790975e-05 0.14162517
8.7045715e-05 -0.17814705 -0.00050711806 6.676186e-06 -3.3923956e-05 1.6915836e-05 3.2917267e-06 -0.11563488
-1.3789916e-05 2.6040992e-05 0.05223907 -2.5906706e-07 0.0001165179 -7.151293e-05 2.5900252e-05 1.2349765e-05
-2.6215668e-05 -0.028097678 -2.8989407e-06 0.1737685 -7.8780526e-05 -0.4201937 0.0005815769 -4.2661177e-05

linear_trans_neigh.weight f4 [20, 20]
00000000: 8390 5138 bd31 d936 1c80 2f3e 117f 5db7
00000010: ed59 1b3c 3f9c 80ba e2dc 09b9 becf 3aba
00000020: 65a8 04ba f50b 593e cb73 3239 691c c53e
00000030: dffc 9a3b 37f8 c93e aca3 e9bc 6e93 a83a
00000040: 8227 1e3d 44b0 8536 06a1 cab8 bfd2 b53e
00000050: aebe 5639 bbd8 deb5 4618 443e c109 95bb
00000060: 7ce8 183c bd10 97ba ddaa 69b8 d5ad c637
00000070: 86e2 04bb 498f 4a3e 6424 43b8 feb6 b63e
00000080: 5bed f13b cad2 ca3e 4c99 7cbd d2d6 753a
00000090: dd5b 1bbd 8fcf 1dba 180c b738 3a90 a03e
000000a0: c27f d3b8 32c4 47b7 b111 443e f2a1 b637
000000b0: a54b 073b b273 8aba fe91 5e39 0e46 8f39
000000c0: 97c5 b03b 4fb4 503e 9c6a 9333 073c af3e
000000d0: 4593 223b bcce ca3e 11e1 14bd 5433 653a
000000e0: 996f 04ba 5e92 9f3d 801b 9338 0485 b93e
000000f0: 2b75 ae38 e0a2 82b8 fbeb bb3b 6480 1a39
00000100: cfd7 d93b dcfb 16ba e4d9 ebb8 ec3d b4b8
00000110: 3793 36b9 30c4 563e bb75 6f37 38ab c63e
00000120: c958 58bb ae11 c33e a82d 49bd bb31 0b3a
00000130: 0408 bb38 0061 03ba 823c 073a 6122 b83e
00000140: 19b6 a83d 35eb dab8 367f 873d 8d94 c9b7
00000150: 2904 ffba 837f 69ba 4744 29b9 63bc 2539
00000160: 52fc 18bb 45e6 4a3e eac9 0934 9f26 893e
00000170: a427 f4bd fbae 973e 6dea 43bd 467f 0d3a
00000180: 3987 03b7 6309 6bb8 4a11 e1bc b982 3b3e
00000190: 61fa 8cb8 7f20 abb8 d306 2d3e 3a15 2ab8
000001a0: ccfe ab3c 004b 31ba 1283 feb8 8a98 1339
000001b0: 3a00 a7b9 132f 4e3e 65a9 2bb9 6678 bd3e
000001c0: 5f45 57bb 10c8 ca3e 274a 18bd 4462 4f3a
000001d0: 215a c138 9f30 30bc 9334 b037 e6c8 b93e
000001e0: ccd9 6639 8f20 543a 415a 3c3e c895 00b8
000001f0: a0ec 8e3b 6c8a 413a 2d15 07b9 de20 91b8
00000200: cb6f 11ba fc7f 4a3e c1b8 bd37 e0b3 cc3e
00000210: 9580 583b 59ec bd3e 123e a9bc bf7a 4d3a
00000220: c08b a538 2986 66b7 15d6 e838 ec67 a13e
00000230: 58b3 0d38 cea1 72b8 0cc5 283e e825 87b7
00000240: ddcc 983c 1276 0f3a b7a9 21b9 9b26 8939
00000250: 1753 5cbd d27d 5a3e 5cfb b7b8 03c8 cb3e
00000260: e355 55bb f18e ca3e e36d ac3c d12d 673a
00000270: e856 d636 8279 b038 48b2 5cb9 61a2 bb3e
00000280: 5d0e 1938 831b 8b37 ff0d 363e d5c5 babd
00000290: c72f 903a 4d4c 9c39 daf4 d8b9 000f 6939
000002a0: dda6 4cba 4d93 183e 75a1 3c38 2c55 993e
000002b0: bbc8 54bb 031e be3e 5ec9 9bbc f660 6c3a
000002c0: a1c6 bb36 8afd 8136 11b7 dc38 818f b33e
000002d0: 4e5f efb8 9e01 19b9 48b0 433e 535f 85b7
000002e0: e06c 323c 2f35 9fba 073b 35ba 68cb afb8
000002f0: bb45 06bb dcbc 5f3e b99a acb9 d679 ba3e
00000300: 0aff 55bb 9ed4 ca3e 02e9 6bbd 2e77 6d3b
00000310: 59a7 67bd 1418 dab6 d74b db3a 2306 b93e
00000320: 525b 3ebb 9e04 c2b5 7061 3e3e 76c1 5e37
00000330: a8c6 ef3b 85f3 8d3c e580 2ab9 756c cabc
00000340: 8075 0739 b5d8 533e 01ee 16bd 10ee b73e
00000350: 758c 473c 40c4 c73e 9d33 08bd 7443 7b3a
00000360: 41e4 5cb8 6b03 2039 5728 e8b8 f852 ba3e
00000370: 6d73 0238 f731 b7b8 b476 413e 8be5 0db8
00000380: 242f f3bd 6bd1 8aba ac59 24ba e329 6139
00000390: e608 2d39 a16a 4d3e 2981 953c 96d5 cd3e
000003a0: c3b8 55bb 7ad4 ca3e 1595 64bd 34c7 2fba
000003b0: f28a ffbb 3245 9838 c039 76b9 93c4 b03e
000003c0: bdbd 7137 fb8a e7b9 5c9e 2f3e 0c8c 6e3d
000003d0: b1da 273c 2f30 b7ba 41bc d838 002c 7db8
000003e0: 6dfb 1abb 5ef3 423e a9eb b6b6 e79b b73e
000003f0: 667b 603c af15 a63e 7e5f cebc ae2f 9b3c
4.996407e-05 6.4728943e-06 0.17138714 -1.3202211e-05 0.009481889 -0.000981219 -0.00013147623 -0.0007126293
-0.0005060493 0.21195967 0.00017018539 0.38498238 0.0047298516 0.39447185 -0.028520428 0.001286132
0.038611896 3.984229e-06 -9.6621035e-05 0.3551235 0.00020479664 -1.6603366e-06 0.19149885 -0.004548282
0.009332772 -0.0011525374 -5.5710658e-05 2.3684386e-05 -0.002027662 0.19781221 -4.6525514e-05 0.35686487
0.0073830313 0.39613944 -0.061669633 0.0009378019 -0.037929405 -0.00060200033 8.7283726e-05 0.31360036
-0.00010085061 -1.1907005e-05 0.19147374 2.1771502e-05 0.0020644453 -0.0010563044 0.00021225956 0.0002732728
0.0053946483 0.20381282 6.864613e-08 0.34225485 0.0024807018 0.3961085 -0.036347453 0.0008743305
-0.000505203 0.07791589 7.0146285e-05 0.36234295 8.318791e-05 -6.229221e-05 0.005734918 0.00014734414
0.006648041 -0.0005759576 -0.000112462585 -8.594603e-05 -0.00017411714 0.20973277 1.4272921e-05 0.38802505
-0.0033011904 0.38099426 -0.049115807 0.00053098396 8.918348e-05 -0.00050117075 0.00051588577 0.3596373
0.08237857 -0.00010438861 0.066160604 -2.4030242e-05 -0.0019456196 -0.00089072454 -0.00016142531 0.00015805806
-0.0023343754 0.19814403 1.2832575e-07 0.26787278 -0.11921623 0.29625687 -0.047830988 0.00053976884
-7.839692e-06 -5.6037108e-05 -0.027474064 0.18311585 -6.722357e-05 -8.159968e-05 0.16897134 -4.0550927e-05
0.02099552 -0.000676319 -0.000121360776 0.00014075838 -0.0003185289 0.20135145 -0.00016370935 0.3700592
-0.0032847745 0.3960576 -0.037180092 0.0007911066 9.219745e-05 -0.01075378 2.1005317e-05 0.36286086
0.00022015645 0.000809201 0.18393804 -3.0657073e-05 0.004361704 0.0007382992 -0.00012882492 -6.920261e-05
-0.00055479695 0.19775385 2.2616588e-05 0.39980984 0.0033035625 0.3709438 -0.02065948 0.000783842
7.8938436e-05 -1.3740305e-05 0.00011102498 0.315246 3.3784047e-05 -5.784799e-05 0.16481417 -1.6110906e-05
0.018652374 0.0005472611 -0.0001541738 0.0002615944 -0.05379018 0.21337059 -8.772939e-05 0.39801034
-0.0032552413 0.3956218 0.021048492 0.0008818778 6.387814e-06 8.4149666e-05 -0.0002104725 0.36647323
3.649142e-05 1.6582902e-05 0.17778777 -0.09119765 0.0011000567 0.00029811487 -0.0004138116 0.000222262
-0.0007806847 0.14899941 4.497306e-05 0.29947793 -0.0032468277 0.37132272 -0.019016918 0.0009017134
5.5961577e-06 3.8740154e-06 0.00010524516 0.35070422 -0.0001141416 -0.0001459182 0.19110215 -1.5899224e-05
0.010890216 -0.0012146587 -0.0006913398 -8.3825376e-05 -0.002048834 0.21849388 -0.00032921674 0.36421078
-0.0032653236 0.3961534 -0.05759526 0.0036234367 -0.05655608 -6.4997093e-06 0.0016730976 0.36137494
-0.002904613 -1.445547e-06 0.18591857 1.3277275e-05 0.007317383 0.017328033 -0.0001626048 -0.02470992
0.00012918375 0.20688136 -0.036848072 0.35923815 0.012179484 0.39016914 -0.033252347 0.00095849414
-5.2664665e-05 0.00015260062 -0.00011070136 0.36391425 3.1101914e-05 -8.735427e-05 0.18892938 -3.38308e-05
-0.11874226 -0.0010590976 -0.00062694657 0.00021473276 0.0001650188 0.20060207 0.018250065 0.40202016
-0.0032611347 0.39615232 -0.05580624 -0.0006705404 -0.007798546 7.2608134e-05 -0.00023481902 0.34524974
1.4408896e-05 -0.00044163302 0.17150253 0.058239028 0.010245011 -0.0013976152 0.00010334748 -6.036088e-05
-0.0023648397 0.1903815 -5.451457e-06 0.35861132 0.0137012955 0.32438418 -0.025192019 0.018943634
