best_para_path/ciao100.10.20.70.250.251.05.00.5_p10_20gatv2_spill_var2_wo_att_explicit_seed0_ex1_0.1_1e-05_0.001_0.01.pt (torch, 448830 bytes, 3 tensors)

user_embedding.weight f4 [2541, 20]
0	0x3f06c492	0.5264369
1	0xbe522fbe	-0.20526025
2	0x3f573ee9	0.8408037
3	0xbd9890c6	-0.07449488
4	0x3efbe6b7	0.4919946
5	0xbf931eef	-1.1493815
6	0xbdefa085	-0.117005385
7	0xbf9cf8f8	-1.2263479
8	0x3e716e59	0.2357725
9	0xbf8cfb6c	-1.1014228
10	0xbde34e72	-0.11098947
11	0xbeff8245	-0.49904075
12	0xbf126465	-0.5718444
13	0x3eadb5b9	0.33927706
14	0x3f98c52d	1.1935173
15	0xbf24f737	-0.6443972
16	0x3db2cacc	0.08730087
17	0x3dc110a2	0.094270006
18	0xbe2928be	-0.16519448
19	0xbcdbb82f	-0.026821224
20	0x3de8de59	0.113705344
21	0x3e07c5f4	0.13259107
22	0x3f9c3fcf	1.2206973
23	0xbda1079f	-0.07862782
24	0x3f996b4c	1.198587
25	0xbf01f777	-0.50768226
26	0xbf594d37	-0.84883446
27	0xbf24c2d1	-0.64359766
28	0xbf672106	-0.90284765
29	0x3f14de6e	0.581519
30	0x3ee5160a	0.44743377
31	0xbef75616	-0.48307866
32	0xbd42f87e	-0.047600262
33	0x3f3444ed	0.7041767
34	0x3e962c0f	0.2933049
35	0x3f061969	0.5238252
36	0x3e6cec9f	0.23137139
37	0x3eb6efbe	0.35729784
38	0x3f015516	0.50520456
39	0xbe444fd5	-0.19171079
40	0x3e958278	0.29201102
41	0xbf58c1c9	-0.8467069
42	0xbfacb5dc	-1.3492999
43	0x3e51b332	0.20478514
44	0x3f0f0910	0.55873203
45	0xbf4b7fb6	-0.79491746
46	0xbe2f227c	-0.17102998
47	0xbf9fd2a0	-1.2486153
48	0x3d956735	0.07295076
49	0xbf39ac5c	-0.72528625
50	0xbb611453	-0.003434439
51	0xbf8ce86b	-1.1008428
52	0xbeade83c	-0.33966243
53	0x3ebd2369	0.36941078
54	0x3e1cc0e1	0.15307952
55	0xbd20de5c	-0.03927456
56	0x3daa7aad	0.0832418
57	0xbea3df1e	-0.32006162
58	0xbec2d7ce	-0.3805527
59	0xbe8b2ee0	-0.271842
60	0x3e1d71bf	0.15375422
61	0x3e6e89cf	0.23294757
62	0x3f52ed43	0.8239328
63	0xbecdf17f	-0.4022331
64	0x3f62ddbf	0.8861961
65	0xbf259869	-0.64685684
66	0xbf7f4d09	-0.9972692
67	0xbe02be61	-0.12767936
68	0x3f547373	0.8298866
69	0xbef038cc	-0.46918333
70	0x3e11b338	0.14228523
71	0xbf5699c4	-0.8382838
72	0xbd85d3a5	-0.065345086
73	0x3efbc985	0.49177185
74	0xbf23e5bd	-0.6402243
75	0xbe6f38ca	-0.23361507
76	0xbedc7c86	-0.43063754
77	0xbec1efbf	-0.37878224
78	0x3dcdeee7	0.10055333
79	0xbf184c1f	-0.5949115
80	0xbe866636	-0.26249856
81	0x3daad67e	0.083416924
82	0xbfb6153a	-1.4225228
83	0x3f544fce	0.8293427
84	0x3f51cdbf	0.8195457
85	0x3ce10eb9	0.02747284
86	0x3ed9664a	0.42460853
87	0x3dbc4901	0.09193612
88	0x3e0bf114	0.13666183
89	0x3eb521ab	0.3537725
90	0x3e9b82ba	0.30373174
91	0xbf88b42b	-1.0679983
92	0xbd853c82	-0.065056816
93	0x3eb7ed57	0.35923263
94	0x3e6fc4e8	0.23414958
95	0xbd96eaf9	-0.07369036
96	0x3da3571b	0.079755984
97	0x3cb5bfd6	0.022186201
98	0x3db5732f	0.0885986
99	0xbe4dcc77	-0.20097528
100	0x3de7a3a8	0.11310512
101	0x3f073aaf	0.5282392
102	0x3e823f35	0.25438848
103	0xbcd1f89b	-0.02563124
104	0x3e9d4461	0.3071623
105	0xbf7be039	-0.9838901
106	0xbf03e5e2	-0.5152265
107	0xbf819ecb	-1.0126585
108	0x3dc8385c	0.09776375
109	0x3b676ed9	0.0035313873
110	0x3dd6309e	0.10458492
111	0xbf602f3e	-0.87572086
112	0xbfa42d6a	-1.2826359
113	0xbf04fd8b	-0.51949376
114	0x3f701414	0.93780637
115	0x3f252d00	0.6452179
116	0xbf4c22c0	-0.79740524
117	0xbf25b1c5	-0.6472438
118	0x3f3ef267	0.74588627
119	0x3ebb5ba2	0.36593348
120	0xbef486aa	-0.4775899
121	0xbbb2c434	-0.005455518
122	0x3fa49b72	1.2859938
123	0x3e9984c3	0.29984102
124	0xbe86bf61	-0.26317886
125	0xbe81a4b1	-0.25320962
126	0xbf2cb36a	-0.67461264
127	0xbea1b7db	-0.31585583
128	0xbe865881	-0.26239398
129	0x3bb78b57	0.0056013274
130	0xbd976a6e	-0.07393347
131	0xbe7f72f2	-0.24946192
132	0xbef68642	-0.48149306
133	0x3f93937d	1.1529385
134	0x3e8663b6	0.26247948
135	0x3dcbda8a	0.099537924
136	0x3f031e30	0.5121794
137	0x3dc53950	0.09630072
138	0x3e250f7b	0.16119187
139	0x3ecd92ab	0.4015096
140	0xbeb72b51	-0.35775235
141	0x3eb38ce2	0.35068423
142	0xbf75a289	-0.95951134
143	0x3e5aaacb	0.21354215
144	0x3f88739c	1.0660281
145	0xbc2409b7	-0.010012082
146	0xbebadee7	-0.36498186
147	0xbe1da280	-0.1539402
148	0xbdba2546	-0.090891406
149	0x3e059b1a	0.13047448
150	0xbe85c821	-0.2612925
151	0xbf261f60	-0.64891624
152	0x3f27aef5	0.6550134
153	0xbe5b9712	-0.21444348
154	0x3f0fa276	0.5610727
155	0xbea3057d	-0.31840125
156	0xbe5217eb	-0.20516936
157	0x3ed455e6	0.41471785
158	0xbef8e496	-0.48611897
159	0xbed2e64b	-0.41191325
160	0x3e13cb6e	0.14433071
161	0xbeb6109c	-0.35559547
162	0x3f49f376	0.78887117
163	0x3d1d5730	0.038413227
164	0xbee6ba30	-0.45063925
165	0x3f9f39a4	1.2439466
166	0x3f8f0f7f	1.1176604
167	0x3f8d1a54	1.102366
168	0xbf1d4b3f	-0.6144294
169	0x3f9aaa9b	1.2083315
170	0xbf8acc26	-1.0843551
171	0xbf7c2419	-0.9849258
172	0x3ed19422	0.4093333
173	0xbd100155	-0.03515752
174	0x3eee9ded	0.46604863
175	0x3e79058c	0.24318522
176	0x3f142d4e	0.5788163
177	0x3e5c9722	0.21542028
178	0xbe5ae5d1	-0.2137673
179	0x3f6f9046	0.9357952
180	0xbef35245	-0.47523704
181	0x3ef82534	0.48465884
182	0xbe858e6c	-0.26085222
183	0x3f000543	0.5000803
184	0x3f38e269	0.72220474
185	0x3e99d352	0.30044037
186	0xbe998a52	-0.29988343
187	0xbe766529	-0.24062027
188	0x3d15228b	0.036409896
189	0x3eac8f27	0.33702967
190	0xbebc9b44	-0.36837208
191	0xbfa2484a	-1.2678311
192	0x3f1bc4ba	0.60847056
193	0xbeaee826	-0.3416149
194	0x3f151898	0.5824065
195	0xbfa4b4f4	-1.2867723
196	0xbece5e28	-0.4030621
197	0xbe9c4e89	-0.30528668
198	0xbe5521c7	-0.20813666
199	0xbf9f775f	-1.2458304
200	0xbc743a67	-0.014906502
201	0x3e7ec907	0.24881373
202	0xbf756a30	-0.95865154
203	0xbe86c186	-0.26319522
204	0x3e8c4154	0.2739359
205	0xbf06fd29	-0.5273004
206	0xbfbcf58e	-1.4762437
207	0xbf47caf1	-0.7804404
208	0x3ea3bb3c	0.31978786
209	0x3e6b7197	0.2299255
210	0xbe2872fd	-0.16450115
211	0xbf4527ff	-0.77014154
212	0x3e9749db	0.29548535
213	0xbf5b5974	-0.8568337
214	0x3d9353e7	0.071937375
215	0xbf38d805	-0.7220462
216	0x3f13683f	0.5758094
217	0x3e579d83	0.2105618
218	0xbdc7a493	-0.09748187
219	0xbe139790	-0.14413285
220	0xbef8c0e6	-0.4858467
221	0x3e921d7b	0.28538117
222	0xbf03379e	-0.5125674
223	0xbf152382	-0.58257306
224	0x3f5941dc	0.8486612
225	0xbeca16ad	-0.39470425
226	0xbc0e2bda	-0.008677447
227	0xbf929354	-1.1451211
228	0x3ed28dcd	0.4112381
229	0xbe99e335	-0.30056158
230	0xbe63686b	-0.22207801
231	0xbf3c9969	-0.73671585
232	0xbf16e8d4	-0.5894902
233	0x3de82016	0.11334245
234	0x3f83f4af	1.0309047
235	0x3f9c72d1	1.2222539
236	0x3e69ffcf	0.2285149
237	0xbe71b622	-0.23604634
238	0x3d7c51fb	0.06160162
239	0x3cb0846b	0.021547517
240	0x3d87d1b3	0.06631794
241	0xbcb836fe	-0.02248716
242	0x3e537aa1	0.20652248
243	0xbe1da61d	-0.15395398
244	0xbd551e96	-0.052031122
245	0xbeadcd9a	-0.33945924
246	0xbf08950b	-0.5335242
247	0xbd64d562	-0.05586756
248	0x3e8f659a	0.28007203
249	0x3ee5aa40	0.44856453
250	0x3e367ac1	0.17820264
251	0xbf4e0cf0	-0.8048849
252	0x3d63c7eb	0.05561058
253	0x3f987998	1.1912107
254	0x3ea70b59	0.32625845
255	0x3e4dbdd7	0.2009195

item_embedding.weight f4 [3019, 20]
0	0xbd86a14d	-0.065737344
1	0xbcb644c4	-0.022249587
2	0x3e4bffaa	0.19921747
3	0x3c103cfa	0.0088036
4	0x3e54d9a5	0.2078615
5	0xbe0b2d83	-0.1359158
6	0x3dd60038	0.104492605
7	0xbe5eb486	-0.21748552
8	0x3de2e165	0.11078147
9	0xbebcadbe	-0.36851305
10	0xbb515efd	-0.0031947487
11	0x3f421f40	0.75828934
12	0x3e0b4bd5	0.13603146
13	0xbccbe034	-0.024887182
14	0x3e3bfdd6	0.1835855
15	0xbdb115ad	-0.086467125
16	0xbcbe14d9	-0.0232033
17	0xbdff2192	-0.12457575
18	0xbe642e2d	-0.2228324
19	0xbd61ec62	-0.055157073
20	0x3b04b8f4	0.0020251842
21	0x3b8616d8	0.0040920787
22	0x3e6aec4b	0.22941701
23	0x3c2b0d33	0.010440159
24	0x3ea51cec	0.32248628
25	0xbec8b8dc	-0.39203537
26	0xbf25b0b0	-0.6472273
27	0xbf03f968	-0.5155244
28	0x3ee8a1d3	0.45435962
29	0xbdb39d2e	-0.08770214
30	0x3da4e14a	0.08050783
31	0x3f257ff6	0.6464838
32	0xbe9a01d4	-0.3007952
33	0xbc3999f9	-0.011328214
34	0x3d866bb6	0.06563513
35	0x3c5fae5d	0.013652411
36	0xbda27ece	-0.07934342
37	0xbe0c6ffa	-0.1371459
38	0x3e19b8a4	0.15011841
39	0xbe6187b7	-0.22024427
40	0x3e56a155	0.20959981
41	0x3b2c8402	0.00263238
42	0x3e845155	0.258433
43	0xbd478bea	-0.048717417
44	0xbe04b578	-0.1295985
45	0xbdf8394a	-0.12120302
46	0x3c712d9c	0.014720347
47	0xbc985364	-0.018594451
48	0xbec1c209	-0.3784335
49	0xbdfe40a3	-0.12414672
50	0xbce9b79e	-0.028529938
51	0x3f4b71f9	0.79470783
52	0xbdde85b2	-0.10865344
53	0xbecab386	-0.3959009
54	0xbc6d0631	-0.014466808
55	0xbd29bc21	-0.04143918
56	0x3d35ffef	0.04443353
57	0x3db45077	0.0880441
58	0x3d5faf2e	0.054610424
59	0x3e48e504	0.19618613
60	0xbe65ac7b	-0.22429077
61	0xbde6db2e	-0.11272274
62	0x3ea3a8a9	0.31964615
63	0x3f1b3281	0.6062394
64	0xbe7a67af	-0.24453615
65	0x3e851685	0.25993744
66	0x3ede3eec	0.4340738
67	0x3e707fef	0.23486303
68	0xbcb99926	-0.022656035
69	0xbd39c2f7	-0.04535195
70	0x3d6fae68	0.058515936
71	0xbe5e9b92	-0.21739033
72	0xbdcddfb7	-0.10052436
73	0x3e5427e1	0.20718338
74	0x3e2bdcb7	0.16783415
75	0x3ddae6dd	0.10688565
76	0xbe265df6	-0.16246781
77	0xbd9256db	-0.071454726
78	0xbe394820	-0.1809392
79	0xbeac533a	-0.33657247
80	0x3e32aa5f	0.17447804
81	0xba3cd4ec	-0.00072033587
82	0x3e86b226	0.2630779
83	0x3c706b54	0.0146740265
84	0xbd660a27	-0.056162026
85	0xbe382fe2	-0.17987016
86	0xbda09bee	-0.07842241
87	0xbe4ae736	-0.19814762
88	0x3d971983	0.07377913
89	0xbf081089	-0.5315023
90	0xbdbc0163	-0.09179952
91	0x3e1b1519	0.15144767
92	0xbe8a2008	-0.26977563
93	0xbeec078d	-0.4609951
94	0xbdaa17f3	-0.08305349
95	0x3e00b375	0.12568457
96	0x3d9aba06	0.075550124
97	0xbbd0cae4	-0.0063718427
98	0xbddd1ff9	-0.10797114
99	0x3d9d44f8	0.0767917
100	0x3e47641f	0.19471787
101	0x3e9a6a01	0.30159
102	0xbeb7bd3f	-0.3588657
103	0x3ea755e2	0.3268271
104	0x3f84618b	1.0342268
105	0xbfaa6cb7	-1.3314427
106	0x3db806e0	0.08985686
107	0xbf570d96	-0.84005105
108	0xbea42193	-0.32056865
109	0xbe48d164	-0.19611126
110	0xbde60518	-0.1123144
111	0x3f346abe	0.70475376
112	0x3f1092c7	0.56473964
113	0x3f8d01c1	1.101616
114	0xbe8bf88c	-0.27338064
115	0x3f722dea	0.9460131
116	0x3ea6b671	0.32561067
117	0xbd8305f3	-0.06397619
118	0xbd9f591d	-0.07780669
119	0xbf0885e9	-0.5332933
120	0xbd81e282	-0.06342031
121	0x3e15e813	0.1463931
122	0xbf1faaa0	-0.6236973
123	0xbe3a7450	-0.18208432
124	0x3f5824f3	0.8443138
125	0xbe819771	-0.25310853
126	0xbf00a127	-0.502459
127	0xbf602114	-0.87550473
128	0x3eacf2bc	0.33778942
129	0x3ee120ab	0.43970236
130	0x3dc9258b	0.09821614
131	0xbe4615ca	-0.1934425
132	0xbed0a687	-0.4075205
133	0x3eea0906	0.4571001
134	0xbed00ab5	-0.4063317
135	0x3ef42a9d	0.4768876
136	0x3e23f773	0.16012363
137	0xbdb44ca4	-0.088036805
138	0xbed44730	-0.41460562
139	0xbeea554f	-0.4576821
140	0x3dd15bf6	0.10222618
141	0xbd1554c9	-0.03645781
142	0x3ecbb0bc	0.39783275
143	0xbdce7c0a	-0.10082252
144	0xbe0fa714	-0.14028579
145	0xbeb3dbe3	-0.35128698
146	0xbe90e27b	-0.2829779
147	0xbeb96339	-0.36208513
148	0xbd820ef0	-0.06350505
149	0xbe4384e2	-0.1909366
150	0xbe69ca0c	-0.22830981
151	0x3eb9b508	0.36270928
152	0xbe78a899	-0.24283065
153	0x3e42bd63	0.19017558
154	0xbec932a9	-0.39296463
155	0x3e7a9d7a	0.24474135
156	0xbdb1ad80	-0.086756706
157	0xbd633300	-0.05546856
158	0xbe974f5c	-0.29552734
159	0xbc803194	-0.01564864
160	0xbd339bb3	-0.04384966
161	0x3cab403b	0.02090465
162	0xbe88e90f	-0.2674031
163	0x3ce09dfd	0.027419085
164	0xbe89f703	-0.26946267
165	0x3df2fc79	0.118645616
166	0x3e3f3a72	0.18674639
167	0x3dc42ce0	0.09578872
168	0xbd46ad18	-0.04850492
169	0xbe968a34	-0.29402316
170	0xbc7a01a1	-0.015259177
171	0x3f3b2c43	0.73114413
172	0x3c5ddba3	0.013541135
173	0xbed93872	-0.42425877
174	0xbdb87d2b	-0.09008249
175	0x3dd9e2c9	0.10638959
176	0x3d95e85a	0.07319708
177	0x3ce4c39b	0.027925303
178	0x3cc56f13	0.024100816
179	0xbb2f7101	-0.0026770236
180	0x3d60a7a3	0.05484737
181	0xbd230812	-0.03980262
182	0xbedf34b0	-0.43594885
183	0xbb811812	-0.003939637
184	0x3ea9f3c5	0.33193794
185	0xbe314c17	-0.17314182
186	0xbe6809f5	-0.22660048
187	0xbe314c00	-0.17314148
188	0x3de7572a	0.11295922
189	0x3daeac4e	0.08528958
190	0x3c4a6a45	0.012354438
191	0x3e54006c	0.20703286
192	0x3cb15bc6	0.021650206
193	0xbec133d8	-0.37734866
194	0x3e041827	0.12899838
195	0xbd15916b	-0.036515635
196	0xbc73405c	-0.014846887
197	0x3c00fbfb	0.007872577
198	0xbd8eecc1	-0.06978751
199	0xbf17d58d	-0.5931023
200	0xbea03c01	-0.3129578
201	0xbe144b32	-0.1448181
202	0x3ebe55d8	0.3717487
203	0xbdb22e4e	-0.08700238
204	0x3e348559	0.17628993
205	0xbc97e1fd	-0.018540377
206	0xbe8a49b2	-0.2700935
207	0xbea5ea3d	-0.32405272
208	0x3d8af2af	0.067845695
209	0x3d6562a6	0.05600228
210	0xbdc4e30c	-0.09613618
211	0x3e626b64	0.22111279
212	0x3e364c27	0.17802487
213	0xbee56feb	-0.4481195
214	0x3e26ecac	0.1630122
215	0x3e431831	0.19052197
216	0xbd40b52e	-0.047047786
217	0xbe69e463	-0.22841029
218	0xbe418fbd	-0.18902488
219	0xbe07ddec	-0.1326825
220	0x3ee0338e	0.43789333
221	0xbe1ab521	-0.15108158
222	0xbcadf007	-0.021232618
223	0x3dab37b2	0.083602324
224	0xbef9b4aa	-0.48770648
225	0xbd5c047b	-0.05371521
226	0x3db6f85e	0.08934091
227	0x3e3b63ae	0.18299744
228	0xbde6233d	-0.1123719
229	0xbe853b0c	-0.26021612
230	0xbdbe52e5	-0.092931546
231	0x3e10fd2e	0.1415908
232	0xbe289540	-0.16463184
233	0xbe979b8e	-0.29610866
234	0xbdbb30eb	-0.0914019
235	0xbed00d82	-0.40635306
236	0xbe3c680d	-0.18399067
237	0x3e85841b	0.2607735
238	0x3d0a806c	0.03381388
239	0xbebd8dae	-0.37022156
240	0x3d8a52cc	0.067540735
241	0xbc8ff5d5	-0.017573277
242	0x3e2fc2fc	0.17164224
243	0xbda05a7f	-0.07829761
244	0xbe37ecb7	-0.17961393
245	0xbd064cdc	-0.032788143
246	0x3d8e0285	0.06934074
247	0x3e1cfcb5	0.15330775
248	0xbe9916ca	-0.299002
249	0xbe9a3db3	-0.30125198
250	0xbb99cf9a	-0.0046939375
251	0x3f205f33	0.6264526
252	0x3ed51353	0.41616306
253	0xbf036502	-0.51326
254	0x3d8119ce	0.0630375
255	0xbda3e4cc	-0.08002624

linear_trans_neigh.weight f4 [20, 20]
0	0xbdad5761	-0.08463932
1	0x3cc33670	0.023829669
2	0x3e59342f	0.21211313
3	0x3df3bf80	0.1190176
4	0xbcdc4356	-0.026887577
5	0x3da20d08	0.07912642
6	0x3dbc2aa3	0.0918782
7	0x3e8db7b6	0.27679223
8	0xbcf7723f	-0.030205844
9	0x3e3429dc	0.17594093
10	0xbe4d4cb9	-0.20048799
11	0x3e0bfeae	0.13671371
12	0xbe618400	-0.2202301
13	0x3e886987	0.2664301
14	0xbe4c941b	-0.19978373
15	0xbe8fb244	-0.28065693
16	0x3edeb326	0.43496054
17	0x3ccba0d8	0.02485697
18	0x3cc57462	0.024103347
19	0x3b05c4f8	0.0020411592
20	0x3e5faecf	0.21844028
21	0x3b614d18	0.0034378227
22	0x3bc6ad02	0.0060631046
23	0xbea2f2aa	-0.31825763
24	0xbe09e4f7	-0.1346625
25	0x3d4435d0	0.047902882
26	0xbe4fad6d	-0.20281
27	0x3e690f5b	0.22759764
28	0x3dd4032d	0.10352168
29	0x3eca18b8	0.39471984
30	0x3d1f883a	0.038948275
31	0x3cf46c9d	0.029836947
32	0x3a93cf3a	0.0011276968
33	0x3e457288	0.19281971
34	0xbccf3c54	-0.025297321
35	0xbd376996	-0.04477843
36	0xbededd35	-0.43528143
37	0xbe8e639a	-0.27810365
38	0x3b598713	0.0033192083
39	0xbde693a6	-0.112586305
40	0x3e1cb0a8	0.15301764
41	0xbc6f6c47	-0.014613218
42	0xba9e672b	-0.001208519
43	0x3be2edcd	0.0069253207
44	0x3df76e7b	0.12081619
45	0xbe5eea74	-0.21769124
46	0xbe1ead78	-0.1549586
47	0x3e414a0c	0.18875903
48	0xbe2f7c07	-0.17137156
49	0xbdb4e392	-0.08832468
50	0xbd35a715	-0.044348795
51	0xbba7f27b	-0.0051253415
52	0x3da39f24	0.07989338
53	0x3e4326d3	0.19057779
54	0xbe28471e	-0.16433379
55	0xbea101c5	-0.31446663
56	0x3e669abf	0.22519968
57	0x3f03eb67	0.5153107
58	0x3d4570b1	0.048203174
59	0x3e742225	0.2384115
60	0x3ddbcac0	0.10732031
61	0x3dec8daf	0.115504615
62	0xbee684af	-0.45023105
63	0x3e3ceefe	0.18450543
64	0xbe291f57	-0.16515861
65	0x3dd5a7a4	0.104323655
66	0x3e7f421d	0.24927564
67	0xbd9bad60	-0.07601428
68	0x3e382798	0.17983854
69	0x3e445dbd	0.19176383
70	0xbb5cec2d	-0.0033710108
71	0x3e18cb7f	0.14921378
72	0x3e6d117e	0.23151204
73	0x3d8d6317	0.069036655
74	0xbde69614	-0.11259094
75	0x3be3b02c	0.0069484916
76	0xbde2b83b	-0.110702954
77	0x3e706c9f	0.23478936
78	0xbe8411d2	-0.25794846
79	0x3cc80139	0.024414646
80	0x3f0a5ae4	0.5404494
81	0xbe3b4f12	-0.18291882
82	0xbeb78f16	-0.35851353
83	0x3a9fc07f	0.0012188106
84	0x3e89a3b1	0.268827
85	0x3daf2e82	0.085537925
86	0x3e04a99d	0.12955327
87	0x3d53c214	0.05169876
88	0x3d9a7445	0.07541708
89	0x3ea20c76	0.31650132
90	0x3da56090	0.080750585
91	0xbe144edf	-0.14483212
92	0xbf04ea9c	-0.51920485
93	0xbe13eb51	-0.14445235
94	0xbdf26537	-0.118357114
95	0x3bd0f476	0.0063767983
96	0xbc1af4b2	-0.009457754
97	0xbdaf2cd0	-0.08553469
98	0xbed44287	-0.41457006
99	0xbea4ca31	-0.3218551
100	0xbcb67be7	-0.022275878
101	0x3de4572c	0.11149439
102	0x3e6ca4f5	0.23109801
103	0x3db37684	0.087628394
104	0x3ef42de8	0.47691274
105	0xbd4f9224	-0.05067648
106	0x3dafce34	0.08584252
107	0xbe011759	-0.12606563
108	0x3e835e79	0.25658014
109	0x3e836b4b	0.25667796
110	0xbe206b4f	-0.15665935
111	0x3daaa987	0.08333116
112	0x3e55fd20	0.20897341
113	0x3e405b54	0.18784839
114	0xbe24ef2e	-0.16106865
115	0xbea26dd9	-0.31724432
116	0xbdf26d16	-0.11837213
117	0xbeb40641	-0.3516102
118	0xbd93ca89	-0.07216365
119	0x3e69469e	0.22780845
120	0x3e554446	0.20826825
121	0x3e8bdc34	0.2731644
122	0xbda6b4b7	-0.08139937
123	0x3df7611e	0.120790705
124	0x3da04682	0.07825948
125	0x3e423dee	0.18968937
126	0x3db8b77e	0.09019373
127	0xbda5775d	-0.08079407
128	0x3e87e85b	0.2654446
129	0x3ec729d6	0.38899106
130	0xbd3fa3ba	-0.046787
131	0x3e58458d	0.21120282
132	0x3d8abdc0	0.06774473
133	0x3c8b1d41	0.016981723
134	0xbe888604	-0.26664746
135	0xbe22486a	-0.15847936
136	0x3e0a44ed	0.13502856
137	0xbc38400f	-0.0112457415
138	0xbe0946ab	-0.13405864
139	0xbddf8070	-0.109131694
140	0xbd77da02	-0.060510643
141	0xbe14283f	-0.14468478
142	0x3e9657cb	0.29363856
143	0x3d036324	0.03207697
144	0x3ef03983	0.46918878
145	0x3e7d1a0d	0.24716969
146	0x3de80040	0.11328173
147	0x3e1386a5	0.14406832
148	0xbed43c13	-0.41452083
149	0x3e294534	0.16530305
150	0x3dc70c32	0.09719123
151	0x3e4bf72b	0.19918506
152	0x3e99a2a4	0.30006897
153	0x3e6a2dc5	0.22869022
154	0x3ec19394	0.37807906
155	0xbe60d2f2	-0.21955469
156	0xbd7429d6	-0.05961021
157	0xbde0032b	-0.10938104
158	0xbe316891	-0.17325045
159	0x3e06e92d	0.13174887
160	0x3c8419aa	0.016125519
161	0xbdcf16d8	-0.10111779
162	0x3e2e80b1	0.1704128
163	0xbf0b313c	-0.54372
164	0x3e0f3e28	0.13988554
165	0x3e1adffb	0.15124504
166	0xbe5bf6f3	-0.21480922
167	0x3dc46aeb	0.095907055
168	0x3e1df72a	0.15426317
169	0xbe6c3b1e	-0.23069426
170	0xbd8101dd	-0.062991835
171	0xbdb96226	-0.090519235
172	0x3e971a57	0.29512283
173	0x3c94eb46	0.018178593
174	0xbe9bd014	-0.3043219
175	0xbe63cbfa	-0.2224578
176	0xbd99ea11	-0.07515348
177	0x3c9cb142	0.019127492
178	0x3d71f4ce	0.059071355
179	0xbc7d68da	-0.015466893
180	0x3e991738	0.29900527
181	0xbe20d15e	-0.15704867
182	0x3ccc6a25	0.024952957
183	0x3d04ae1d	0.03239261
184	0xbd93b591	-0.072123654
185	0x3d520fb7	0.051284518
186	0x3e92ac28	0.2864697
187	0xbe2bc59c	-0.167746
188	0x3c055eff	0.008140325
189	0xbb5e1216	-0.0033885292
190	0x3e7dca64	0.24784237
191	0x3d4b9cf4	0.04971023
192	0x3e9e0879	0.3086584
193	0x3e516921	0.2045026
194	0x3e2bd1cd	0.16779251
195	0x3e5138fc	0.20431894
196	0xbef430ac	-0.47693384
197	0xbd44069a	-0.04785786
198	0x3e8ec3b2	0.2788368
199	0x3e8887a5	0.2666599
200	0xbe9121f9	-0.28346232
201	0xbc5edea6	-0.013602888
202	0xbd8e5922	-0.069505945
203	0xbdc7cebc	-0.09756228
204	0x3c3c0773	0.011476385
205	0x3ee78bf2	0.45223957
206	0x3e0b3613	0.13594846
207	0xbeb0bbe1	-0.3451834
208	0x3e69ddff	0.22838591
209	0x3e5891f2	0.21149424
210	0xbeddb2c6	-0.43300456
211	0x3d1382fe	0.036013596
212	0xbd6a0675	-0.057135064
213	0x3df638a9	0.12022526
214	0xbe353f91	-0.1770003
215	0xbdebc961	-0.11513019
216	0xbe3c3ceb	-0.18382613
217	0x3e16bd25	0.1472059
218	0x3e3cdad9	0.18442859
219	0x3e569173	0.20953922
220	0x3e06e326	0.13172588
221	0xbe17d5a3	-0.1482759
222	0x3da1e257	0.07904499
223	0x3e4cee92	0.20012882
224	0xbf013f06	-0.5048679
225	0x3d952160	0.072817564
226	0x3e8cd34b	0.27504954
227	0x3db785df	0.08961081
228	0x3e56259a	0.20912781
229	0xbdcd3dc8	-0.100215495
230	0x3ec08878	0.37604117
231	0x3e6ae13c	0.22937483
232	0x3e51cebc	0.20489019
233	0x3e518a92	0.20463017
234	0xbd9f9e57	-0.07793873
235	0x3d941a96	0.07231633
236	0xbeaba0a0	-0.33520985
237	0xbdda3efb	-0.10656544
238	0x3e76a4ef	0.24086355
239	0xbd0ad1ae	-0.033891372
240	0x3c11d715	0.008901377
241	0x3e5a73ad	0.2133319
242	0x3e585d1d	0.2112927
243	0x3ef55914	0.47919524
244	0xbd38f858	-0.045158714
245	0x3c7f1722	0.01556948
246	0xbba4267c	-0.0050094705
247	0x3e6f2aac	0.23356122
248	0x3d197b3e	0.03747105
249	0xbe08234f	-0.13294719
250	0xbd3ce73d	-0.046118964
251	0x3d0cc185	0.034364242
252	0xbdb5c21b	-0.08874913
253	0xbdbf2a40	-0.093342304
254	0xbed7339a	-0.42031556
255	0x3e9491d4	0.29017508
