best_para_path/filmtrust50.20.650.150.250.251.030.00.5_p10_20gatv2_spill_var2_explicit_seed0_ex1_0.001_1e-05_0.05_0.001_0.005_0.001.pt (torch, 133933 bytes, 4 tensors)

user_embedding.weight f4 [1208, 20]
-0.73268837 -0.7639978 -0.7744776 0.668424 0.45395786 0.56997925 0.61052626 0.25054997
-0.38892332 -0.6806487 -0.07118876 -0.10998246 0.51878816 -0.53394324 0.26068974 -0.45502642
-0.5874168 0.25765717 -0.044589926 -0.24907656 -0.4521904 -0.41527936 -0.15314712 -0.12823533
0.35362116 0.25408697 0.68043953 -0.61862 -0.5942233 -0.6787692 -0.47409397 0.79998755
-0.094151355 -0.23739775 0.15330651 -0.40872058 0.3335915 -0.3557076 -0.6077057 0.40919116
-0.27985793 -0.30859834 -0.2184398 -0.44940358 -0.025084881 -0.387675 0.5518496 -0.6214563
-0.58066034 -0.29245213 -0.51280546 0.59945816 0.7375607 0.36357582 0.08102589 0.03178342
0.46718892 -0.35062057 -0.5129774 0.102704614 -0.42346978 -0.47846228 -0.4217828 -0.65098304
0.6605649 0.5542479 -0.0473739 0.7116843 0.52150756 -0.47438332 0.50416726 -0.5407086
-0.350945 -0.64256597 0.4722207 0.38648766 -0.5533242 -0.22259963 0.55293465 -0.58701915
-0.112324625 -0.29387838 0.093325496 -0.40608528 0.057476964 0.45250103 0.47721317 -0.6878537
-0.34222382 -0.58123595 -0.4224244 0.7116951 0.62353086 0.45362958 0.06883319 -0.42805147
0.21529417 -0.08475801 -0.5459522 0.33637583 0.41509488 -0.6391415 -0.67389125 0.7843042
0.37487864 0.22541377 0.9067491 -0.31873584 0.56887245 -0.6555708 -0.25071448 0.40954816
-0.09390819 -0.58498526 0.63741326 0.6675901 -0.4062833 0.28900442 0.23765506 0.5874556
-0.439924 -0.7210968 -0.69503754 -0.78095376 0.48794788 0.47198164 -0.19578338 -0.3914308
-0.49001455 -0.56372404 -0.55875516 0.23468646 0.35431048 -0.6825971 0.40409347 -0.3466323
-0.6559234 -0.3679561 -0.31940007 -0.58385026 -0.46055233 -0.6268197 -0.5914363 -0.12274623
-0.30886292 0.09109767 0.40988407 0.36686042 0.51128316 -0.53902656 0.6233565 -0.011673547
-0.7324617 -0.69040126 0.68319917 0.61806166 -0.54448926 -0.4922856 0.09987623 -0.336846
-0.8399984 -0.667312 -0.69543195 0.14028518 -0.36413527 0.695171 -0.11350809 -0.5203397
-0.63252974 -0.009296624 -0.24810855 0.59139735 -0.7911385 0.10589428 0.1906216 -0.48720714
0.10098729 -0.67377883 -0.46618316 -0.21254249 -0.54810363 -0.50498897 -0.5050122 -0.6040251
0.38473108 0.25245455 0.21843655 0.14144386 -0.6057595 -0.59858316 -0.65058553 -0.09145035
-0.31061178 -0.40190065 0.56729317 -0.3358227 0.04751793 -0.28292075 -0.17058322 -0.37660626
-0.6169914 -0.23851736 -0.50416833 0.4066103 0.38323635 0.6111324 -0.4135915 0.3799799
0.46441895 -0.30496907 -0.19307023 0.3691526 -0.45516086 -0.5419998 0.6297794 0.08202378
-0.58824706 -0.8692738 0.23792455 -0.15651348 0.65171343 0.0519039 0.37786734 -0.5946876
0.57146215 0.24793947 -0.6797098 0.5865894 0.6041954 0.057412643 0.61799437 -0.6177112
-0.40056908 -0.42608827 0.48159137 0.35870785 -0.5148125 0.45349494 0.59653753 -0.5452428
-0.1340627 -0.31510922 0.29851854 -0.5645532 0.4473434 0.5487547 -0.4170614 0.5858937
0.5434085 0.0064022057 0.6845789 -0.52938277 -0.530467 -0.5494084 0.48940745 0.14490704
00000000: 7791 3bbf 5c95 43bf 2a44 46bf d61d 2b3f
00000010: 2a6d e83e 29ea 113f 734b 1c3f 1648 803e
00000020: f520 c7be fe3e 2ebf 6acb 91bd 7c3e e1bd
00000030: 4dcf 043f 81b0 08bf 2079 853e 39f9 e8be
00000040: f360 16bf a4eb 833e eda3 36bd ed0d 7fbe
00000050: 8085 e7be 7f9f d4be 99d2 1cbe 1f50 03be
00000060: d50d b53e b017 823e 4931 2e3f e15d 1ebf
00000070: 051f 18bf d1c3 2dbf 72bc f2be fccb 4c3f
00000080: 6dd2 c0bd 6518 73be 62fc 1c3e d343 d1be
00000090: 81cc aa3e 4e1f b6be 9a92 1bbf 8181 d13e
000000a0: 8a49 8fbe 9a00 9ebe afae 5fbe 3a18 e6be
000000b0: cf7e cdbc 567d c6be 0446 0d3f c317 1fbf
000000c0: 28a6 14bf 49bc 95be 3847 03bf 1776 193f
000000d0: c7d0 3c3f 9c26 ba3e e7f0 a53d 552f 023d
000000e0: 6333 ef3e 8a84 b3be 7d52 03bf cc56 d23d
000000f0: 08d1 d8be 02f9 f4be eaf3 d7be d3a6 26bf
00000100: c81a 293f 31e3 0d3f 220b 42bd f130 363f
00000110: 8581 053f 5fe2 f2be 1b11 013f e16b 0abf
00000120: 10af b3be 347f 24bf e9c6 f13e b6e1 c53e
00000130: a8a6 0dbf 28f1 63be 208d 0d3f e346 16bf
00000140: 740a e6bd 3a77 96be 7021 bf3d 69ea cfbe
00000150: f76c 6b3d 37ae e73e 4955 f43e 2e17 30bf
00000160: f637 afbe e1cb 14bf 0348 d8be a631 363f
00000170: b89f 1f3f 2342 e83e 6af8 8c3d 9029 dbbe
00000180: 1376 5c3e 9c95 adbd 86c3 0bbf 7439 ac3e
00000190: 5187 d43e c79e 23bf 2384 2cbf 29c8 483f
000001a0: 18f0 bf3e ded2 663e b620 683f 5831 a3be
000001b0: a0a1 113f 7dd3 27bf a65d 80be 4cb0 d13e
000001c0: f052 c0bd 98c1 15bf 842d 233f 2fe7 2a3f
000001d0: 5d04 d0be 63f8 933e d95b 733e 7d63 163f
000001e0: b83d e1be cd99 38bf fbed 31bf 96ec 47bf
000001f0: 4ed4 f93e 94a7 f13e 707b 48be 9e69 c8be
00000200: 30e3 fabe 3850 10bf 940a 0fbf a651 703e
00000210: 2f68 b53e afbe 2ebf 57e5 ce3e ca79 b1be
00000220: 99ea 27bf be64 bcbe 6888 a3be 3677 15bf
00000230: 84cd ebbe 4177 20bf 5f68 17bf 6062 fbbd
00000240: 4823 9ebe 6a91 ba3d 53dc d13e 21d5 bb3e
00000250: 74e3 023f a5fd 09bf 4b94 1f3f 6842 3fbc
00000260: 9c82 3bbf 23be 30bf 24e6 2e3f 4a39 1e3f
00000270: a663 0bbf dc0c fcbe e98b cc3d 1477 acbe
00000280: 230a 57bf f6d4 2abf d407 32bf eba6 0f3e
00000290: f06f babe baf6 313f ee76 e8bd fc34 05bf
000002a0: 78ed 21bf de50 18bc 2b10 7ebe d165 173f
000002b0: 0e88 4abf 1adf d83d 4f32 433e 3773 f9be
000002c0: 6dd2 ce3d c57c 2cbf 8faf eebe bda4 59be
000002d0: 8550 0cbf f546 01bf 7b48 01bf 64a1 1abf
000002e0: 79fb c43e b941 813e d5ad 5f3e a9d6 103e
000002f0: 0e13 1bbf bf3c 19bf c68c 26bf 524a bbbd
00000300: 8208 9fbe ecc5 cdbe 203a 113f f4f0 abbe
00000310: 29a2 423d fdda 90be 5ead 2ebe 89d2 c0be
00000320: 26f3 1dbf e53d 74be 2d11 01bf 3a2f d03e
00000330: 8e37 c43e 2c73 1c3f 44c2 d3be ba8c c23e
00000340: 52c8 ed3e e824 9cbe 34b4 45be 9201 bd3e
00000350: d80a e9be 80c0 0abf 3939 213f 15fc a73d
00000360: 5c97 16bf ba88 5ebf 7ea2 733e 1245 20be
00000370: b1d6 263f 2f99 543d d477 c13e 723d 18bf
00000380: 584b 123f d8e3 7d3e 7601 2ebf b92a 163f
00000390: 8dac 1a3f 8529 6b3d e134 1e3f 5222 1ebf
000003a0: 6417 cdbe 3e28 dabe 2593 f63e 8ea8 b73e
000003b0: c1ca 03bf 7d30 e83e afb6 183f 0895 0bbf
000003c0: bc47 09be ff55 a1be 6cd7 983e 8f86 10bf
000003d0: 320a e53e 307b 0c3f 1289 d5be 21fd 153f
000003e0: d21c 0b3f 98c9 d13b 9040 2f3f a185 07bf
000003f0: afcc 07bf 07a6 0cbf 9d93 fa3e 8362 143e

item_embedding.weight f4 [406, 20]
0.2870147 0.73887235 0.3640223 -0.2985575 0.59450686 -0.6121272 -0.5060917 0.4375934
0.7258168 0.7299485 0.45343328 -0.74944854 -0.35221723 0.29667062 -0.8606379 0.37794784
-0.76728743 -0.7647953 0.89243233 0.789767 -0.68057454 -0.13924256 0.13473772 -0.66057813
0.42937952 0.5009943 -0.6502388 0.64887977 -0.16279128 0.77813447 0.61276853 -0.7091016
-0.07321476 -0.6302225 0.5325226 -0.8021467 -0.5635908 0.65094733 0.5017242 -0.5621758
-0.295357 -0.5228375 0.15970877 -0.57961476 0.43947837 0.5652493 -0.5884263 0.39866298
0.698583 0.6554937 0.6982038 -0.38927552 -0.73062134 0.74547577 0.58393055 -0.64104575
-0.46134955 0.84890795 -0.056141995 -0.3718547 -0.645635 -0.107244976 0.5196061 0.8269068
0.5588225 0.62228584 -0.88743764 0.5535267 0.67148626 0.7334704 0.60590094 -0.608933
-0.10971944 -0.55137604 0.7996939 0.82805127 -0.4555701 0.11973214 0.52085215 -0.0006298814
0.06352359 0.53616154 0.66290003 0.7362126 0.4748693 0.7683326 -0.73546684 0.5696485
0.58763814 -0.3669486 0.6338654 -0.6721224 0.802732 -0.72024703 0.6485066 0.5946733
-0.6476812 0.71319443 0.63097984 -0.3892555 0.62398607 0.6829888 0.7098015 -0.7140101
-0.20307069 -0.7928806 -0.6988884 0.44641832 0.09174203 0.74582845 0.1839246 -0.6807806
-0.7229088 -0.7826697 -0.56140834 0.51998186 0.256269 0.5149772 0.537752 -0.7311202
-0.07262619 -0.042106133 0.8243384 0.14883256 0.49442127 -0.8345221 -0.7009468 0.560234
0.6168933 0.6986842 0.6609086 -0.63939077 -0.044592604 -0.4046342 0.21277846 0.91331875
-0.669131 -0.15343119 0.64499664 -0.7198609 0.3601791 -0.3258455 0.48635268 -0.5577976
0.18803433 -0.046425864 -0.6360147 0.6831503 0.63046646 -0.23744425 0.6225989 -0.5608606
0.32183346 -0.32484385 0.69389695 0.7190099 -0.56782866 0.6914307 0.7327905 -0.40341416
0.76114357 -0.59649956 0.5302079 -0.36859912 0.7346113 0.7437454 -0.35961962 0.40676877
0.6717992 0.3505057 0.5019049 -0.6285206 -0.57402366 -0.22811614 0.57833487 0.56174004
0.59782743 0.8444669 0.54955125 -0.6714204 0.7462166 0.7454694 0.67007035 -0.64546955
0.67881095 -0.5891593 -0.58619815 0.18630736 -0.1372978 0.7952534 0.8286591 -0.7349864
0.3022123 0.5182084 -0.4466771 -0.66448885 -0.07985673 -0.40775093 0.6094821 -0.0821301
-0.3337233 -0.60922086 0.40912402 -0.6749653 0.58928853 0.5906499 0.3084322 0.6628338
0.5689446 -0.282394 0.34141245 -0.58906925 -0.6845286 -0.71911633 0.6372952 0.39837667
-0.46238878 -0.045400035 0.6149346 -0.67061627 0.58997035 0.39144945 0.67452747 -0.75851977
-0.5714592 -0.46088275 0.06426925 -0.38181856 0.055867936 0.6015143 0.13538899 0.092767075
-0.8777876 0.71239704 -0.34810138 -0.60791177 0.39530385 0.6663254 -0.1789261 0.5455837
-0.57226 -0.46572867 0.4965838 -0.11381926 0.33480793 0.6537375 -0.8099104 0.5612991
0.6028477 0.72876304 0.5114863 -0.6729806 -0.76635367 -0.5594253 0.4214232 0.37994862
00000000: 97f3 923e bd26 3d3f 2261 ba3e 87dc 98be
00000010: 9a31 183f 5eb4 1cbf 3a8f 01bf 3e0c e03e
00000020: 21cf 393f e8dd 3a3f 6828 e83e dcdb 3fbf
00000030: d155 b4be 36e5 973e c452 5cbf 6182 c13e
00000040: f36c 44bf a0c9 43bf 7276 643f 2c2e 4a3f
00000050: 223a 2ebf 9a95 0ebe aff8 093e a61b 29bf
00000060: a2d7 db3e 2a41 003f 0d76 26bf fc1c 263f
00000070: c2b2 26be d233 473f 66de 1c3f af87 35bf
00000080: 9ff1 95bd 4356 21bf 6753 083f 7c59 4dbf
00000090: 7d47 10bf 7ca4 263f ff70 003f c1ea 0fbf
000000a0: 0839 97be aed8 05bf b28a 233e a261 14bf
000000b0: 4f03 e13e 2eb4 103f 1ba3 16bf 8e1d cc3e
000000c0: 56d6 323f 6fce 273f 7cbd 323f 1f4f c7be
000000d0: 000a 3bbf 80d7 3e3f 797c 153f 931b 24bf
000000e0: 0236 ecbe 0852 593f 26f5 65bd bd63 bebe
000000f0: 5648 25bf 41a3 dbbd e804 053f 2ab0 533f
00000100: fe0e 0f3f 204e 1f3f 1d2f 63bf edb3 0d3f
00000110: 86e6 2b3f b7c4 3b3f 531c 1b3f 08e3 1bbf
00000120: 96b4 e0bd fb26 0dbf bdb8 4c3f 2bfb 533f
00000130: 7c40 e9be 2036 f53d 9156 053f a01e 25ba
00000140: a818 823d e241 093f d1b3 293f 6e78 3c3f
00000150: 1222 f33e 72b1 443f 8e47 3cbf 7cd4 113f
00000160: 746f 163f b0e0 bbbe 0145 223f 3710 2cbf
00000170: d87f 4d3f 1c62 38bf 8704 263f 823c 183f
00000180: 6fce 25bf e993 363f e587 213f 7f4c c7be
00000190: 8dbd 1f3f 5bd8 2e3f 8db5 353f 5ec9 36bf
000001a0: c3f1 4fbe 39fa 4abf 5aea 32bf f190 e43e
000001b0: 3fe3 bb3d 9dee 3e3f bb56 3c3e a347 2ebf
000001c0: 8d10 39bf 0b5d 48bf 75b8 0fbf 881d 053f
000001d0: b135 833e 8cd5 033f 1daa 093f b22a 3bbf
000001e0: 0abd 94bd 7b77 2cbd d707 533f 9067 183e
000001f0: c924 fd3e 3ea3 55bf 4071 33bf 7f6b 0f3f
00000200: b8ec 1d3f f8dc 323f 4e31 293f 1daf 23bf
00000210: bca6 36bd 372c cfbe 99e2 593e 42cf 693f
00000220: 2b4c 2bbf 111d 1dbe 801e 253f ce48 38bf
00000230: 6569 b83e 39d5 a6be 3803 f93e d3cb 0ebf
00000240: 128c 403e 0c29 3ebd dcd1 22bf f0e2 2e3f
00000250: 4066 213f 9624 73be a462 1f3f 8f94 0fbf
00000260: 5bc7 a43e ef51 a6be 3ba3 313f 0811 383f
00000270: 385d 11bf 9a01 313f 2998 3b3f 4d8c cebe
00000280: 4eda 423f 32b4 18bf b4bb 073f 06b9 bcbe
00000290: 7c0f 3c3f 1966 3e3f 1020 b8be ff43 d03e
000002a0: 08fb 2b3f 7c75 b33e d77c 003f bae6 20bf
000002b0: 37f3 12bf 4797 69be c10d 143f 32ce 0f3f
000002c0: 380b 193f fc2e 583f 64af 0c3f 35e2 2bbf
000002d0: 0d08 3f3f 15d7 3e3f bb89 2b3f 7e3d 25bf
000002e0: 8ec6 2d3f 25d3 16bf 1511 16bf 5bc7 3e3e
000002f0: cb97 0cbe ba95 4b3f 0123 543f 1228 3cbf
00000300: 92bb 9a3e 4ea9 043f dcb2 e4be f11b 2abf
00000310: ed8b a3bd bbc4 d0be 0507 1c3f d333 a8bd
00000320: c8dd aabe e6f5 1bbf b478 d13e 87ca 2cbf
00000330: 9ddb 163f d534 173f d3ea 9d3e 7aaf 293f
00000340: 5aa6 113f f295 90be 9dcd ae3e 3ecd 16bf
00000350: 443d 2fbf 0218 38bf c725 233f 07f8 cb3e
00000360: 39be ecbe 63f5 39bd 5b6c 1d3f 82ad 2bbf
00000370: 4c08 173f 106c c83e d5ad 2c3f 5a2e 42bf
00000380: 264b 12bf d3f8 ebbe 999f 833d b97d c3be
00000390: c7d5 643d d7fc 193f 69a3 0a3e aafc bd3d
000003a0: b0b6 60bf a75f 363f 583a b2be 1ba0 1bbf
000003b0: 4465 ca3e 4d94 2a3f 6738 37be 60ab 0b3f
000003c0: a27f 12bf fd73 eebe 3b40 fe3e 121a e9bd
000003d0: f26b ab3e 575b 273f 4a56 4fbf 4cb1 0f3f
000003e0: 3a54 1a3f 3790 3a3f c4f0 023f 7548 2cbf
000003f0: c12f 44bf 7f36 0fbf c8c4 d73e a088 c23e

linear_att_out.weight f4 [1, 40]
-0.20274083 -0.017425561 0.13044465 0.17431946 0.45403343 0.29526073 -0.148346 -0.0061912746
-0.28107658 -0.24878079 0.53464556 -0.31141746 -0.13871859 -0.513506 0.8687233 -0.08499734
-0.00493085 -0.2404581 0.14651561 0.003596591 -0.27261433 -0.2778144 -0.2530841 -0.012400334
0.2707616 0.26787445 -0.07526995 0.089439504 0.011604773 -0.30934897 0.17985025 -0.031695507
-0.06624273 -0.2473777 0.32669148 0.11007122 -0.17882732 -0.10394396 0.026966168 -0.17384003
00000000: 4b9b 4fbe 0dc0 8ebc 4893 053e cd80 323e
00000010: 1277 e83e 6a2c 973e 04e8 17be 2de0 cabb
00000020: 45e9 8fbe 64c0 7ebe 88de 083f 1c72 9fbe
00000030: 3f0c 0ebe 2175 03bf a664 5e3f 1613 aebd
00000040: f892 a1bb a63a 76be 3008 163e c9b4 6b3b
00000050: 1b94 8bbe b03d 8ebe 3d94 81be c52a 4bbc
00000060: 44a1 8a3e d726 893e 2227 9abd 0f2c b73d
00000070: f221 3e3c fd62 9ebe aa2a 383e 26d3 01bd
00000080: 45aa 87bd 9450 7dbe 1b44 a73e 056d e13d
00000090: 821e 37be 92e0 d4bd 27e8 dc3c 1f03 32be

linear_trans_neigh.weight f4 [20, 20]
0.17856222 0.21813695 0.24469863 0.2276501 0.08964465 0.07633649 0.2425532 0.30187503
0.14200047 0.21794397 -0.22896859 0.3601536 0.14560075 0.15164061 0.030990157 0.28584513
0.12740147 0.26468548 0.39755562 0.11535906 0.17804594 0.21798295 0.2441676 0.22291122
0.089436695 0.07630309 0.24332394 0.3026832 0.13972266 0.21764895 -0.22908194 0.36077398
0.14511451 0.15202184 0.029786386 0.28516805 0.12608635 0.2645398 0.39993843 0.11520722
0.17836174 0.21833633 0.24546658 0.22252661 0.089407295 0.07689365 0.24355157 0.3025653
0.13983725 0.21620272 -0.22856705 0.35968632 0.14519069 0.15134592 0.029776629 0.28560477
0.12884404 0.26774478 0.39839387 0.115371495 0.17804532 0.21761693 0.24525823 0.22267602
0.089755476 0.07653924 0.24346979 0.30321607 0.13979635 0.21735959 -0.22903708 0.3598065
0.14566724 0.15212086 0.030129934 0.28518122 0.12734069 0.26411712 0.39871147 0.11614882
0.17819698 0.2182095 0.24531077 0.22239377 0.0897537 0.07628919 0.24235716 0.30294564
0.13969062 0.21624468 -0.22871202 0.35966408 0.14665453 0.15142526 0.030305602 0.28623536
0.12677097 0.2642948 0.39751083 0.11589333 0.17801075 0.21788894 0.2442219 0.22522973
0.089478046 0.076277554 0.24237852 0.3022621 0.13991103 0.21779355 -0.22892588 0.35968164
0.1464756 0.15334843 0.029793715 0.28515437 0.12755461 0.26514432 0.39860857 0.11804907
0.17796658 0.21809109 0.24562868 0.22416253 0.08944803 0.076609075 0.24221908 0.30284292
0.13967632 0.21841916 -0.22880714 0.35969645 0.14591178 0.15126517 0.03036047 0.28536794
0.12765561 0.26492244 0.3974063 0.11549111 0.17805661 0.21740082 0.2452783 0.22269292
0.08991159 0.07671403 0.24298893 0.30184245 0.14037144 0.21620254 -0.22860804 0.35985148
0.14566746 0.15286061 0.030117104 0.2870773 0.12599935 0.2641402 0.39842278 0.1156491
0.17803165 0.21840993 0.24450794 0.222314 0.08942972 0.07678648 0.24290936 0.30178225
0.13993563 0.21620658 -0.22858419 0.360286 0.14515775 0.15167521 0.030492023 0.28565496
0.12776303 0.26548913 0.3977399 0.11704864 0.18088669 0.2181999 0.24428469 0.22255911
0.08940522 0.076294675 0.24251354 0.3018219 0.14039667 0.21667129 -0.22840273 0.35994583
0.14487463 0.15184247 0.029882306 0.28622976 0.12612054 0.26404157 0.3979482 0.11529985
0.17936648 0.21717958 0.24414065 0.2224545 0.08940464 0.07644473 0.24225841 0.30193174
0.13968033 0.21810941 -0.22902243 0.35996088 0.1455708 0.15151563 0.029923322 0.28528363
0.12883958 0.26490924 0.3973715 0.11534915 0.177893 0.21973172 0.24578096 0.22625947
0.08984704 0.076264516 0.24234338 0.30206838 0.13966197 0.21640402 -0.22895184 0.36365378
0.14692499 0.15117967 0.030469788 0.28517592 0.12583302 0.26478374 0.39820874 0.11809682
0.17836107 0.21733086 0.24499975 0.22242554 0.089649394 0.07654355 0.2431289 0.30458722
0.14003591 0.21642628 -0.22838892 0.35956764 0.1447444 0.15258025 0.02974776 0.28537434
00000000: 04d9 363e 4b5f 5f3e 4792 7a3e 1c1d 693e
00000010: 9d97 b73d 4e56 9c3d de5f 783e 5d8f 9a3e
00000020: 9268 113e b42c 5f3e be76 6abe 0d66 b83e
00000030: 5d18 153e ad47 1b3e 12df fd3c 4b5a 923e
00000040: 8875 023e db84 873e 698c cb3e 5f41 ec3d
00000050: ad51 363e ec36 5f3e 1207 7a3e d742 643e
00000060: 962a b73d cb44 9c3d e929 793e 4bf9 9a3e
00000070: 7513 0f3e 5edf 5e3e 7594 6abe 5eb7 b83e
00000080: e698 143e 9dab 1b3e 9402 f43c 8c01 923e
00000090: c81c 013e c371 873e bbc4 cc3e c3f1 eb3d
000000a0: 76a4 363e 8f93 5f3e 975b 7b3e 04de 633e
000000b0: 2c1b b73d 6b7a 9d3d 9565 793e d7e9 9a3e
000000c0: 7f31 0f3e 3f64 5d3e 7b0d 6abe ce28 b83e
000000d0: deac 143e 6dfa 1a3e 1eee f33c ca3a 923e
000000e0: b1ef 033e d815 893e 48fa cb3e e447 ec3d
000000f0: 8351 363e f9d6 5e3e f924 7b3e 2f05 643e
00000100: b8d1 b73d 9bc0 9c3d 2550 793e 233f 9b3e
00000110: c626 0f3e 8393 5e3e b288 6abe 8f38 b83e
00000120: cb29 153e 92c5 1b3e 0dd3 f63c 4603 923e
00000130: 9965 023e 5c3a 873e e923 cc3e 6fdf ed3d
00000140: 4579 363e 5072 5f3e bf32 7b3e 31bb 633e
00000150: cad0 b73d 823d 9c3d 7a2c 783e b11b 9b3e
00000160: 0f0b 0f3e 3f6f 5d3e 7c33 6abe e425 b83e
00000170: 9b2c 163e 390f 1b3e 7443 f83c 718d 923e
00000180: 40d0 013e a651 873e 8a86 cb3e 7b59 ed3d
00000190: 7348 363e 471e 5f3e 4e15 7a3e 9fa2 663e
000001a0: 4440 b73d 6837 9c3d 1332 783e 19c2 9a3e
000001b0: d644 0f3e 4605 5f3e 8c6b 6abe 3128 b83e
000001c0: b3fd 153e 5f07 1d3e f311 f43c c1ff 913e
000001d0: ad9d 023e ffc0 873e 6c16 cc3e b6c3 f13d
000001e0: df3c 363e 4553 5f3e 1686 7b3e dd8a 653e
000001f0: 8730 b73d 38e5 9c3d 4708 783e 3a0e 9b3e
00000200: 4f07 0f3e 46a9 5f3e 6b4c 6abe 222a b83e
00000210: e669 153e 42e5 1a3e 85b6 f83c bf1b 923e
00000220: 27b8 023e eaa3 873e d778 cb3e 9a86 ec3d
00000230: 7954 363e 529e 5e3e 3c2a 7b3e 9d09 643e
00000240: 9123 b83d 3f1c 9d3d 17d2 783e 188b 9a3e
00000250: 88bd 0f3e 3364 5d3e 3a18 6abe 743e b83e
00000260: da29 153e 7e87 1c3e 25b8 f63c ccfb 923e
00000270: f905 013e 623d 873e 12fe cb3e 6fd9 ec3d
00000280: ee4d 363e daa6 5f3e 4a60 7a3e 48a6 633e
00000290: ee26 b73d 3b42 9d3d 3bbd 783e 3483 9a3e
000002a0: 494b 0f3e 4265 5d3e f911 6abe 6877 b83e
000002b0: 3ca4 143e bf50 1b3e 68ca f93c 5e41 923e
000002c0: 50d4 023e 31ee 873e 90a4 cb3e 33b7 ef3d
000002d0: 5c3a 393e cb6f 5f3e c425 7a3e 89e6 633e
000002e0: 151a b73d 6240 9c3d 7855 783e 6688 9a3e
000002f0: 25c4 0f3e 14df 5d3e 68e2 69be d24a b83e
00000300: 045a 143e 987c 1b3e bdcb f43c b58c 923e
00000310: be25 013e 7530 873e debf cb3e 5422 ec3d
00000320: d9ab 373e 5364 5e3e 0200 7a3e 1dcb 633e
00000330: c819 b73d 0e8f 9c3d 9712 783e cc96 9a3e
00000340: 5c08 0f3e 1358 5f3e db84 6abe cb4c b83e
00000350: 8310 153e ea26 1b3e c121 f53c b210 923e
00000360: 86ee 033e 2fa2 873e 4774 cb3e 2d3c ec3d
00000370: 9529 363e 5a01 613e 01ae 7b3e 90b0 673e
00000380: ba01 b83d 9230 9c3d dd28 783e b5a8 9a3e
00000390: 8c03 0f3e 0499 5d3e 5a72 6abe d430 ba3e
000003a0: 8173 163e d8ce 1a3e c79b f93c 9402 923e
000003b0: 5fda 003e bc91 873e 04e2 cb3e bfdc f13d
000003c0: 49a4 363e fb8b 5e3e 37e1 7a3e 85c3 633e
000003d0: 1a9a b73d ddc2 9c3d c8f6 783e dbf2 9b3e
000003e0: 9365 0f3e da9e 5d3e c9de 69be 4019 b83e
000003f0: e037 143e ff3d 1c3e 93b1 f33c 961c 923e
