best_para_path/filmtrust50.20.650.150.250.251.05.00.5_p10_20gatv2_spill_var2_explicit_seed0_ex1_0.001_1e-05_0.001_0.01_0.05_0.001.pt (torch, 133921 bytes, 4 tensors)

user_embedding.weight f4 [1208, 20]
-0.7174094 -0.7062895 -0.764053 0.6749969 0.4211324 0.60367924 0.56831855 0.4186461
-0.29643372 -0.67661154 0.31974104 -0.3291988 -0.5011378 -0.40773425 0.3882016 -0.24904473
-0.3066029 -0.7159348 0.41718662 0.51741505 -0.35426578 -0.37068164 -0.31863824 -0.3660326
-0.024456464 0.30866846 0.6390819 -0.5383525 -0.58161235 -0.080676615 -0.55692923 0.679126
0.24604078 0.4783076 -0.19201177 0.18073285 0.46419188 -0.113380305 -0.57620364 0.42392093
-0.19282147 -0.34627703 -0.4402229 -0.503106 0.06844051 -0.0058852825 0.2620844 -0.576188
-0.6337238 -0.57969713 -0.54703844 0.6721413 -0.11956858 0.3168809 0.45718127 -0.18665914
0.5514321 -0.6210288 -0.4949279 0.11784526 -0.7478132 -0.48545656 -0.5412681 0.28538105
0.71825385 0.56126225 0.19336145 0.66898274 0.5507057 -0.2806477 0.5267877 -0.31050116
-0.1809804 -0.6700664 0.61985075 -0.0045873597 0.07473331 0.5287417 0.538051 -0.5365374
-0.4591527 -0.20814987 -0.08009152 -0.60235363 -0.11401985 0.51731753 0.60558 -0.5981888
-0.33565584 -0.57020265 -0.42902648 0.6886151 0.6256708 -0.31422332 -0.1321224 -0.33885658
0.28853303 -0.53708476 0.07296449 0.6040718 0.22946481 -0.5754555 -0.56459755 0.77120066
0.06271649 0.12433304 0.85341096 -0.24617328 0.5673744 -0.20701233 0.13854015 -0.22457494
0.3682555 -0.36944672 0.34304485 0.6284351 -0.4938446 -0.12364258 0.6682833 0.53043836
-0.60328275 -0.7889949 -0.6381728 -0.19114612 0.65392715 0.6534145 -0.5708291 0.46010214
0.37745064 -0.6843063 -0.50192887 0.4294859 0.5728043 -0.050777677 0.5709761 0.59772253
-0.6092526 0.013297291 0.36058515 0.2695312 -0.6564037 -0.6699712 -0.5127649 -0.40272424
0.22377998 0.11004636 -0.67417425 0.1419323 0.21427335 -0.39288625 0.2567171 -0.5723777
0.65016025 -0.55677336 0.6567234 0.53602135 -0.17389101 0.02064282 0.20620473 -0.42845985
0.3030093 -0.68547755 -0.7695464 0.2915038 -0.36541238 0.69733447 -0.44872418 -0.5148559
-0.5456295 -0.45812586 -0.4662018 0.58371544 -0.750464 0.46901742 0.1883822 0.58692765
0.16880083 -0.51828575 -0.029841814 0.5846779 -0.45544884 -0.58316094 -0.56045353 -0.26945275
0.42258054 0.4732156 0.6156642 0.3756192 -0.45806968 -0.5621603 -0.4853058 -0.30459028
-0.5049255 -0.45952797 0.61880267 0.5590711 0.48012996 -0.19540603 -0.3670205 -0.04582214
-0.5494874 0.2952571 -0.48415497 0.564918 0.46292445 0.194526 -0.69288695 0.35132232
0.33524168 -0.34667212 0.118472755 -0.09171347 -0.52008015 -0.6637777 0.6962684 -0.6073018
-0.31626844 -0.804421 0.6193692 -0.33487913 -0.30496523 0.5292914 0.5883743 0.13693291
0.58459663 0.3826002 -0.7259563 0.57739675 0.5742328 0.43987298 0.601333 -0.54522926
-0.4405176 -0.5749112 0.40804002 0.51183474 -0.5512232 0.5876304 0.56551737 -0.6017281
-0.1050005 -0.3407693 0.28148395 0.20088874 0.35002393 0.61112565 -0.30697718 0.6105068
0.38200364 0.4136803 0.5895456 -0.56845367 -0.6273112 -0.6550218 0.394915 0.3681153
00000000: 24a8 37bf 64cf 34bf fa98 43bf 99cc 2c3f
00000010: aa9e d73e b98a 1a3f 537d 113f c858 d63e
00000020: 29c6 97be 6a36 2dbf 19b5 a33e bf8c a8be
00000030: 914a 00bf 8bc2 d0be 5cc2 c63e 9505 7fbe
00000040: 0efb 9cbe 8147 37bf 7c99 d53e 5075 043f
00000050: 5362 b5be fcc9 bdbe 8d24 a3be a068 bbbe
00000060: ec58 c8bc cb09 9e3e df9a 233f 78d1 09bf
00000070: 8ce4 14bf c839 a5bd ea92 0ebf 34db 2d3f
00000080: 1df2 7b3e bce4 f43e bc9e 44be 0812 393e
00000090: 8faa ed3e ef33 e8bd 1582 13bf 2a0c d93e
000000a0: fe72 45be 394b b1be e564 e1be 8ecb 00bf
000000b0: 8a2a 8c3d 54d9 c0bb ed2f 863e 0f81 13bf
000000c0: b93b 22bf 0867 14bf b60a 0cbf 7411 2c3f
000000d0: 5fe0 f4bd 373e a23e aa13 ea3e 9323 3fbe
000000e0: a72a 0d3f befb 1ebf 3167 fdbe db58 f13d
000000f0: b070 3fbf c38d f8be 8c90 0abf 771d 923e
00000100: 7cdf 373f e2ae 0f3f 8b00 463e 7442 2b3f
00000110: 0cfb 0c3f 0eb1 8fbe 8fdb 063f 02fa 9ebe
00000120: ed52 39be 7989 2bbf 8aae 1e3f 9051 96bb
00000130: c70d 993d 9e5b 073f b6bd 093f 845a 09bf
00000140: 1016 ebbe 3d25 55be 0607 a4bd d933 1abf
00000150: 3d83 e9bd ec6e 043f 4a07 1b3f e722 19bf
00000160: 15db abbe cdf8 11bf 5ca9 dbbe 1449 303f
00000170: f62b 203f e1e1 a0be 184b 07be 9c7e adbe
00000180: 9aba 933e 637e 09bf 686e 953d 73a4 1a3f
00000190: d3f8 6a3e 0d51 13bf 7789 10bf 686d 453f
000001a0: 8171 803d 52a2 fe3d 2479 5a3f d914 7cbe
000001b0: 733f 113f 0afb 53be 78dd 0d3e f9f6 65be
000001c0: fc8b bc3e 1f28 bdbe 93a3 af3e 1fe1 203f
000001d0: 33d9 fcbe 5238 fdbd 9d14 2b3f cfca 073f
000001e0: bd70 1abf 92fb 49bf 4b5f 23bf cfbb 43be
000001f0: c567 273f 2c46 273f db21 12bf 8292 eb3e
00000200: 3641 c13e b32e 2fbf 697e 00bf 93e5 db3e
00000210: 4da3 123f 41fc 4fbd 7d2b 123f 5804 193f
00000220: faf7 1bbf e1dc 593c 9e9e b83e feff 893e
00000230: 130a 28bf 3c83 2bbf 8f44 03bf df31 cebe
00000240: 9426 653e fc5f e13d af96 2cbf b356 113e
00000250: 796a 5b3e 6328 c9be 6c70 833e 5887 12bf
00000260: e770 263f b388 0ebf 061f 283f b238 093f
00000270: 7c10 32be 221b a93c 5527 533e 175f dbbe
00000280: 0924 9b3e 757b 2fbf fe00 45bf fc3f 953e
00000290: 5517 bbbe 8384 323f 2dbf e5be 99cd 03bf
000002a0: 60ae 0bbf 798f eabe 01b2 eebe 606e 153f
000002b0: 691e 40bf 0d23 f03e 43e7 403e e440 163f
000002c0: 20da 2c3e 60ae 04bf d276 f4bc 73ad 153f
000002d0: 9730 e9be 094a 15bf e279 0fbf b6f5 89be
000002e0: 7a5c d83e 5149 f23e 2b9c 1d3f 2951 c03e
000002f0: 1c88 eabe bde9 0fbf 007a f8be 42f3 9bbe
00000300: cc42 01bf 4047 ebbe da69 1e3f 491f 0f3f
00000310: 98d3 f53e 8518 48be 1cea bbbe ffaf 3bbd
00000320: 35ab 0cbf f02b 973e 29e3 f7be 779e 103f
00000330: 6f04 ed3e d331 473e 0a61 31bf 85e0 b33e
00000340: cca4 ab3e 027f b1be d8a1 f23d 46d4 bbbd
00000350: f923 05bf 56ed 29bf a53e 323f 2178 1bbf
00000360: f0ed a1be 89ee 4dbf fb8e 1e3f 4775 abbe
00000370: 6724 9cbe a47f 073f b39f 163f 2438 0c3e
00000380: 20a8 153f 2ce4 c33e 46d8 39bf 46d0 133f
00000390: ec00 133f 0837 e13e f6f0 193f 2594 0bbf
000003a0: 868b e1be 612d 13bf 9fea d03e 9a07 033f
000003b0: f71c 0dbf f26e 163f bfc5 103f da0a 1abf
000003c0: 810a d7bd 5079 aebe aa1e 903e c7b5 4d3e
000003d0: 5636 b33e bb72 1c3f 1d2c 9dbe 2c4a 1c3f
000003e0: fb95 c33e e7cd d33e 76ec 163f 2e86 11bf
000003f0: 7897 20bf 82af 27bf 4d32 ca3e 9c79 bc3e

item_embedding.weight f4 [406, 20]
0.5582506 0.8124673 -0.15043446 -0.8311871 0.48548165 -0.7961782 -0.6747692 0.5866869
0.65644467 0.3470388 0.61310226 -0.44598696 -0.60973734 -0.40344834 -0.87245196 0.6942098
-0.256972 0.45704755 0.6115589 0.5743355 -0.7837535 0.43308657 -0.40619937 0.20411646
0.52739185 -0.48296574 -0.7022248 0.6320682 -0.017411849 0.71781313 0.63074416 -0.6394253
0.6570188 -0.75664043 0.6984783 -0.56264764 -0.64315355 0.5990203 0.38112527 -0.6772654
-0.7727449 -0.8405771 0.7318865 -0.7338258 0.40408316 0.66642815 -0.705223 0.5783903
0.6761363 0.7673902 0.3859995 -0.15141314 -0.8046848 0.85160404 -0.6738297 -0.7156364
-0.44575205 0.59328455 0.6011768 -0.43623763 -0.46714744 0.8281228 0.70814437 0.36787385
0.52316225 0.43563375 -0.84100807 0.5348551 0.6715136 -0.71030784 0.39081216 -0.60325634
-0.4600834 -0.49572763 0.60144997 0.8557516 -0.11114217 0.70485896 0.51636827 -0.3566702
-0.45863697 0.7485921 0.6178256 0.6262855 0.4798081 0.6713714 -0.74928015 0.54087603
0.5942499 0.49252665 0.55181104 -0.37478402 -0.6420655 -0.7540253 0.51558864 0.52518785
-0.5142663 0.6768905 0.48523572 -0.37035722 0.65555334 0.6721501 0.56456304 -0.7969458
-0.39119557 0.5089181 0.80874634 0.58717805 0.7507188 0.67802316 0.6976673 -0.7118948
-0.8212408 -0.8118873 -0.5430366 -0.5996063 0.056133535 0.5346131 0.5658231 -0.7797007
0.7866132 -0.3054024 0.7737059 0.10779157 0.079690695 0.27133554 -0.7733302 0.31511477
0.5372685 0.734376 0.611447 -0.62505645 0.8094546 -0.37916544 0.6053709 0.75635767
-0.72016376 0.71869826 0.4235239 -0.7648507 0.040185675 0.27730754 0.017095739 -0.7300376
0.40251482 0.16564693 -0.73745126 0.5236462 0.46517235 0.019971026 0.40704376 -0.3505818
-0.6966874 -0.45894974 0.63489836 0.79829526 -0.2898498 0.6114882 0.6227194 -0.68704516
0.6877744 0.7389407 0.23523773 0.03846554 0.8107754 0.8778561 -0.26746967 0.09522052
0.71101874 0.51249737 0.5603255 -0.7830136 -0.71544814 -0.35743186 0.55221766 0.12696512
0.3003612 0.5938761 0.6063553 -0.8040391 0.61514807 0.6603473 0.6032995 -0.61160827
0.64062005 -0.42315102 -0.779924 0.31439823 -0.24523456 0.648105 0.72389066 -0.6958415
-0.09308883 -0.32918876 -0.61371434 -0.73976415 0.19504318 0.5228425 -0.2326205 -0.47246677
-0.456486 -0.39525706 0.3187862 -0.31110483 0.57251674 0.529535 0.33439285 0.66775113
0.35164714 -0.6669816 0.48782146 -0.6706164 -0.7762975 -0.77818286 0.7391636 0.49725053
-0.5919648 0.49218962 0.52223724 -0.7411133 0.36110157 0.42866224 0.66201276 -0.6584454
-0.61033463 -0.54480076 -0.33191317 -0.27520588 0.07712163 0.6923562 -0.4445322 -0.31436893
-0.5012347 0.55312276 -0.34720227 -0.6663786 0.06752766 0.72865146 -0.34841418 0.41294575
-0.52967787 -0.39171275 0.22642899 0.7488255 0.064330034 0.63242185 -0.7369801 0.5216198
0.63421994 0.66912156 0.54047406 -0.7078376 -0.7610742 -0.63640743 0.5240007 -0.50882244
00000000: 83e9 0e3f dbfd 4f3f 7e0b 1abe aec8 54bf
00000010: 0d91 f83e 56d2 4bbf adbd 2cbf 1d31 163f
00000020: c20c 283f 12af b13e 45f4 1c3f 6758 e4be
00000030: bf17 1cbf c890 cebe 0359 5fbf bcb7 313f
00000040: d591 83be 2302 ea3e 208f 1c3f a707 133f
00000050: 12a4 48bf 86bd dd3e 5df9 cfbe e803 513e
00000060: 2703 073f 4947 f7be 01c5 33bf 39cf 213f
00000070: 4ba3 8ebc 9ac2 373f 7378 213f 60b1 23bf
00000080: 6232 283f 30b3 41bf 79cf 323f ad09 10bf
00000090: b6a5 24bf 6559 193f da22 c33e 4461 2dbf
000000a0: 9cd2 45bf 1030 57bf ea5c 3b3f 02dc 3bbf
000000b0: fde3 ce3e 099b 2a3f 7f89 34bf 6311 143f
000000c0: 4517 2d3f af73 443f baa1 c53e 0c0c 1bbe
000000d0: d3ff 4dbf b902 5a3f 1a80 2cbf f233 37bf
000000e0: 9d39 e4be 7fe1 173f b9e6 193f 8a5a dfbe
000000f0: f32d efbe dbff 533f f348 353f f659 bc3e
00000100: f6ed 053f 630b df3e 4e4c 57bf 44ec 083f
00000110: 51e8 2b3f bcd6 35bf 8818 c83e 026f 1abf
00000120: 0d90 ebbe 03d0 fdbe a0f8 193f 8912 5b3f
00000130: 829e e3bd a371 343f b630 043f 7a9d b6be
00000140: 77d2 eabe bba3 3f3f d229 1e3f 3f54 203f
00000150: 68a9 f53e ffde 2b3f d3d0 3fbf da76 0a3f
00000160: c320 183f 742c fc3e 7d43 0d3f b1e3 bfbe
00000170: 685e 24bf cd07 41bf 9efd 033f b672 063f
00000180: f5a6 03bf b248 2d3f d170 f83e 769f bdbe
00000190: 58d2 273f 0712 2c3f 3487 103f a404 4cbf
000001a0: c94a c8be 7548 023f 000a 4f3f 4d51 163f
000001b0: 1b2f 403f ed92 2d3f 539a 323f bd3e 36bf
000001c0: d63c 52bf d9d7 4fbf 7204 0bbf cc7f 19bf
000001d0: 47ec 653d 67dc 083f c8d9 103f 779a 47bf
000001e0: 7c5f 493f b45d 9cbe 9711 463f d4c1 dc3d
000001f0: e034 a33d 7eec 8a3e f8f8 45bf b956 a13e
00000200: 6e8a 093f 1100 3c3f ca87 1c3f b303 20bf
00000210: 6b38 4f3f f921 c2be 96f9 1a3f a8a0 413f
00000220: a75c 38bf 9cfc 373f 20d8 d83e 41cd 43bf
00000230: bc99 243d 41fb 8d3e 5d0c 8c3c bfe3 3abf
00000240: 6c16 ce3e 599f 293e 9bc9 3cbf ad0d 063f
00000250: 122b ee3e 479a a33c 0a68 d03e 757f b3be
00000260: 1b5a 32bf 76fb eabe b388 223f 145d 4c3f
00000270: 3167 94be 7e8a 1c3f 8a6a 1f3f 31e2 2fbf
00000280: fc11 303f 382b 3d3f 29e2 703e 0b8e 1d3d
00000290: fa8e 4f3f 2dbb 603f c9f1 88be fa02 c33d
000002a0: 5305 363f 0733 033f 7e71 0f3f 9473 48bf
000002b0: 9c27 37bf 4f01 b7be 235e 0d3f 2503 023e
000002c0: f1c8 993e 4408 183f 1a3a 1b3f 82d5 4dbf
000002d0: 587a 1d3f 850c 293f d671 1a3f 5c92 1cbf
000002e0: adff 233f 40a7 d8be 19a9 47bf cef8 a03e
000002f0: c51e 7bbe 36ea 253f e650 393f ab22 32bf
00000300: 5ba5 bebd 6e8b a8be 621c 1dbf 2f61 3dbf
00000310: 66b9 473e 02d9 053f 1134 6ebe 2ae7 f1be
00000320: 88b8 e9be 225f cabe f237 a33e 2249 9fbe
00000330: 7590 123f 9b8f 073f 8a35 ab3e bdf1 2a3f
00000340: 180b b43e 4ebf 2abf bcc3 f93e 84ad 2bbf
00000350: 6fbb 46bf fe36 47bf d339 3d3f 9f97 fe3e
00000360: 018b 17bf 4700 fc3e 57b1 053f 9ab9 3dbf
00000370: 4ee2 b83e 9e79 db3e ab79 293f e18f 28bf
00000380: e43e 1cbf 1078 0bbf 86f0 a9be c9e7 8cbe
00000390: f2f1 9d3d 423e 313f b999 e3be f7f4 a0be
000003a0: eb50 00bf 7499 0d3f 7fc4 b1be ca97 2abf
000003b0: f14b 8a3d e788 3a3f 5863 b2be a06d d33e
000003c0: f898 07bf 938e c8be 00dd 673e 07b3 3f3f
000003d0: 77bf 833d 66e6 213f baaa 3cbf e088 053f
000003e0: 3d5c 223f 8d4b 2b3f 825c 0a3f d834 35bf
000003f0: c2d5 42bf 99eb 22bf e924 063f 3042 02bf

linear_att_out.weight f4 [1, 40]
-0.08379225 -0.074830845 -0.044361908 -0.012949476 0.101161845 0.058249213 0.048985925 -0.00723727
0.073983334 -0.030254498 0.015403057 -0.031154864 -0.08999413 -0.2095921 0.067286536 -0.06103325
0.049405787 -0.017568484 -0.01983182 0.04447046 -0.091097854 -0.0835991 -0.09037043 0.018958569
0.10362069 0.083702266 0.0020479467 0.04246138 0.07094792 -0.075057626 0.027931215 0.0053081475
-0.03405996 -0.09935598 0.086455524 0.041670945 0.068887874 -0.0026400522 0.053510025 0.008483378
00000000: 459b abbd ea40 99bd d5b4 35bd 0a2a 54bc
00000010: f12d cf3d ba96 6e3d 77a5 483d 9f26 edbb
00000020: 9384 973d 48d8 f7bc 1b5d 7c3c 7c38 ffbc
00000030: d84e b8bd 509f 56be 86cd 893d 00fe 79bd
00000040: b95d 4a3d c8eb 8fbc 5776 a2bc a826 363d
00000050: 8391 babd 0136 abbd 2214 b9bd 004f 9b3c
00000060: 1637 d43d 186c ab3d d836 063b fceb 2d3d
00000070: 254d 913d d0b7 99bd 01d0 e43c f8ef ad3b
00000080: 7582 0bbd 267b cbbd 980f b13d 27af 2a3d
00000090: 1615 8d3d ba04 2dbb 542d 5b3d defd 0a3c

linear_trans_neigh.weight f4 [20, 20]
0.17397152 0.22998008 0.24390437 0.21955016 0.1013729 0.15125307 0.29020303 0.28080395
0.18701188 0.18500096 0.20950626 0.35292146 0.10096534 0.06376028 0.16011956 0.27022967
0.1951704 0.30272925 0.17801702 0.28126058 0.17336997 0.22987084 0.24304037 0.218254
0.10007459 0.15110867 0.289373 0.2799496 0.1884451 0.18496136 0.21011749 0.35252202
0.100772694 0.06432528 0.1583977 0.26915154 0.19543746 0.30292603 0.17685355 0.2813792
0.17383581 0.23004751 0.24438281 0.21756662 0.099998884 0.15268104 0.289272 0.28004447
0.18792734 0.18280914 0.20878676 0.35342333 0.100814946 0.062958166 0.1583755 0.27001944
0.19512 0.3018642 0.17719764 0.2812452 0.17336884 0.22954592 0.24426648 0.2178689
0.10169902 0.1520613 0.28931457 0.27971998 0.18808407 0.18481329 0.20988515 0.35330838
0.100997865 0.06434223 0.15937479 0.26910883 0.19516811 0.3034361 0.17704219 0.28032637
0.17360367 0.2299646 0.24429908 0.21727017 0.101766795 0.15107402 0.29085687 0.27981007
0.188601 0.18288237 0.20891486 0.35343897 0.10118059 0.06325887 0.15969428 0.27045918
0.1951717 0.3032274 0.1781498 0.28052813 0.17330441 0.22981097 0.24311371 0.21919695
0.10038805 0.15104058 0.29076526 0.28035712 0.18770605 0.1849641 0.20935147 0.35342705
0.101150505 0.064744465 0.15841568 0.26910803 0.19516994 0.30240548 0.177124 0.27975518
0.17319652 0.22992235 0.24444908 0.2190971 0.10014188 0.1522993 0.29118901 0.2798553
0.18861714 0.18514131 0.20907137 0.3534156 0.10106359 0.062721334 0.15976164 0.2696063
0.1951675 0.30255038 0.17833365 0.28104773 0.17338845 0.22928073 0.24430473 0.2179786
0.102015264 0.15252492 0.28956807 0.28083056 0.18725176 0.18280171 0.20881404 0.35325763
0.10098958 0.064738 0.15931056 0.27054188 0.19538373 0.30341578 0.1771364 0.2807875
0.17332411 0.23001862 0.24368921 0.21716166 0.10004801 0.1526176 0.28963035 0.2807595
0.18768989 0.1828072 0.2088158 0.35281926 0.100799166 0.0638403 0.15987884 0.27004173
0.19515221 0.3022092 0.17770012 0.2799542 0.17460397 0.23000301 0.24322274 0.21764772
0.10001274 0.15107977 0.2902838 0.28083256 0.18722916 0.18422395 0.20870945 0.35314935
0.10040458 0.06403689 0.1587122 0.2704574 0.19542137 0.3034701 0.17742008 0.28133357
0.17444763 0.22872266 0.24305743 0.2174025 0.10002225 0.15173519 0.29121035 0.2807515
0.18861881 0.18503304 0.20981735 0.35313177 0.10095415 0.06352214 0.15886256 0.26932898
0.19512007 0.3025594 0.1783915 0.28127313 0.17302397 0.23026817 0.24453469 0.2193025
0.1018353 0.15106744 0.29091138 0.28057086 0.1885447 0.18344666 0.20943415 0.35191607
0.10118686 0.06268132 0.15986443 0.26909047 0.19511773 0.30271053 0.17723705 0.27979618
0.17383495 0.22917537 0.24409595 0.2173233 0.101392664 0.15207632 0.289475 0.27942196
0.18748853 0.18354335 0.20870428 0.35346085 0.10018342 0.06464232 0.15836631 0.26964453
00000000: 9725 323e e67f 6b3e 11c2 793e c2d1 603e
00000010: 989c cf3d 16e2 1a3e 7e95 943e 89c5 8f3e
00000020: 0b80 3f3e e470 3d3e cf88 563e 1fb2 b43e
00000030: ebc6 ce3d c094 823d 62f6 233e 8b5b 8a3e
00000040: c0da 473e 54ff 9a3e 184a 363e 6301 903e
00000050: e687 313e 4363 6b3e 93df 783e fa7d 5f3e
00000060: e8f3 cc3d 3bbc 1a3e b328 943e 8e55 8f3e
00000070: c1f7 403e 8366 3d3e 0a29 573e c47d b43e
00000080: ea61 ce3d f9bc 833d 0233 223e 3bce 893e
00000090: c220 483e 1f19 9b3e 1919 353e ef10 903e
000000a0: 0402 323e 9391 6b3e 7d3f 7a3e c9c9 5e3e
000000b0: 37cc cc3d 6b58 1c3e 761b 943e fd61 8f3e
000000c0: 0670 403e 5232 3b3e 32cc 553e e7f3 b43e
000000d0: 1178 ce3d 36f0 803d 302d 223e fd3f 8a3e
000000e0: 8acd 473e f28d 9a3e 4c73 353e 5fff 8f3e
000000f0: 9a87 313e 160e 6b3e fe20 7a3e 0619 5f3e
00000100: 9347 d03d f5b5 1b3e 0a21 943e 7537 8f3e
00000110: 1c99 403e b23f 3d3e 22ec 563e d6e4 b43e
00000120: f8d7 ce3d dcc5 833d 2533 233e a2c8 893e
00000130: 26da 473e fa5b 9b3e 8c4a 353e f086 8f3e
00000140: 29c5 313e d77b 6b3e 8a29 7a3e 127c 5e3e
00000150: 1c6b d03d 26b3 1a3e 31eb 943e 4443 8f3e
00000160: 9f20 413e 8445 3b3e c7ed 553e f4f5 b43e
00000170: c537 cf3d de8d 813d e686 233e a079 8a3e
00000180: 17db 473e 9f40 9b3e e76c 363e 62a1 8f3e
00000190: b676 313e 9153 6b3e cdf2 783e 2a75 603e
000001a0: 4098 cd3d 62aa 1a3e 2fdf 943e f88a 8f3e
000001b0: 0436 403e 3b67 3d3e 3b60 563e 64f4 b43e
000001c0: ff27 cf3d bf98 843d b837 223e 87c8 893e
000001d0: a1da 473e e4d4 9a3e fe5f 353e 123c 8f3e
000001e0: 6e5a 313e c470 6b3e dc50 7a3e fd5a 603e
000001f0: 3017 cd3d 59f4 1b3e ba16 953e 3249 8f3e
00000200: da24 413e af95 3d3e ce16 563e e4f2 b43e
00000210: 6dfa ce3d 0b74 803d 8e98 233e d609 8a3e
00000220: fdd9 473e e2e7 9a3e 199d 363e 7de5 8f3e
00000230: be8c 313e 91c8 6a3e 052b 7a3e c835 5f3e
00000240: 61ed d03d 7e2f 1c3e 4442 943e 06c9 8f3e
00000250: edbe 3f3e 5f30 3b3e 59d3 553e 2fde b43e
00000260: a0d3 ce3d 5b95 843d 4f22 233e 7784 8a3e
00000270: ac12 483e 5059 9b3e 3f63 353e 61c3 8f3e
00000280: e07b 313e 008a 6b3e aa89 793e a05f 5e3e
00000290: f9e5 cc3d ca47 1c3e 6e4a 943e b6bf 8f3e
000002a0: c731 403e d031 3b3e cfd3 553e baa4 b43e
000002b0: cb6f ce3d b4be 823d 47b7 233e e942 8a3e
000002c0: fbd5 473e 2abb 9a3e 05f7 353e 2856 8f3e
000002d0: 62cb 323e e985 6b3e 620f 793e 0bdf 5e3e
000002e0: 7bd3 cc3d a8b4 1a3e 14a0 943e 49c9 8f3e
000002f0: 00b9 3f3e 34a5 3c3e eeb7 553e fecf b43e
00000300: eba0 cd3d c625 833d 7385 223e 6479 8a3e
00000310: 8a1c 483e 6f60 9b3e 9cad 353e f40a 903e
00000320: 66a2 323e 4636 6a3e 0ce4 783e c39e 5e3e
00000330: 77d8 cc3d 7860 1b3e 8619 953e a9be 8f3e
00000340: 4a25 413e 4d79 3d3e 5cda 563e b0cd b43e
00000350: 0dc1 ce3d e517 823d deac 223e 7de5 893e
00000360: 8ecd 473e 11e9 9a3e 43ac 363e 0803 903e
00000370: 322d 313e 6bcb 6b3e 4d67 7a3e d690 603e
00000380: 078f d03d 6cb1 1a3e 56f2 943e fca6 8f3e
00000390: dd11 413e 71d9 3b3e e875 563e 582e b43e
000003a0: 0e3b cf3d 105f 803d 80b3 233e 3ac6 893e
000003b0: f1cc 473e e0fc 9a3e a17d 353e 7241 8f3e
000003c0: ca01 323e f3ac 6a3e 4af4 793e 008a 5e3e
000003d0: f5a6 cf3d e5b9 1b3e 1136 943e 6510 8f3e
000003e0: fefc 3f3e caf2 3b3e 93b6 553e d2f8 b43e
000003f0: f72c cd3d 3163 843d c72a 223e d90e 8a3e
