best_para_path/filmtrust50.20.650.150.250.251.01.00.5_p10_20gatv2_spill_var2_wo_att_explicit_seed0_ex1_0.001_1e-05_0.1_0.01.pt (torch, 133212 bytes, 3 tensors)

user_embedding.weight f4 [1208, 20]
00000000: 211f 173f 953c 373f 4696 fcbe 57bd 8fbe
00000010: 4468 a3be 3d4f d93e 4bb3 f23e 7775 423f
00000020: f92b bc3d ff03 59bd 1672 d63e e666 6fbe
00000030: 3cb1 c1be 7820 21bf 4837 0c3f 41b4 2abf
00000040: c124 fcbe 3018 b83e e422 0f3f 3af2 29bf
00000050: dff0 e23e 174b 763e 1fbc 26bf d90c 96be
00000060: a565 083f d6c2 823e 130f b63e 08a7 173f
00000070: 6cf2 143f 35be 6f3d d50c 42bf 1911 6a3d
00000080: 2941 993e 9cee fdbe 97d4 a33e 4dca c3be
00000090: 7fbf 2bbf cae7 61be c870 0a3f 30a4 e8be
000000a0: ddf7 b73e f2c7 133e 2c56 11bf 5b24 dc3e
000000b0: e9e4 f93e 814b f8be db94 213f 4b00 a63e
000000c0: 999a 0d3f 662b c73c e422 13bf 019f 143e
000000d0: 78ba 1abe 992c 06bf dd53 c03d 63f1 063e
000000e0: e525 08bf cc26 a1be acb9 1b3f 35b0 593e
000000f0: 3882 983e 3485 023f 879a 19be a6cd 09bf
00000100: 841c 09bf 9c29 213f 5796 93be f810 663e
00000110: 4208 6fbe c630 483e 7061 113f 85e2 dcbe
00000120: 74be 0cbf dcb5 8c3e 39bf e93e 3541 19bf
00000130: 6d48 93be 4d8c 043f 0bc3 96be 87ac ebbe
00000140: b8fe 603e b7e8 51bd 2194 16bf 380f cfbb
00000150: 517c 063f 4f3d bbbd 8cd3 fc3e f837 ef3e
00000160: 077c 113f 8ab7 183f 5d27 67be 4425 25be
00000170: 44c7 98bc a133 14bf b3e9 a1bd 3421 82bd
00000180: 2026 2ebf ae1d 09bf aa88 123f 6f78 1ebe
00000190: baca 313f 4b96 223f 7892 e2be 30d4 04bf
000001a0: e669 233f c46f 043e 5920 0abf 8065 be3e
000001b0: 9c2b ac3d a541 aebe 8c87 183c b5a5 583d
000001c0: a6c9 32bf f0bf 993e f8e3 073f 7259 b6bd
000001d0: 37db dabe 1bb8 22bf aea3 c3be 2e2f 37be
000001e0: e29e 283f de9b 383f 49eb 31bf 6595 24be
000001f0: 5863 32bf 3ed8 073f 8ec9 5db9 706f 133f
00000200: 6bc8 273f b881 73be fb94 b63e 292a cebe
00000210: 3169 88be 1962 2ebe f04a 173f 0847 1dbf
00000220: 9405 7e3e 2b77 14bf 3a55 143e fd3a a9be
00000230: 15eb c83c 3007 26bf 174f b03e 5c5c 3dbf
00000240: 3241 783e 3775 8c3e 24b9 e6bc d25c b3be
00000250: 8dc0 d93c b636 24bf 79c8 bbbe cb02 20bf
00000260: 2b80 09bf eaea 893a adb5 1e3f e781 1dbf
00000270: d810 193f 08fa 38bb 0ae4 f9bc a82d 2cbf
00000280: 6448 043f e0b9 e03d 9a6a 3dbf 8435 413e
00000290: f27f a23e 75a8 903e c232 113f 6786 fb3e
000002a0: 1afb e5be e353 a53d 2964 ed3e 796e 04bf
000002b0: 4cc1 553d b0be 0ebf 3218 f93b 30c4 31bf
000002c0: 5599 7cbe 6f25 10bf b479 433f f4b5 19be
000002d0: 919f 1b3f e01b 033f 6e79 3abe 02b0 d63d
000002e0: 1dc0 b8be e028 e23e 04c9 193f 2e0e 27bf
000002f0: dae9 133f 6638 1fbf b88f bfbe dbaa f23d
00000300: 1e49 18bf 1c08 23bf 7b4b d23e a42e f7be
00000310: 05d6 77be b8c8 b73d f375 1c3f 5bf9 e1be
00000320: ac89 fbbe e432 9a3e 68cf 19be f0c8 0ebf
00000330: 4c22 fbbe 1de2 793e 7da0 6a3e fdcd 02bd
00000340: d381 a33d 7352 22bf 8194 b2be 4a02 4cbf
00000350: 3977 0dbf 06b5 36bf 797e 303f b1e0 31bf
00000360: b33b 8b3e fad9 ae3e 857f 703e 5fbb 7dbd
00000370: 45c3 f0be 4c3c 863d 8988 103f 5fd7 07bf
00000380: a63e f4be e059 083f 9ef8 2dbf 5ae2 0dbf
00000390: 2532 27bf f022 01be 9980 053f f2ce 81be
000003a0: 774d edbe 49f6 273f afa2 cb3e 8b5d bbbe
000003b0: 21a3 0c3f 6d1c d93e d403 1bbf 6ec3 89be
000003c0: 8792 a8be 5cb2 dd3e 60c9 033f 7568 e7be
000003d0: 9843 04bf defa e23e 63c4 19bf 63d4 dcbe
000003e0: 11b3 15bf d287 dabe 62a5 273f 1a4c 06bf
000003f0: 4d00 01bf 08bf 113f 842d d33e 6d15 02bf
0.59031874 0.71576816 -0.493334 -0.28074142 -0.31915486 0.42443267 0.47402415 0.7596049
0.091880746 -0.052982327 0.41883916 -0.23379096 -0.37830532 -0.6294017 0.5477185 -0.66681296
-0.4924679 0.35955954 0.55912614 -0.66385233 0.44324395 0.24052082 -0.651308 -0.29306677
0.532801 0.25539273 0.35558376 0.59239244 0.58182406 0.058531005 -0.7580083 0.05714521
0.29932526 -0.49596107 0.3199813 -0.3824028 -0.67089075 -0.22061077 0.5407834 -0.45437765
0.35931292 0.14431742 -0.5677211 0.42996487 0.48807457 -0.48495105 0.6311776 0.324221
0.5531402 0.024312686 -0.57475114 0.1451378 -0.15110195 -0.524118 0.09390996 0.13178019
-0.5318282 -0.31474912 0.6083019 0.21258624 0.2978685 0.509845 -0.15000354 -0.5382942
-0.53559136 0.62954116 -0.28825638 0.2246741 -0.23342994 0.19549856 0.567893 -0.4314157
-0.5497811 0.27482498 0.45653704 -0.59865123 -0.28766194 0.5177658 -0.2944568 -0.46030065
0.21972167 -0.051247325 -0.58819777 -0.006318953 0.5253344 -0.09142553 0.49380147 0.46722388
0.56829876 0.5965506 -0.2257361 -0.16127497 -0.018649705 -0.5789128 -0.07905903 -0.06353989
-0.68026924 -0.5356091 0.5723978 -0.1547563 0.6944996 0.6351058 -0.44252372 -0.5188627
0.63833463 0.1293326 -0.5395561 0.37186813 0.08406755 -0.34034458 0.009309661 0.052892406
-0.6983894 0.3002925 0.5308223 -0.08903779 -0.42745373 -0.6356217 -0.38210815 -0.17889091
0.65867436 0.72112834 -0.6949964 -0.16072614 -0.69682837 0.53064334 -0.00021151287 0.57591915
0.6554019 -0.23779953 0.35660538 -0.4026654 -0.26642755 -0.17029609 0.5909872 -0.6143651
0.24806815 -0.57994336 0.14485636 -0.33052817 0.024526158 -0.6485472 0.3443534 -0.73969054
0.2424362 0.27433178 -0.028164454 -0.35031754 0.026581073 -0.6414598 -0.36676386 -0.6250426
-0.53711194 0.001052228 0.61995965 -0.6152634 0.59791327 -0.0028225202 -0.030504245 -0.67257166
0.5167296 0.10972953 -0.73990786 0.18868071 0.3173824 0.28253523 0.56718075 0.49125978
-0.44918138 0.08072641 0.4636548 -0.5173107 0.052186295 -0.55759716 0.0076017613 -0.69439983
-0.24667867 -0.5630712 0.7635758 -0.15010816 0.60790354 0.5121441 -0.18210384 0.104827896
-0.3608407 0.4417181 0.6007235 -0.6525601 0.57778704 -0.6219543 -0.37414336 0.11848994
-0.5948657 -0.6368425 0.41073212 -0.4827777 -0.24202736 0.08973831 0.61117476 -0.44135556
-0.49128473 0.3011695 -0.15020525 -0.55775356 -0.49049604 0.24402662 0.22912784 -0.031934727
0.079837464 -0.6340706 -0.34878924 -0.7969099 -0.55260044 -0.7136997 0.6894298 -0.69483477
0.27193984 0.34150678 0.23486145 -0.06194627 -0.4702398 0.065544695 0.56458336 -0.53063005
-0.47704047 0.5326214 -0.67957485 -0.5542351 -0.6531089 -0.12610984 0.5214935 -0.253532
-0.46348163 0.65610176 0.39772555 -0.36594805 0.54936415 0.424045 -0.60552716 -0.26906914
-0.32924291 0.4330014 0.5147915 -0.45196882 -0.5166564 0.4433202 -0.6006529 -0.43130788
-0.5847636 -0.42681748 0.6548673 -0.5245987 -0.50391084 0.56932116 0.41245663 -0.50813943

item_embedding.weight f4 [406, 20]
00000000: 8fc4 22bf 9d5c 38bf 8639 4e3f 1355 20bf
00000010: fdd4 5a3f 6567 273f e092 4dbf 49fa 18bf
00000020: 059b 2b3f 539b 39bf de48 123f 7674 8cbe
00000030: 5928 653e 35ab 4b3f 89a5 19bf cef5 bbbe
00000040: f1e3 53bf 50dd 323f 20f4 04bf 14ab ce3e
00000050: e9e5 26bf bd09 b7bd 77ec 2f3f d2d0 2bbf
00000060: b00e 10bf 60f5 303f 4a31 3cbf 7622 22bf
00000070: 044d f0be 3bb1 c0be 6ff6 3d3f 3830 e6bb
00000080: 9f6f f5be 6b68 48bf 3f77 f93e 854a 81be
00000090: f634 323e 4ab8 81be 1b54 00bf 9d1e 0abf
000000a0: 2996 1dbf e2f2 6fbf f660 1b3f 25e3 02bf
000000b0: 470a 53bd 7ec7 103f 4882 03bf 403b 62be
000000c0: 0037 0cbf b945 173f f6fd 153f 8906 10bf
000000d0: 5786 2cbf 742e ed3e 5603 5f3e f30d d33d
000000e0: 4e1b 063f 81f0 5a3e 4345 38bf c7e3 27bf
000000f0: 5b05 2cbf dac4 203f b774 163f 20e4 fcbe
00000100: 10e9 4fbf 0b9b 0f3f b27f 1dbe c273 acbe
00000110: d1ba f8be 5321 1ebf 189a 363e fb20 3ebf
00000120: c841 3dbf 8d54 de3e f1ec 203f f31a e5bd
00000130: 3341 333f a6ce 0f3f 413e fdbe 2a99 493f
00000140: 3d0b 27bf 90bc 3dbf eb0e 893e f096 12bf
00000150: c223 ccbe 1311 c83e 7c7f 06bf 7780 1dbf
00000160: f16d cabe 4a2b 3bbf f79d 193f 6302 1dbf
00000170: df06 d6be 8c5c 823e 45bc e73e f275 27bf
00000180: 9645 043f f30e 243f 69ab 14bf dac6 ecbe
00000190: 0fd8 2abf 8fea 1e3f 0be2 2e3f df7d 5b3f
000001a0: 9691 3dbf a751 273f 9826 4bbf df62 42bf
000001b0: 21ed 1cbf 430a c13e beaa 11bf 4f70 4e3f
000001c0: 7222 34bf 84d1 40bf 5dfc 3bbf 88fc 10bf
000001d0: 1bec 403f e84a 4e3f 04c3 07bf c4e8 503f
000001e0: 7b2d 03bf e440 ccbe 025d 153f 58ab dbbe
000001f0: c19b 1fbf feaf 143f f4ad 19bf 9707 1fbf
00000200: 0066 16bf 2481 22bf b446 1d3f 6424 f13e
00000210: 6630 dabe 2ced 433f 3879 523e 6927 82be
00000220: 26e1 3a3f 0d7e 073f 6455 a3be 3913 05be
00000230: 137d 02bf bd53 df3e c21f 243f 3e50 27bf
00000240: 75a2 1dbf 1a4e 373f 0375 9abe 007c 053f
00000250: cfd5 21bf 725f f6be 29bc 2b3f b09b 23bf
00000260: c7eb c2be 7f51 093f b493 86bb 0b64 d2be
00000270: 2c26 1a3f b71f 243f 9ce4 1fbf 225d 1b3e
00000280: 3711 19bf 0647 de3e 2bdb 98bd 4288 11bf
00000290: f4dd afbe 8f2c 3a3f a2c7 0bbf f109 04bf
000002a0: 9d2d 1bbf c89d 18bf ec54 123f 1c6d 45bf
000002b0: 5744 0fbf c1c0 f53e e4e3 c7be 99a4 283e
000002c0: 6fb9 e7bd fb7a 5b3f c090 39bf 2676 76be
000002d0: c604 04bf 96d0 41bf efcd 293f 754e 0abe
000002e0: 2a21 d5be 75e3 133f 7e18 44bf 022c d03e
000002f0: 1c14 21bf 88b1 3f3f 6793 3c3f 2cc9 543f
00000300: d70f db3e f74a ed3e 4221 2abf 7280 b03e
00000310: 8fcc 253f c565 303f 16b0 e1be a8d0 153f
00000320: e0f5 303f 3b38 dd3e edae 293f dd35 41bf
00000330: 5f71 0ebf 892c 093f 4b7a 37bf 2c25 39bf
00000340: e482 0abf 081d 1dbf 2c29 113f ddfe 29bf
00000350: e275 01bf 29b6 5b3e d7a1 1d3f f906 d7be
00000360: 20a9 083f 5640 2e3f ef3b 0ebf ee41 dabe
00000370: de58 26bf b198 36bf 4124 493f cf4b f53e
00000380: d691 793e 088a 19bf 7483 143d 87c3 13bf
00000390: 02bc 53bd f95f 153f 82e0 ab3e a72b 1e3f
000003a0: 8a60 c23e 4603 453f 2521 c3be 313a 273f
000003b0: e0da 3bbe 3542 72bc bfab 86be adc8 d33e
000003c0: 0fbb ddbe 0b35 75bd 22f2 903e 6237 28bf
000003d0: 14f6 13bf 652e 423f 05c0 2ebf f7b9 16bf
000003e0: a120 14bf 761f ebbe 05d8 3c3f 0055 0cbf
000003f0: 95e4 13bf 03ae 3c3e ffc3 c13e e6ff d6be
-0.63581175 -0.72016317 0.80556524 -0.6262981 0.85481244 0.6539214 -0.8030224 -0.59756905
0.67033416 -0.7250263 0.57142437 -0.27432603 0.22378673 0.79558116 -0.6001821 -0.36710972
-0.82769686 0.69868946 -0.51935005 0.40364897 -0.65194565 -0.08937404 0.6872019 -0.6711551
-0.5627241 0.6912441 -0.7351271 -0.63333833 -0.46933758 -0.37635216 0.7420415 -0.007024791
-0.47936723 -0.7828433 0.4872379 -0.25252166 0.17403015 -0.25335914 -0.50128335 -0.5395296
-0.6155725 -0.93729985 0.60694826 -0.51127845 -0.051523473 0.565544 -0.5137067 -0.22092915
-0.54771423 0.59090763 0.5859064 -0.5625997 -0.67392486 0.46324503 0.21778616 0.10305395
0.52385414 0.21380807 -0.71980685 -0.65581936 -0.6719567 0.6280037 0.5877184 -0.49392796
-0.81215 0.5609595 -0.15380743 -0.33682066 -0.4858003 -0.617696 0.1783222 -0.74269074
-0.739285 0.43423882 0.62861544 -0.11186781 0.7002136 0.56174695 -0.49461558 0.78749335
-0.65251523 -0.7411585 0.26769194 -0.5726156 -0.3987103 0.39075527 -0.52538276 -0.61524147
-0.39537004 -0.7311293 0.6000666 -0.61331767 -0.41802117 0.25461233 0.45260826 -0.65414345
0.5166868 0.6408531 -0.5807405 -0.46245462 -0.6673593 0.6207666 0.68313664 0.8573894
-0.7405027 0.65358967 -0.79355764 -0.75932115 -0.6129933 0.37703142 -0.56901157 0.8064012
-0.7036506 -0.75319695 -0.7343195 -0.5663533 0.7536027 0.8058305 -0.53031945 0.8160517
-0.5124127 -0.39893258 0.58345044 -0.42904162 -0.62347037 0.5808104 -0.60031056 -0.62120956
-0.5874939 -0.634783 0.6143601 0.47098076 -0.4261505 0.7653377 0.20554054 -0.25420693
0.729998 0.52926713 -0.31901085 -0.12995614 -0.509721 0.43618575 0.6411096 -0.65356815
-0.61576015 0.7160355 -0.30167398 0.52142334 -0.6321687 -0.48119694 0.67083985 -0.63909435
-0.3807051 0.5363998 -0.004106963 -0.41091952 0.60214496 0.64110893 -0.62458205 0.15172246
-0.5979189 0.43413562 -0.07463678 -0.5684854 -0.34349024 0.7272424 -0.5460149 -0.5157767
-0.60616475 -0.59615755 0.5716083 -0.7711961 -0.55963653 0.47998622 -0.39041054 0.16469039
-0.113146655 0.8573453 -0.72486496 -0.24068508 -0.51569784 -0.757089 0.66329855 -0.13506491
-0.41626865 0.57768947 -0.7659987 0.40658575 -0.6292131 0.74880266 0.7366242 0.83119464
0.42785522 0.46346256 -0.66457 0.34472996 0.64765257 0.6890529 -0.44079655 0.5852151
0.69125175 0.43206963 0.6628254 -0.75472814 -0.5564174 0.5358358 -0.7167098 -0.72322345
-0.54105973 -0.61372423 0.5670345 -0.66404516 -0.505705 0.21456207 0.61575073 -0.41997507
0.53383064 0.6806692 -0.555602 -0.42628425 -0.6497935 -0.7132674 0.78570944 0.479094
0.24372038 -0.59976244 0.036258176 -0.57720226 -0.05169297 0.5834957 0.33569723 0.6178536
0.37964278 0.7695812 -0.38111225 0.6532317 -0.18345213 -0.014786293 -0.26302907 0.4136404
-0.43306777 -0.05986504 0.28309733 -0.6570951 -0.5779736 0.7585204 -0.6826175 -0.5887751
-0.5786229 -0.4592244 0.7376712 -0.548172 -0.57770663 0.18425755 0.37844846 -0.4199211

linear_trans_neigh.weight f4 [20, 20]
00000000: 4fb8 803d 22c9 ac3d 6692 4f3d 4f62 d6bb
00000010: 0d9c 83bc 42e9 64bc 0997 09bd f10f 8a3d
00000020: d93b cd3c f694 943d caed abbc cf69 043d
00000030: f807 663c f496 673d 40f3 623d b76e 423d
00000040: 1218 163d 0945 fb3c 97cf 833d 5fee 943d
00000050: 2ccc 803d f1c9 ac3d 1f43 4f3d 7b99 d6bb
00000060: 56db 83bc c7db 64bc 1d8e 09bd 3915 8a3d
00000070: 4928 cd3c ce96 943d 8927 acbc 5a6c 043d
00000080: fe06 663c 220c 673d 6bf8 623d 7069 423d
00000090: bc0d 163d 3e44 fb3c eabc 833d 0708 953d
000000a0: 63cc 803d d0d7 ac3d 3e98 4f3d 484f d6bb
000000b0: 06d1 83bc de0a 65bc 233b 09bd 4819 8a3d
000000c0: 571a cd3c 1a5f 943d 8644 acbc 5f6e 043d
000000d0: bbd3 653c 2966 673d 13fe 623d 395e 423d
000000e0: 6d1b 163d d89e fa3c a7b2 833d 3ded 943d
000000f0: 4acd 803d 48d0 ac3d 4a71 4f3d 0b0c d7bb
00000100: 90a7 83bc 883f 65bc db2e 09bd 8019 8a3d
00000110: 1aec cc3c cd96 943d 51d6 abbc 5575 043d
00000120: f595 653c 9982 673d 91e6 623d 3c5e 423d
00000130: b510 163d 5551 fb3c cfdf 833d 3000 953d
00000140: 84cc 803d ddc7 ac3d 3398 4f3d b987 d6bb
00000150: 58f5 83bc f0de 64bc 5338 09bd 4f0d 8a3d
00000160: b138 cd3c fc96 943d d11c acbc b974 043d
00000170: 756e 653c 9b94 673d d6e6 623d b480 423d
00000180: de04 163d 46e3 fa3c eedd 833d e426 953d
00000190: a7b7 803d 76d7 ac3d e994 4f3d 9f4e d6bb
000001a0: 74ea 84bc 3066 65bc ae30 09bd b913 8a3d
000001b0: 1012 cd3c 0c95 943d 2459 acbc b16b 043d
000001c0: 1cd8 653c e679 673d d0e6 623d 595e 423d
000001d0: 4213 163d a40e fb3c 1ee1 833d 44ef 943d
000001e0: c7cb 803d cfd7 ac3d df73 4f3d fea8 d6bb
000001f0: e590 83bc d359 65bc 622e 09bd f209 8a3d
00000200: a92b cd3c a777 943d 97d1 abbc c773 043d
00000210: 0007 663c 1785 673d 19ff 623d 615e 423d
00000220: b507 163d b0b2 fa3c 77d3 833d e8ec 943d
00000230: 04cc 803d 73c7 ac3d 9a62 4f3d 7d95 d6bb
00000240: c798 83bc 28dd 64bc e045 09bd 6219 8a3d
00000250: 3528 cd3c dc96 943d 9ed1 abbc 986f 043d
00000260: faa4 653c d5fc 663d e6e7 623d 5f5e 423d
00000270: 4813 163d 0d37 fb3c f1d6 833d 98ed 943d
00000280: c6bd 803d 83cf ac3d d76a 4f3d 3808 d7bb
00000290: 7695 83bc 4934 65bc a82e 09bd 6b18 8a3d
000002a0: 8b0d cd3c d373 943d e4f6 abbc a275 043d
000002b0: a7df 653c c696 673d 42ef 623d 6967 423d
000002c0: c10d 163d d0eb fa3c 1ad6 833d 59ec 943d
000002d0: b0c4 803d c7d7 ac3d bc97 4f3d 1ed7 d6bb
000002e0: 9093 83bc f5da 64bc d93c 09bd 8a19 8a3d
000002f0: f6c4 cc3c a796 943d b011 acbc 5d67 043d
00000300: f4f4 653c ba90 673d d6e6 623d f360 423d
00000310: 7a14 163d 111b fb3c 26e1 833d fa08 953d
00000320: 2fcc 803d 71d7 ac3d 7f97 4f3d b26a d6bb
00000330: 1ba1 83bc 3f57 65bc 7b32 09bd 6b19 8a3d
00000340: cfdb cc3c 265f 943d b1d1 abbc 5a74 043d
00000350: a1d7 653c 8166 673d 2eea 623d a183 423d
00000360: 0817 163d cbfe fa3c 84d0 833d 2d04 953d
00000370: d3cb 803d 32cc ac3d 7797 4f3d bfc4 d6bb
00000380: 7e92 83bc afb9 65bc bb37 09bd 5219 8a3d
00000390: a3ff cc3c fc96 943d 1c19 acbc 5473 043d
000003a0: e6d3 653c c86c 673d e5e6 623d b55e 423d
000003b0: e212 163d 2f47 fb3c acd5 833d efed 943d
000003c0: 1598 803d 27c8 ac3d 0186 4f3d 5b51 d6bb
000003d0: 27dc 83bc 55dc 64bc 3243 09bd c617 8a3d
000003e0: 3c0e cd3c 3c5f 943d 21f3 abbc 9449 043d
000003f0: d008 663c 2096 673d 08e9 623d 3c5f 423d
0.06285154 0.084368005 0.050676726 -0.006542481 -0.016065622 -0.013971629 -0.033591304 0.06741322
0.025052952 0.072549745 -0.02098741 0.03232747 0.014039986 0.056540444 0.055407763 0.047468867
0.03664405 0.030672567 0.06436079 0.07272028 0.06288943 0.08436955 0.05060112 -0.006549058
-0.016095798 -0.013968415 -0.033582795 0.06742329 0.025043624 0.07255326 -0.021014946 0.032329895
0.014039753 0.056408055 0.05541269 0.047463834 0.036634192 0.030672189 0.06432517 0.07276922
0.06288984 0.084396005 0.0506823 -0.006540213 -0.016090881 -0.013979642 -0.033503663 0.06743103
0.025036974 0.07244702 -0.021028768 0.03233182 0.014027531 0.056493912 0.055418085 0.04745314
0.03664725 0.03059332 0.064305596 0.07271812 0.06289156 0.08438164 0.05064515 -0.006562715
-0.016071111 -0.013992198 -0.03349195 0.06743145 0.025014926 0.072553255 -0.020976217 0.03233846
0.014012803 0.056521032 0.055395667 0.04745315 0.036637027 0.03067843 0.064391725 0.072754264
0.06289008 0.084365584 0.050682258 -0.006546941 -0.0161082 -0.013969168 -0.03350098 0.0674082
0.025051447 0.072553605 -0.021009834 0.032337878 0.014003386 0.056538206 0.055395924 0.047486022
0.036625735 0.03062595 0.06438814 0.072828084 0.06285029 0.084395334 0.05067912 -0.006540134
-0.016225077 -0.014001414 -0.03349369 0.06742043 0.025033027 0.07254991 -0.0210386 0.032329265
0.014028575 0.056512736 0.0553959 0.04745326 0.03663946 0.03064663 0.06439422 0.07272199
0.062888674 0.084396 0.050647613 -0.006550907 -0.016060302 -0.013998467 -0.0334915 0.06740178
0.025045233 0.072493844 -0.020973964 0.032336976 0.014039755 0.05652341 0.05541906 0.047453288
0.036628444 0.030602783 0.06436818 0.07271749 0.06288913 0.084364794 0.050631143 -0.006548582
-0.01606406 -0.013968743 -0.033513904 0.06743123 0.025043586 0.07255337 -0.020973977 0.032332987
0.014016384 0.056393463 0.055396937 0.04745328 0.03663948 0.030665899 0.06437481 0.0727188
0.062861964 0.08438017 0.050639 -0.006562259 -0.01606248 -0.0139895165 -0.03349176 0.067429386
0.025030872 0.07248654 -0.02099175 0.032338746 0.014030374 0.056540273 0.055403955 0.0474619
0.03663421 0.030630022 0.06437321 0.07271642 0.06287515 0.08439594 0.050681815 -0.0065564057
-0.016061574 -0.013968219 -0.033505294 0.067431524 0.024996262 0.07255297 -0.021004528 0.032325137
0.014035452 0.056534506 0.055395924 0.04745574 0.03664062 0.030652555 0.06439428 0.07277103
0.06288945 0.0843953 0.050681587 -0.006543481 -0.016068032 -0.013997852 -0.033495408 0.06743129
0.025007157 0.072447106 -0.020974012 0.032337524 0.014028461 0.05649424 0.055399112 0.047488812
0.036643058 0.030639073 0.064362556 0.07276187 0.062888764 0.08437385 0.050681558 -0.0065542157
-0.016061064 -0.014021321 -0.033500414 0.06743111 0.02502424 0.072553605 -0.021008067 0.032336548
0.014027571 0.056500226 0.05539598 0.0474536 0.0366391 0.030673591 0.06437239 0.07271945
0.06279007 0.084366135 0.050664905 -0.00654046 -0.016096188 -0.013968547 -0.033511348 0.06742816
0.025031202 0.07244727 -0.020989956 0.032296732 0.014040187 0.056539655 0.055398017 0.047454104
