best_para_path/filmtrust50.20.650.150.250.251.010.00.5_p10_20gatv2_spill_var2_explicit_seed0_ex1_0.001_1e-05_0.005_0.01_0.01_0.001.pt (torch, 133927 bytes, 4 tensors)

user_embedding.weight f4 [1208, 20]
00000000: 1542 2bbf 43f1 43bf 0aee 36bf dc46 1e3e
00000010: e552 fe3e 08f8 333f fdda f4be 5401 b53e
00000020: 65fe cabe 2d4b 3abf 33c7 703e 8b7f b73d
00000030: bfab 19bf 2c22 d8bd 89e8 843e 78bc 69be
00000040: 402d 1abf 6e11 8f3e e3e8 1dbe 46f7 0b3f
00000050: 1173 f5be f864 dfbe 1abc d5be 4f79 b7be
00000060: 4359 f13d c018 fa3e 8176 0c3f adc6 f3be
00000070: 9c84 2bbf ba5a f2bc 532a 97be fdb6 fa3e
00000080: 8971 9fbd d1e5 123f 5219 ec3e ddce b33e
00000090: 5018 04be 2cd5 e9be b1a1 38bf b3ef fc3e
000000a0: 57cd bfbe ce46 46be 1442 1abe 119e e23d
000000b0: b7b8 05bf caec 5c3e 4dc6 083f 9ae6 0dbf
000000c0: 0917 20bf ac75 cdbe c632 54be 7196 223f
000000d0: b05f ae3c 4b51 da3e 3f2a ef3e d43a 363e
000000e0: f2b9 ee3b 5aaf ccbe 1b74 11bf 220e e43e
000000f0: 3740 13bf ca31 cbbe 1267 0abf dff5 a4be
00000100: 599c 2d3f d166 cd3e fc2c d5be e5c6 233f
00000110: 5485 e63e e5d2 bebe 4bfa 183f c87e 8abe
00000120: df75 ecbe 8858 20bf 651a f93e 5963 ca3e
00000130: f5f0 dbbe cb0a 013f 95f7 113f e865 cebe
00000140: 0b1f e1be aaac acbe f76b e03d 11e9 dbbe
00000150: cf97 80be f0a7 f93e cb91 af3e 361d 1ebf
00000160: 6617 dabe 5baa e5be 4601 a73c 4611 213f
00000170: 14ea 0e3f 4542 edbe b166 f03e 7789 debe
00000180: fe0c 9cbe 7fcd 03bf 60a0 f7be 1a03 d63e
00000190: 3d44 1e3e b846 31bf 53f6 36bf 261d 98bd
000001a0: e565 aebd b129 bdbe 3021 323f 5913 53be
000001b0: d3a2 0c3f c184 40bf 8ac6 89be 2f26 163f
000001c0: b197 3dbf 6eb1 f13d 019a a43e 7eb1 a63e
000001d0: bce6 37bf c5a8 263f 0d77 d93e 604c 8e3e
000001e0: fc0d 03bf d539 36bf bbfd 07bf b517 b23e
000001f0: 4f42 123f 0847 953c 9915 f1be c7f8 983e
00000200: 1424 d63e 6294 cdbe fef9 13bf 6564 efbe
00000210: 9f70 1d3f 4277 1cbf 6178 4b3f 90fe 1a3f
00000220: 3db3 21bf 0378 1bbf 75ae a03e 63b1 e6be
00000230: a0cd 27bf e567 17bf 4a35 0fbf 5e22 cabe
00000240: 093d 98be 7dbc 213f 04cc cdbe 42c3 213e
00000250: 1d03 313e fcb3 a6be a6ce 823e 7d23 aaba
00000260: f720 afbd 337c 2ebf a354 353f d65a 2a3f
00000270: e987 24bf 6967 00be d528 0b3f 8ea1 07bf
00000280: 7891 52bf 9d24 e2be 817c 3ebf 841b cdbe
00000290: 4f3d c4be 5c46 543f 595f 03bf 671c 19bf
000002a0: 996a cabd d0c4 103f 7782 f2be 708d 5d3e
000002b0: 7493 d2be 63ae fb3e 9f5f 493f fe6e c23d
000002c0: 0524 b73c 934b 3abf 02e7 47be 9290 02be
000002d0: d718 cdbe f305 b5be 2112 fcbe c5b2 a8be
000002e0: a5c6 b33e fef5 c93e 6b12 d3be c5c9 b53e
000002f0: 9164 17bf 53e3 c3be bf88 3bbf 6e31 d4be
00000300: 2f98 b5be 131c d2be 3883 313f e4bd 003f
00000310: 19cd e63d e8ad 13bf d8b6 dabe 6503 15bf
00000320: ee48 1dbf d96a a6bd ad55 6fbe d5af 983d
00000330: cef2 1b3f 7cf3 fa3e 85dc 24bf 2cb9 ae3e
00000340: 0507 c43e e836 aebe 6f75 d73e 5555 f63d
00000350: e5b6 0f3d 2725 29bf ee5c 203f 8ffd 263c
00000360: 24e5 12bf ae74 6dbf b0cf fd3e 0863 08bf
00000370: eb64 cebd a157 ea3e 6751 fd3e ee94 14bf
00000380: 93c9 113f 32b1 fdbe 1b9c 28bf 1b47 113f
00000390: e80c 173f 824a f9be 7a17 153f 4bcb 17bf
000003a0: a9e8 14bf 089c f9be 80f6 00bf 684a 023f
000003b0: ed20 00bf 9341 153f 749d 0b3f 857a 12bf
000003c0: ee53 88bd 863b 323d e30b d13c db22 3cbf
000003d0: 2c9c d23e 457e e63e 7be0 603d a330 203f
000003e0: 88be 063f 2894 0dbf 35ee 273f 1120 16bf
000003f0: 1553 2fbf 8751 1abf d967 f6be fef1 1e3f
-0.6689771 -0.7654001 -0.7145697 0.15456718 0.49672619 0.7030034 -0.47823325 0.35352576
-0.39647213 -0.7277096 0.23513488 0.08959874 -0.6002769 -0.10553393 0.2595866 -0.22825801
-0.60225296 0.27942985 -0.1542087 0.54674184 -0.4793935 -0.4363172 -0.41745073 -0.3583474
0.117846034 0.48847008 0.5486832 -0.47612515 -0.6699922 -0.029584277 -0.29524478 0.48967734
-0.07785327 0.5738192 0.46113068 0.35118762 -0.128999 -0.4567045 -0.7212172 0.49401626
-0.3746135 -0.19362947 -0.1506427 0.11065305 -0.5223498 0.21574703 0.5342758 -0.55429995
-0.6253515 -0.4012884 -0.20722494 0.63510805 0.021285862 0.42640147 0.4671192 0.17795879
0.00728535 -0.39977533 -0.5681779 0.44542032 -0.5751986 -0.39686424 -0.5406352 -0.32218835
0.6781669 0.40117505 -0.41635883 0.63975364 0.45023596 -0.37270275 0.59756917 -0.2704985
-0.46183679 -0.6263509 0.4865295 0.3952892 -0.42957273 0.50407094 0.57018405 -0.40312123
-0.43968996 -0.33725482 0.10958093 -0.42951253 -0.2511582 0.4876094 0.3429092 -0.6176332
-0.42595977 -0.44856533 0.02038635 0.6291698 0.55825925 -0.46339622 0.46953347 -0.43464252
-0.30478662 -0.5148544 -0.48364544 0.4179924 0.15455718 -0.69248533 -0.7146961 -0.074274346
-0.085155286 -0.3694587 0.6958189 -0.2061285 0.5493595 -0.75202566 -0.26909286 0.58652014
-0.7405959 0.1180142 0.32148746 0.3255729 -0.7183645 0.6510127 0.4247364 0.27792645
-0.51193213 -0.71181995 -0.53121537 0.34783712 0.5713243 0.018222347 -0.4708679 0.29877302
0.418244 -0.4015227 -0.5780333 -0.46756282 0.6149997 -0.61119473 0.7948056 0.6054468
-0.6316412 -0.6073 0.313831 -0.4505721 -0.65548134 -0.59142905 -0.5594069 -0.39479345
-0.29734066 0.63178235 -0.40194714 0.15797141 0.17286344 -0.32559192 0.25548285 -0.0012980547
-0.085512094 -0.6815826 0.7083227 0.66544855 -0.6426988 -0.12539448 0.5435918 -0.5298089
-0.8225322 -0.4416856 -0.7440873 -0.40060055 -0.38328025 0.8291986 -0.51317364 -0.59808964
-0.09883613 0.5655031 -0.47365162 0.21635985 -0.41128123 0.49156484 0.7866153 0.09493826
0.022356043 -0.7277157 -0.19521716 -0.12750462 -0.40058014 -0.353561 -0.4923258 -0.3294889
0.3511249 0.3944549 -0.4122499 0.355055 -0.5913783 -0.38259372 -0.7325553 -0.41443962
-0.3546767 -0.41037044 0.6934085 0.5028975 0.11269588 -0.57687235 -0.42717624 -0.58208305
-0.61439407 -0.08125848 -0.23372526 0.07455412 0.60917366 0.4901389 -0.64398986 0.3412565
0.38286605 -0.34026265 0.42081782 0.120279945 0.03508653 -0.66072315 0.626418 0.010192289
-0.5738089 -0.92756164 0.49572515 -0.5327611 -0.10077842 0.4576998 0.49476168 -0.5803975
0.569482 -0.49549252 -0.658632 0.56749123 0.5900407 -0.48689657 0.5823895 -0.59294575
-0.5816751 -0.48751855 -0.5037613 0.50894785 -0.5005024 0.58303183 0.5453713 -0.572182
-0.06656633 0.043513797 0.025518363 -0.73490685 0.41134775 0.4501821 0.05490158 0.62574214
0.5263448 -0.55304193 0.6559785 -0.5864268 -0.6848615 -0.6028065 -0.48126104 0.62088

item_embedding.weight f4 [406, 20]
00000000: 12fc 163f b01e 3b3f 2b12 ec3e 483c d3be
00000010: 0cd8 983e e2fe 27bf b0e1 95be 20ad 013f
00000020: 69e2 1e3f 8030 253f 04ae 023f cae3 e3be
00000030: 575d f9bc 49ca c9be 3292 45bf 3b72 403f
00000040: b1bc 0e3e 13d7 95bc 8d0d 393f daad 533f
00000050: a7f8 2fbf 4387 1f3f 1dfe 8ebe 34c9 cdbe
00000060: d874 eb3e 2c68 233f bde1 30bf d997 2d3f
00000070: 187a 203e ef6d 273f b358 273f 6c54 30bf
00000080: 588f de3e 5151 32bf a004 05bf 8d1e 17bf
00000090: c53b f0be c517 323f ea59 103f 4400 30bf
000000a0: 2229 e0be 45b0 5e3f 238b 243f 8927 08bf
000000b0: 5989 963e 9726 8b3e 3504 d4be 0074 fe3e
000000c0: 050b 133f dde6 443f 1ffa e33e 8022 97be
000000d0: d095 16bf 8df7 05bc ba33 0bbf 6d9f 143f
000000e0: ba3e e3be b71c 623f 95ba 043f f6a9 23bf
000000f0: bdb7 25bf bf00 453f b590 3c3f 9ee9 ebbe
00000100: 253f 253f c457 30bf 83f5 37bf 9090 ea3e
00000110: d02f 063f 7f67 49bf 3460 e13e 05e4 2bbf
00000120: 6ca9 09bf 9c97 febe 3fe2 703f 7764 233f
00000130: f01b fcbe 6d0e 383f 09e0 b13e 2339 df3d
00000140: e53e a2be 6281 eb3e d3d1 1b3f bf1e 3c3f
00000150: 04e4 fc3e a5f4 313f 2e14 30bf 75fb 163f
00000160: 2104 023f b32e 28bf e985 223f 06c1 2bbf
00000170: 2f30 e03d 06ab 41bf 294c 0bbf abee b3be
00000180: 57fc 22bf c40d 233f 218b 193f f7f0 6fbe
00000190: 507a 3b3f bb85 2b3f 342d 203f 272c 67bf
000001a0: 30e4 023f 7e39 34bf efa1 123f 50ba d83e
000001b0: 5c87 863e 7f41 f13e e9dc 003f e58e 30bf
000001c0: 67ea 04bf d504 0cbf 3679 44bd 67e4 393f
000001d0: a8ad 0a3f c7f9 263f cd0a bb3e 8138 12bf
000001e0: 30f4 a8be 6d8b e63e c19d 413f 19c0 18bf
000001f0: 34ae 0d3f 7e71 4bbf 30c7 1fbf 6693 d43e
00000200: e71a 183f 45dd 283f ec4d 2f3f 2c81 2bbf
00000210: 5ab2 743f 215a d1be 93f6 c4bc e99a 613f
00000220: b335 25bf 9597 153f 333e 073f d580 44bf
00000230: 7a72 ebbc 78e3 643e d7dd 5bbe 7b9e 18be
00000240: 01a8 833e cf15 62bf 05e3 32bf b047 063f
00000250: dbf3 183f 2eb2 57be b829 ff3e fe62 10bf
00000260: ce48 bfbe 9bb5 2dbf 0977 123e 6d86 393f
00000270: da2c 20bf 0041 2d3f d043 383f 9bfa 22be
00000280: a521 cc3e 7c42 a03e bc28 f5be f846 3a3f
00000290: e00f 543f 4325 b5bd 2252 d2bb a4d3 6ebe
000002a0: 0c1d 2c3f 65e2 773e efba 053f 36f5 4bbf
000002b0: 301f 2cbf 15ae 26bf de84 a63d ffcf 2cbe
000002c0: 1a6e d33e b8bc 2c3f 26f8 303f e832 52bf
000002d0: 8416 283f 4694 293f 7c4a 1e3f 31b3 24bf
000002e0: b8b7 fd3e c632 d9be 02bf 18bf 89eb 253e
000002f0: d7db 8d3e 8e90 2d3f 42cd 333f 3c49 1fbf
00000300: 64bc 31be f7d1 a33e ec7e 37bf 6fc4 3bbf
00000310: 165b 163f 943f 2c3f 18ac 613e 7994 70be
00000320: 131e d3bd a981 eabd f43d 843e 94ef 27bf
00000330: e86c fe3e 4fcf 1e3f eae6 043f 4703 253f
00000340: 9d88 e53e 1915 1abf 27e4 043e 6bfb 25bf
00000350: b81b 2fbf c333 49bf c13b 1b3f cf3f 233f
00000360: 3e97 16bf 2f23 a83e 0dae 223f 85bc 4cbf
00000370: 95b5 1c3f 6522 023f 9d2e 1d3f 3c9c 41bf
00000380: 1484 19bf b598 23bf 65fd d33e 0341 b7be
00000390: b0b4 ee3e 2f7a ef3e ce54 07be cde6 1fbf
000003a0: 6456 35bf a8b2 153f f0cc 14bf ee01 08bf
000003b0: 46f4 c03e dc44 3f3f c3ba aa3e c652 0f3f
000003c0: 268a 35bf bcde 1b3e 01c0 093f 67fc 193f
000003d0: f53c 733e 369a 303f b206 3fbf 1c18 003f
000003e0: d2fb 1a3f f2c4 08bf 92ff 273f 6168 33bf
000003f0: 8b90 3cbf c92d d8be 9ee1 35bf cd59 ce3e
0.5897838 0.730937 0.4610761 -0.41256928 0.2985233 -0.65623295 -0.29273748 0.5065479
0.62064224 0.6452713 0.51046777 -0.44509727 -0.030440016 -0.39412144 -0.771762 0.751743
0.13939168 -0.018291032 0.722863 0.8268715 -0.6873879 0.6231577 -0.27928248 -0.40192568
0.45987582 0.6383083 -0.6909445 0.67809826 0.15671575 0.6540212 0.6536972 -0.6887882
0.43468738 -0.6965533 -0.5196018 -0.5903099 -0.469206 0.6956752 0.563872 -0.68750405
-0.43781382 0.86987716 0.64274806 -0.53185326 0.29401663 0.2717788 -0.4140946 0.49697876
0.5743869 0.7691477 0.44526765 -0.2951851 -0.58822346 -0.0081766965 -0.54375803 0.58055764
-0.44383794 0.88325065 0.518472 -0.63931215 -0.6473349 0.76954263 0.73658305 -0.46076673
0.64549476 -0.6888392 -0.71858996 0.45813417 0.52416706 -0.7867355 0.4401871 -0.67144805
-0.5377414 -0.49725044 0.94095224 0.6382517 -0.49240065 0.7189701 0.34741238 0.1089957
-0.3168861 0.4599715 0.6086704 0.73484415 0.49392712 0.6951392 -0.6878079 0.5897744
0.5078755 -0.6569626 0.6348558 -0.67091405 0.1094669 -0.75651586 -0.54413086 -0.35143027
-0.6366629 0.6369288 0.5997792 -0.23431765 0.7323351 0.6700093 0.62568974 -0.90301746
0.51129436 -0.70400226 0.5727834 0.42329645 0.26275146 0.47120282 0.5033708 -0.6896804
-0.5192017 -0.54694873 -0.04796716 0.7261414 0.5417123 0.6522488 0.36531678 -0.5711747
-0.329988 0.45028248 0.7563134 -0.5966812 0.5534394 -0.7947005 -0.6241331 0.41518706
0.5941605 0.6596263 0.68478274 -0.66993976 0.9558464 -0.40889075 -0.024043357 0.88127
-0.64535064 0.5843442 0.52829283 -0.7675908 -0.02874111 0.22352397 -0.21471344 -0.14904206
0.25714114 -0.8831453 -0.69877654 0.52453136 0.59747094 -0.21064064 0.49836516 -0.5640105
-0.37360233 -0.6785523 0.14303221 0.7247074 -0.6256844 0.6767731 0.71978474 -0.15915911
0.3986942 0.31300724 -0.4788264 0.7276454 0.82836723 -0.08844998 -0.0064184824 -0.23322922
0.6723182 0.24207456 0.52238363 -0.7967104 -0.6723509 -0.6510938 0.08130811 -0.16876219
0.41294938 0.6747546 0.69128644 -0.82108927 0.65659356 0.6624187 0.61832404 -0.64335924
0.4955423 -0.4242155 -0.59666455 0.16203131 0.27706787 0.677987 0.70235074 -0.6222112
-0.17357022 0.31996128 -0.7167804 -0.7334661 0.58732736 0.6728451 0.22038305 -0.23494138
-0.103084706 -0.11450512 0.25828516 -0.6559994 0.49692464 0.6203508 0.51914847 0.64458126
0.4483079 -0.6018844 0.12977658 -0.6483676 -0.6840167 -0.7859461 0.6063805 0.6376924
-0.5882453 0.32839343 0.6354683 -0.7997516 0.6121457 0.5083373 0.6139925 -0.7562902
-0.5996716 -0.6390489 0.41404262 -0.35791788 0.4662223 0.46772906 -0.13215944 -0.6246155
-0.70834947 0.5847573 -0.5812521 -0.53127944 0.37686366 0.74714446 0.33345613 0.5598568
-0.7091392 0.15221685 0.538086 0.6015076 0.23753722 0.6898531 -0.7461959 0.5003679
0.605405 -0.53425515 0.65624344 -0.70081145 -0.73658055 -0.4222243 -0.7104739 0.40302888

linear_att_out.weight f4 [1, 40]
00000000: 373a e3bd 4cb1 7abc 3e4f a3bd 78ef 123d
00000010: 3b6e 153e c304 d53d afc8 77bd 4167 4abb
00000020: 7303 9b3c 4c04 94bd 898f a7bc 9222 0ebd
00000030: abfe 80bd 189c 13be 1994 ba3a 672f 79bd
00000040: d876 4dbd 8998 a03b c838 c6bc 1ba3 b8bb
00000050: 4c92 d6bd e353 9dbd 4326 cfbd b6ed 8ebc
00000060: e60b bc3d e299 de3d 04a1 8fbd 121f 253d
00000070: 714f 0f3d 2242 bbbd e162 843c 5480 f4bb
00000080: ec1f 18bd 4526 d2bd 85b1 b03d 3c82 0e3d
00000090: 5e81 cabd 0c5e a83b fc98 9b3c 0a12 29bd
-0.11095088 -0.01530106 -0.079740986 0.035872906 0.14592831 0.10401299 -0.06049412 -0.0030884298
0.018922543 -0.07227382 -0.020454185 -0.034700938 -0.06298574 -0.14415014 0.001423481 -0.060836222
-0.050162166 0.004900996 -0.024196997 -0.005634678 -0.10477123 -0.07682016 -0.1011472 -0.017447334
0.09181957 0.108691946 -0.07013133 0.040312834 0.03498787 -0.09143473 0.01616043 -0.007461587
-0.037139818 -0.102612056 0.08627609 0.03479217 -0.09887956 0.0051381644 0.018993847 -0.04127697

linear_trans_neigh.weight f4 [20, 20]
00000000: 99a4 d33d 0c92 5e3e eb5d 883e 1a97 683e
00000010: 669a e13c 6afb 383e a3cc ec3d e372 a03e
00000020: ec89 483e 4c16 503e 2d06 373e c6a4 cd3e
00000030: b514 313e be4d dd3d 3449 523e fb07 993e
00000040: 4236 c83d a968 a83e fe5e dd3e aa65 3a3e
00000050: 9214 d33d 9879 5e3e fc5d 883e 6f2b 673e
00000060: 5b3b dc3c 31f7 383e 41c4 ed3d 2068 a03e
00000070: b29c 463e 1709 503e badf 363e cda4 cd3e
00000080: f2dc 303e 5ff8 dd3d 90e0 513e 39da 983e
00000090: 6c75 c73d 995d a83e 0037 dd3e b949 3a3e
000000a0: 5e7b d33d c7aa 5e3e d65d 883e 1f13 673e
000000b0: 4f96 db3c b64a 393e 951d ee3d c069 a03e
000000c0: 0bb4 463e 0f82 4f3e b17d 373e 84a4 cd3e
000000d0: 04e6 303e c3de dc3d b1df 513e 07f9 983e
000000e0: 21ef c83d 6b02 a93e df54 dd3e 9a68 3a3e
000000f0: 5f14 d33d 2756 5e3e db5d 883e b31b 673e
00000100: 76c0 e43c f518 393e 5af1 ed3d d060 a03e
00000110: 92ab 463e 44ec 4f3e 81f0 363e 9ca4 cd3e
00000120: 8a1f 313e b606 de3d 84ff 513e 84de 983e
00000130: 841e c83d e844 a83e e74e dd3e 8ef4 3a3e
00000140: 4144 d33d 458f 5e3e da5d 883e ac07 673e
00000150: 84c2 e53c cbf5 383e 458c ec3d 8464 a03e
00000160: 3b8d 463e 9687 4f3e af54 373e 7ea4 cd3e
00000170: 639c 313e 1dfd dc3d 820f 523e 741d 993e
00000180: 7bcf c73d c44f a83e 8b5f dd3e bbc4 3a3e
00000190: c609 d33d 7870 5e3e fa5d 883e 69bd 673e
000001a0: de23 dd3c 5bf3 383e 6693 ec3d d66d a03e
000001b0: 0ac5 463e 1a0a 503e 1b15 373e 84a4 cd3e
000001c0: 0e76 313e 30c6 df3d 31e1 513e 53da 983e
000001d0: f53b c83d 2185 a83e 3f52 dd3e 436f 3c3e
000001e0: c1f7 d23d fc83 5e3e d25d 883e ae8c 673e
000001f0: 7779 dc3c ff22 393e 775f ec3d ed65 a03e
00000200: f58e 463e f65a 503e 6538 373e 88a4 cd3e
00000210: ba37 313e 1ec2 dc3d 6614 523e c2ea 983e
00000220: d549 c83d 3177 a83e db60 dd3e 1a7d 3a3e
00000230: dc17 d33d 823f 5e3e da5d 883e 8a1f 673e
00000240: c2f4 eb3c f332 393e 1b5b ed3d 8473 a03e
00000250: 0722 473e 5483 4f3e 6f72 373e a3a4 cd3e
00000260: 461c 313e 5fa2 df3d e1fc 513e b24d 993e
00000270: 4168 c73d 2346 a83e 7553 dd3e b398 3a3e
00000280: 210a d33d 32a2 5e3e f15d 883e 8d01 673e
00000290: cb1d dc3c 503e 393e ba41 ed3d 5374 a03e
000002a0: 6cc7 463e fd82 4f3e d275 373e cfa4 cd3e
000002b0: 16e2 303e 8360 dd3d dc1f 523e fbfb 983e
000002c0: aa74 c83d 8a9b a83e d55c dd3e cc86 3b3e
000002d0: 5f24 d63d cc99 5e3e f75d 883e 9515 673e
000002e0: 9f82 db3c 3ef6 383e 66c0 ec3d a273 a03e
000002f0: f72a 473e c5ad 4f3e 9da8 373e b1a4 cd3e
00000300: a5c0 303e e59b dd3d 74e8 513e 211d 993e
00000310: 4f78 c73d 243c a83e 135a dd3e a35a 3a3e
00000320: b810 d53d 1b29 5e3e fc5d 883e a20d 673e
00000330: a879 db3c a30a 393e 3362 ec3d 3b72 a03e
00000340: 6b8f 463e 9923 503e 00f4 363e b4a4 cd3e
00000350: 4e11 313e 651e dd3d d0ec 513e cae5 983e
00000360: 7dee c83d 6076 a83e 3461 dd3e 0064 3a3e
00000370: 0de4 d23d e31d 5f3e cb5d 883e 7afa 673e
00000380: 765d e73c b7f1 383e 2188 ec3d 5470 a03e
00000390: 648b 463e 7796 4f3e 820c 373e 11a1 cd3e
000003a0: 28a7 313e 6299 dc3d fa1d 523e e3dd 983e
000003b0: 6d4e c73d 0d6b a83e 8b56 dd3e 5a2e 3c3e
000003c0: 247b d33d 3538 5e3e e35d 883e 020a 673e
000003d0: fabc e13c 9519 393e 5a87 ed3d d64d a03e
000003e0: a7df 463e 3a97 4f3e 18ac 373e 67a4 cd3e
000003f0: 2ab1 303e 0311 df3d 5bdb 513e 8feb 983e
0.10334129 0.217354 0.26634154 0.2271389 0.027539443 0.18064657 0.11562469 0.31337652
0.19583863 0.20321006 0.1787345 0.40164775 0.17293055 0.10805844 0.20535737 0.298889
0.09775974 0.3289235 0.43236536 0.18202844 0.10306658 0.21726072 0.26634204 0.22575162
0.026883772 0.18063046 0.11609698 0.3132944 0.19395712 0.20315968 0.17858782 0.40164796
0.17271784 0.10838389 0.2049582 0.2985399 0.09739193 0.3288391 0.43206024 0.18192185
0.10326265 0.21744834 0.2663409 0.22565888 0.026805071 0.18094906 0.11626736 0.3133068
0.19404618 0.20264457 0.17919041 0.40164578 0.17275244 0.10784676 0.20495488 0.29877493
0.09811235 0.33009657 0.43228814 0.18203965 0.1030662 0.21712552 0.26634106 0.2256916
0.027923804 0.18075927 0.116183 0.31323862 0.19401386 0.20304972 0.17865182 0.4016465
0.17297187 0.10841124 0.20507628 0.29857266 0.097714454 0.3286507 0.4322426 0.18257353
0.10315753 0.2173434 0.26634103 0.2256152 0.028046854 0.18062513 0.11550192 0.31326687
0.19389813 0.20266566 0.17903398 0.4016456 0.17344813 0.10790465 0.20513728 0.29905283
0.09756371 0.32873356 0.43236956 0.18239109 0.103045985 0.21722591 0.26634198 0.22630848
0.026994642 0.18061583 0.115515515 0.31333798 0.19411102 0.20316353 0.17879145 0.40164578
0.1733019 0.10926473 0.2049606 0.29854068 0.09777061 0.3291407 0.4322681 0.18401818
0.103011616 0.21730036 0.2663408 0.22612259 0.026913388 0.18079756 0.11541646 0.31327763
0.19390471 0.20347199 0.17892607 0.4016459 0.17306414 0.107792124 0.20515594 0.29866606
0.09779707 0.32903436 0.43237957 0.18211785 0.10307285 0.21703914 0.26634103 0.22570625
0.028803233 0.18085842 0.115896426 0.3133813 0.19446574 0.20264941 0.17914747 0.4016467
0.17295942 0.10919642 0.20506622 0.2994209 0.09736682 0.3286601 0.43227735 0.18222313
0.10304666 0.2174156 0.26634172 0.22559185 0.026869675 0.18090177 0.11584802 0.31338748
0.19412011 0.20264812 0.17916039 0.401648 0.17273745 0.10809424 0.20519966 0.29879746
0.09787877 0.32931167 0.43234888 0.1831314 0.10456156 0.21738356 0.2663419 0.22566827
0.026795683 0.18062684 0.115601346 0.3133822 0.19449984 0.20281132 0.17935415 0.40164712
0.17260988 0.1082075 0.2049883 0.29905036 0.09739744 0.32858384 0.43232784 0.18198638
0.104035795 0.21695368 0.26634204 0.22563794 0.026791409 0.18070464 0.115421675 0.3133715
0.19390647 0.2032608 0.17866516 0.4016472 0.17291757 0.10796813 0.20500493 0.29862815
0.09811113 0.32902813 0.43238223 0.1820221 0.102974035 0.21788745 0.26634058 0.22654143
0.028242808 0.18060957 0.11549402 0.313357 0.19389111 0.20272242 0.17875865 0.40161946
0.17348921 0.10771443 0.20519248 0.29856786 0.097317554 0.32894173 0.4323009 0.18377057
0.103262216 0.21701129 0.2663413 0.22562411 0.027555931 0.18076165 0.11598082 0.31309384
0.19421254 0.20272532 0.17936742 0.40164492 0.17255083 0.108919166 0.20493834 0.29867217
