best_para_path/filmtrust50.20.650.150.250.251.020.00.5_p10_20gatv2_spill_var2_explicit_seed0_ex1_0.001_1e-05_0.01_0.01_0.01_0.001.pt (torch, 133921 bytes, 4 tensors)

user_embedding.weight f4 [1208, 20]
-0.745186 -0.7509651 -0.7790061 0.5922797 0.4653022 0.6228564 0.5402961 0.17044011
-0.38503903 -0.67012095 -0.21860035 -0.09194161 -0.11810171 -0.5344086 0.28828672 -0.43850696
-0.5925347 -0.28409368 -0.15456946 -0.27460834 -0.4581047 -0.4340396 -0.1854332 -0.37288618
0.35980475 0.33908626 0.627751 -0.6250464 -0.62199265 -0.7362348 -0.552395 0.612867
-0.12824972 -0.17588177 -0.034700952 -0.39649594 0.3502263 -0.2533752 -0.60645056 0.37810737
-0.2955529 -0.22105862 -0.13855545 -0.45143688 -0.047487974 0.113612264 0.48016647 -0.6786913
-0.6003335 -0.21794136 -0.48348635 0.618345 0.7392394 0.38467473 0.01336501 -0.12965211
0.42070982 -0.40640247 -0.56338674 0.16991782 -0.48303753 -0.48940548 -0.32274374 -0.6219964
0.6600439 0.4138321 -0.16251698 0.71084636 0.5322378 -0.4963577 0.58583534 -0.50455207
-0.35451213 -0.6527022 0.55377674 0.38870504 -0.5467858 -0.49472743 0.5919774 -0.58062136
-0.11716524 -0.23656823 0.008394456 -0.4357605 0.02743912 0.48890147 0.35836804 -0.7054293
-0.42303112 -0.58847636 -0.4941988 0.7049445 0.59618556 0.47986424 0.02651139 -0.26226577
0.063976526 0.12887177 -0.5658897 0.30185363 0.3525047 -0.5918386 -0.6943419 0.76435596
0.4409202 0.3244022 0.8907396 -0.36033148 0.5364192 -0.6445046 -0.11011951 0.39964482
0.13333875 -0.56770676 0.64259166 0.6891316 -0.50729716 0.08905998 0.20834011 0.5837914
-0.42792106 -0.698816 -0.6671219 -0.76460314 0.42740783 0.49617633 -0.28842935 -0.018029006
-0.34943414 -0.59915394 -0.59448946 0.2592751 0.32844687 -0.67229337 0.29645798 -0.27833998
-0.6199739 -0.52712494 -0.4174885 -0.6059809 -0.4658793 -0.4825959 -0.536726 -0.37759838
0.064721555 0.60354906 -0.0582832 0.25330657 0.42587844 -0.28264922 0.26920345 0.09571332
-0.69621223 -0.63064206 0.71640086 0.69600874 -0.2627376 -0.72736907 0.20984806 -0.276219
-0.69166833 -0.6261466 -0.6654917 0.041618556 -0.39749768 0.6628497 -0.11885665 -0.55500656
-0.62579906 0.08256964 -0.2785049 0.6159147 -0.8053938 0.16608058 0.27272606 -0.53451824
0.22092809 -0.7449258 -0.50773036 -0.50415945 -0.5432182 -0.4948273 -0.49804375 -0.6239755
0.34937093 0.4240794 0.065719225 0.10099058 -0.61157966 -0.6209792 -0.6651919 -0.19801557
-0.411116 -0.39295843 0.45806777 -0.28134325 -0.10055134 -0.50402796 -0.14409934 -0.311771
-0.5512288 -0.22835058 -0.42306122 0.12874594 0.43591183 0.6570478 -0.60920995 0.16901493
0.40516382 -0.3163297 -0.1527159 0.38099977 -0.5477756 -0.50497013 0.59448105 -0.26633698
-0.61496776 -0.89439946 0.057520453 -0.18960774 0.64544356 0.0025719982 0.41394663 -0.5887435
0.5942535 -0.02147552 -0.68150413 0.58878416 0.6098123 0.05801426 0.6239986 -0.627099
-0.4114989 -0.45929247 0.50832546 0.42673096 -0.5208745 0.1774774 0.60058516 -0.505821
-0.092742555 -0.40917057 0.47710052 -0.62442756 0.45132297 0.54043853 -0.4546068 0.56102145
0.5275418 -0.03838936 0.6855794 -0.5439651 -0.5073486 -0.55613315 0.47378156 0.073415026
00000000: 82c4 3ebf 403f 40bf f26c 47bf a49f 173f
00000010: 173c ee3e 8473 1f3f d850 0a3f da87 2e3e
00000020: d623 c5be 0c8d 2bbf c5d8 5fbe e24b bcbd
00000030: 4fdf f1bd 01cf 08bf 519a 933e fc83 e0be
00000040: 5bb0 17bf ba74 91be 7547 1ebe 7799 8cbe
00000050: b38c eabe 703a debe 33e2 3dbe f0ea bebe
00000060: 5438 b83e b79c ad3e 4ab4 203f 0a03 20bf
00000070: e93a 1fbf e279 3cbf c269 0dbf dae4 1c3f
00000080: e553 03be 5a1a 34be 9622 0ebd 8401 cbbe
00000090: dd50 b33e 65ba 81be 5840 1bbf 4a97 c13e
000000a0: b652 97be 315d 62be 7be1 0dbe bc22 e7be
000000b0: c082 42bd 8cad e83d 61d8 f53e b7be 2dbf
000000c0: 75af 19bf 052c 5fbe 868b f7be dc4b 1e3f
000000d0: cb3e 3d3f 16f4 c43e eaf8 5a3c 86c3 04be
000000e0: 4767 d73e fc13 d0be 1d3a 10bf f0fe 2d3e
000000f0: b250 f7be 5b93 fabe ab3e a5be 283b 1fbf
00000100: a3f8 283f cde1 d33e da6a 26be 07fa 353f
00000110: bd40 083f 9922 febe 4ef9 153f 532a 01bf
00000120: 9d82 b5be 7e17 27bf 50c4 0d3f 5904 c73e
00000130: 27fa 0bbf ea4c fdbe d58b 173f 9aa3 14bf
00000140: 54f4 efbd f13e 72be e688 093c 001c dfbe
00000150: 01c8 e03c 4b51 fa3e 047c b73e 0497 34bf
00000160: 8997 d8be 63a6 16bf a007 fdbe 3e77 343f
00000170: 9e9f 183f c4b0 f53e 6a2e d93c b347 86be
00000180: 2006 833d f6f6 033e 26de 10bf 8f8c 9a3e
00000190: 7f7b b43e bc82 17bf 64c0 31bf d5ac 433f
000001a0: 4bc0 e13e 0c18 a63e 8307 643f 5e7d b8be
000001b0: c552 093f 41fe 24bf 5686 e1bd 3f9e cc3e
000001c0: f489 083e 3b55 11bf e380 243f ee6a 303f
000001d0: 3ade 01bf 1465 b63d 1c57 553e 5a73 153f
000001e0: 7818 dbbe 9be5 32bf 80c8 2abf 08bd 43bf
000001f0: 33d5 da3e d30a fe3e 03ad 93be 91b1 93bc
00000200: 08e9 b2be 2762 19bf 7630 18bf b5bf 843e
00000210: 302a a83e 6b1b 2cbf 57c9 973e 9482 8ebe
00000220: 9cb6 1ebf a9f1 06bf 0dc1 d5be 9021 1bbf
00000230: bb87 eebe cf16 f7be e066 09bf 9354 c1be
00000240: bc8c 843d 3182 1a3f 5dba 6ebd 66b1 813e
00000250: bd0c da3e 66b7 90be 09d5 893e 5805 c43d
00000260: f73a 32bf c271 21bf 0c66 373f a12d 323f
00000270: 8b85 86be dc34 3abf 69e2 563e 946c 8dbe
00000280: 2d11 31bf 254b 20bf aa5d 2abf 3878 2a3d
00000290: d184 cbbe 85b0 293f 1e6b f3bd e914 0ebf
000002a0: 5e34 20bf 451a a93d 3298 8ebe 96ac 1d3f
000002b0: 4a2e 4ebf 0711 2a3e c0a2 8b3e 30d6 08bf
000002c0: f93a 623e 75b3 3ebf 9efa 01bf 9810 01bf
000002d0: 5910 0bbf 015a fdbe 97ff febe dcbc 1fbf
000002e0: bfe0 b23e ef20 d93e cd97 863d 26d4 ce3d
000002f0: 7c90 1cbf 7ef8 1ebf 044a 2abf 98c4 4abe
00000300: cc7d d2be d931 c9be dc87 ea3e 390c 90be
00000310: dced cdbd fa07 01bf c78e 13be 73a0 9fbe
00000320: 551d 0dbf bcd4 69be 7b9b d8be fad5 033e
00000330: d62f df3e 4934 283f 2ff5 1bbf 4012 2d3e
00000340: a271 cf3e f7f5 a1be 8f61 1cbe 6712 c33e
00000350: 063b 0cbf b945 01bf e92f 183f 525d 88be
00000360: 876e 1dbf 5df7 64bf 919a 6b3d 8828 42be
00000370: ca3b 253f f88e 283b d0f0 d33e e5b7 16bf
00000380: ff20 183f 6eed afbc 0e77 2ebf 8fba 163f
00000390: a91c 1c3f 5ca0 6d3d 5fbe 1f3f 8f89 20bf
000003a0: fcaf d2be 6228 ebbe 9e21 023f 7b7c da3e
000003b0: 0858 05bf a3bc 353e f3bf 193f 7c7d 01bf
000003c0: cfef bdbd ce7e d1be 8546 f43e 7cda 1fbf
000003d0: ce13 e73e 2e5a 0a3f 39c2 e8be 1a9f 0f3f
000003e0: fb0c 073f 293e 1dbd 2282 2f3f 4c41 0bbf
000003f0: 99e1 01bf be5e 0ebf 7f93 f23e 9e5a 963d

item_embedding.weight f4 [406, 20]
0.034282632 0.75899917 0.4113103 -0.31167534 0.4796706 -0.68100166 -0.5465666 0.33287907
0.7246484 0.67987955 0.7894454 -0.640524 0.052231252 0.33139187 -0.8933832 0.45876658
-0.59218407 -0.69661903 0.83422405 0.804935 -0.6703394 -0.12367802 0.024687143 -0.70812255
0.5030233 0.63910896 -0.62854314 0.6462623 -0.17215388 0.7682759 0.53527457 -0.7117794
-0.08013026 -0.6689243 0.49573147 -0.85875446 -0.5750449 0.5342701 0.48368612 -0.583031
-0.3627195 -0.34282032 0.34681413 -0.66655093 0.42799166 0.66069686 -0.41602904 -0.0023916191
0.7251821 0.65037346 0.48377237 -0.3953397 -0.69596267 0.6300554 0.312053 -0.10262165
-0.3157235 0.09533157 0.48051822 -0.27357483 -0.65856373 -0.074496426 0.5663199 0.7579676
0.5452351 0.6195326 -0.8927243 0.5651312 0.68676555 0.7411653 0.4470837 -0.6534743
-0.42488244 -0.6191118 0.7873053 0.6432275 -0.4172256 -0.20963703 0.54854846 0.32235518
-0.13451809 0.43890262 0.67934906 0.7445042 0.5897696 0.80032635 -0.7592608 0.57340324
0.6014346 -0.28018442 0.62337536 -0.6568407 0.7451783 -0.78066075 0.6255373 -0.2525942
-0.68075997 0.6156524 0.6201466 -0.50250715 0.54421544 0.65404445 0.6591091 -0.74144554
-0.10341915 -0.64151233 -0.5631621 0.49455592 0.3405754 0.72787356 0.39372766 -0.64708257
-0.7720982 -0.8592528 -0.65764666 0.16604291 0.47126648 0.5858721 0.4779544 -0.7585936
-0.16518402 -0.35299096 0.8248955 -0.19918947 0.51067346 -0.84233207 -0.6967513 0.5311458
0.63772446 0.70438755 0.5936995 -0.6565177 0.6052334 -0.4255706 0.14234944 0.81319994
-0.6682677 -0.09863438 0.5625302 -0.7296135 0.37123796 -0.41679937 0.6460288 -0.58913535
0.19749859 -0.13071759 -0.5795316 0.6898754 0.60774404 -0.41075322 0.52463853 -0.54122376
0.27303654 -0.3419237 0.66557896 0.66521573 -0.5896271 0.6905788 0.701997 -0.5084159
0.8021461 -0.68740165 0.5398679 -0.4532884 0.7668805 0.8369167 -0.41467926 0.40501
0.6253834 0.4319 0.16003159 -0.6705189 -0.61100686 -0.30339435 0.588545 0.49048665
0.5871557 0.8013501 0.5765565 -0.74535084 0.7028867 0.68176544 0.6699526 -0.6761058
0.75052685 -0.6868309 -0.67799973 0.26131716 -0.13096842 0.76331186 0.7477328 -0.75443935
0.57477677 0.4558758 -0.57452536 -0.58637565 0.18110438 0.2246834 0.70542556 -0.096632764
-0.23838004 -0.46893132 0.70052975 -0.7325289 0.57179344 0.5897557 0.08056734 0.6864537
0.5317381 -0.46886778 0.16912177 -0.6222142 -0.6957107 -0.73038137 0.59109193 0.48655152
-0.40050876 -0.60619736 0.60478914 -0.64853835 0.5800312 0.44912246 0.67141277 -0.73856276
-0.55050534 -0.55360913 0.19298653 -0.30136016 0.027271595 0.5695176 -0.04570155 -0.16421418
-0.9764831 0.71050274 -0.3738142 -0.561421 0.4320597 0.6481615 -0.205912 0.49664065
-0.48335028 -0.55224466 0.4946082 -0.16908844 0.30025083 0.6721571 -0.78866893 0.5337691
0.64354366 0.72766614 0.51479745 -0.7004301 -0.7771714 -0.5890011 0.3952457 0.28261957
00000000: f26b 0c3d c54d 423f 4397 d23e e993 9fbe
00000010: 6397 f53e 2056 2ebf caeb 0bbf 206f aa3e
00000020: 8f82 393f 960c 2e3f 1819 4a3f 62f9 23bf
00000030: 70f0 553d 32ac a93e c3b4 64bf 74e3 ea3e
00000040: 6099 17bf a055 32bf b58f 553f 3810 4e3f
00000050: 5d9b 2bbf e74a fdbd b13c ca3c 8547 35bf
00000060: 23c6 003f a59c 233f 34e8 20bf 7271 253f
00000070: 1b49 30be bbad 443f c107 093f 2d37 36bf
00000080: 551b a4bd 9f3e 2bbf 84d0 fd3e 55d7 5bbf
00000090: 2436 13bf edc5 083f b5a5 f73e 8541 15bf
000000a0: 5fb6 b9be 2586 afbe 9f91 b13e 15a3 2abf
000000b0: b921 db3e 6e23 293f c201 d5be b6bc 1cbb
000000c0: 89a5 393f e07e 263f 03b1 f73e f769 cabe
000000d0: 9c2a 32bf 504b 213f 69c5 9f3e 4d2b d2bd
000000e0: 83a6 a1be 333d c33d 7c06 f63e 0012 8cbe
000000f0: a297 28bf 9591 98bd 57fa 103f 2a0a 423f
00000100: 8794 0b3f b099 1e3f 9489 64bf 70ac 103f
00000110: decf 2f3f 02bd 3d3f 28e8 e43e 174a 27bf
00000120: 318a d9be 1c7e 1ebf d78c 493f 8faa 243f
00000130: 989e d5be 17ab 56be ac6d 0c3f bd0b a53e
00000140: 1cbf 09be d8b7 e03e d2e9 2d3f d497 3e3f
00000150: 24fb 163f 30e2 4c3f ea5e 42bf 8eca 123f
00000160: 9ef7 193f 5574 8fbe 8795 1f3f b626 28bf
00000170: 01c4 3e3f 62d9 47bf 3623 203f 0754 81be
00000180: 4946 2ebf 659b 1d3f edc1 1e3f 4fa4 00bf
00000190: b451 0b3f 756f 273f 60bb 283f 60cf 3dbf
000001a0: 6bcd d3bd 273a 24bf 642b 10bf 6f36 fd3e
000001b0: e65f ae3e ec55 3a3f ac96 c93e 34a7 25bf
000001c0: 3aa8 45bf fef7 5bbf 885b 28bf 2707 2a3e
000001d0: d749 f13e b7fb 153f 70b6 f43e 3133 42bf
000001e0: 0026 29be 3bbb b4be 5a2c 533f 53f8 4bbe
000001f0: 7fbb 023f 13a3 57bf 4b5e 32bf 2cf9 073f
00000200: e941 233f be52 343f b1fc 173f 8b11 28bf
00000210: 93f0 1a3f 64e4 d9be 0dc4 113e df2d 503f
00000220: 9813 2bbf d200 cabd fb01 103f f3c7 3abf
00000230: e712 be3e ba66 d5be 2562 253f 93d1 16bf
00000240: 123d 4a3e d5da 05be 2f5c 14bf ad9b 303f
00000250: 1d95 1b3f 3f4e d2be b64e 063f a48d 0abf
00000260: 72cb 8b3e a010 afbe 6263 2a3f 944b 2a3f
00000270: cdf1 16bf c6c9 303f 13b6 333f 8b27 02bf
00000280: 7259 4d3f 8ef9 2fbf c834 0a3f 6b15 e8be
00000290: 4852 443f 2c40 563f d750 d4be 795d cf3e
000002a0: 2019 203f ff21 dd3e 52df 233e 20a7 2bbf
000002b0: f26a 1cbf 8156 9bbe e3aa 163f 1121 fb3e
000002c0: d64f 163f 4825 4d3f 3599 133f 50cf 3ebf
000002d0: 62f0 333f 2e88 2e3f 0382 2b3f 4515 2dbf
000002e0: 8722 403f 26d4 2fbf 6491 2dbf 5dcb 853e
000002f0: 961c 06be 6868 433f 6b6b 3f3f f022 41bf
00000300: 9224 133f 8e68 e93e 1814 13bf b71c 16bf
00000310: 6d73 393e 6813 663e c596 343f 66e7 c5bd
00000320: e619 74be c417 f0be eb55 333f 0487 3bbf
00000330: 0e61 123f 3bfa 163f 7d00 a53d 6ebb 2f3f
00000340: fd1f 083f 700f f0be 422e 2d3e 6e49 1fbf
00000350: 191a 32bf 46fa 3abf cd51 173f 481d f93e
00000360: 7c0f cdbe c02f 1bbf 76d3 1a3f 9c06 26bf
00000370: ed7c 143f 61f3 e53e b5e1 2b3f 7312 3dbf
00000380: ebed 0cbf 54b9 0dbf 439e 453e e14b 9abe
00000390: ae68 df3c e8cb 113f 8c31 3bbd c327 28be
000003a0: ccfa 79bf 82e3 353f 9364 bfbe 49b9 0fbf
000003b0: ee36 dd3e e9ed 253f 98da 52be af47 fe3e
000003c0: b079 f7be e85f 0dbf 493d fd3e 8525 2dbe
000003d0: 7aba 993e 7d12 2c3f 35e6 49bf 17a5 083f
000003e0: 47bf 243f 5448 3a3f c4c9 033f 634f 33bf
000003f0: b4f4 46bf c7c8 16bf a55d ca3e 83b3 903e

linear_att_out.weight f4 [1, 40]
-0.06239739 -0.055855196 -0.015317274 0.064153016 0.15529981 0.058556557 -0.023523834 -0.019622881
-0.0015455623 -0.0700304 0.04611459 -0.032418407 -0.10093082 -0.07987606 0.11488202 -0.0030602755
-0.07778377 -0.04669014 -0.0069191344 -0.08948483 -0.092584126 -0.10288426 -0.0830924 -0.006177578
0.08932657 0.08601054 -0.045226198 0.029565103 0.02889961 -0.095079556 0.03556554 -0.005766626
-0.05481014 -0.088449694 0.100427404 0.056991052 -0.0823064 -0.052887123 0.015780164 -0.07036145
00000000: 6894 7fbd 6bc8 64bd 4ef5 7abc a862 833d
00000010: ea06 1f3e 00d9 6f3d 0eb5 c0bc 2ac0 a0bc
00000020: 7794 caba 196c 8fbd a7e2 3c3d 2ac9 04bd
00000030: d1b4 cebd 0f96 a3bd 4447 eb3d e78e 48bb
00000040: 194d 9fbd 293e 3fbd e8b9 e2bb d343 b7bd
00000050: bf9c bdbd fcb4 d2bd 592c aabd 486d cabb
00000060: d9f0 b63d 4b26 b03d 1b3f 39bd 8432 f23c
00000070: e0be ec3c 12b9 c2bd 2cad 113d f7f5 bcbb
00000080: 9980 60bd 1d25 b5bd e2ac cd3d 736f 693d
00000090: 4290 a8bd 2ba0 58bd 6745 813c aa19 90bd

linear_trans_neigh.weight f4 [20, 20]
0.1871715 0.182054 0.26589245 0.22700581 0.039828204 0.014426348 0.30201307 0.35574573
0.2996693 0.23865713 0.029791655 0.37700367 0.047076363 0.1913747 0.107541375 0.29372683
0.049632356 0.24354927 0.4399221 0.026399799 0.18709172 0.18195204 0.2657266 0.22526355
0.039551478 0.0143876 0.30216208 0.35597938 0.30013755 0.23860903 0.02948981 0.37718537
0.046888083 0.19155769 0.10686518 0.29339623 0.04899178 0.24347691 0.44048148 0.026218096
0.187149 0.1821535 0.2661408 0.22514077 0.03936011 0.014837159 0.30221316 0.35594037
0.3001135 0.23814066 0.030714555 0.37687552 0.046919372 0.19124962 0.10685163 0.29364666
0.050242264 0.24460492 0.4400653 0.026406879 0.18709159 0.18181068 0.26607338 0.2251871
0.039965473 0.0145886745 0.30218837 0.35615465 0.30012083 0.23851134 0.029625418 0.37690023
0.04711699 0.19157141 0.1070919 0.29351094 0.049569175 0.24332194 0.44015586 0.026847707
0.18711868 0.18203807 0.26609048 0.2250892 0.040011846 0.014367608 0.3019749 0.35606614
0.30023205 0.23816662 0.030396337 0.37687266 0.047547508 0.1912874 0.1071902 0.29382387
0.049310096 0.24338678 0.43991524 0.026693579 0.18708542 0.18191567 0.26573893 0.22597145
0.039618123 0.01429421 0.30197886 0.35584277 0.3001006 0.23861575 0.029906265 0.37687483
0.04741268 0.19203445 0.10687359 0.29342982 0.04966485 0.24374047 0.44010416 0.02803777
0.18707478 0.18199334 0.26619235 0.22572407 0.03957701 0.014642692 0.30203074 0.35603228
0.30018818 0.23888656 0.03017776 0.37687707 0.047196817 0.19120182 0.10721997 0.2935798
0.049709834 0.2436466 0.43991032 0.026477933 0.18709362 0.18171741 0.26609546 0.22520028
0.04027744 0.014723751 0.3020997 0.35575357 0.30002603 0.23815045 0.03062701 0.37691402
0.047102332 0.19199498 0.10707803 0.29405358 0.048944145 0.24332897 0.44008923 0.026564816
0.18708573 0.18211278 0.2658299 0.22505565 0.039538637 0.0147815915 0.30208442 0.35595438
0.30009803 0.23815177 0.03065888 0.37703875 0.04690583 0.19139773 0.10728968 0.29366124
0.049832694 0.24389201 0.43994772 0.02728942 0.18750153 0.18208523 0.26575765 0.22515255
0.039216146 0.014372578 0.3020057 0.35576218 0.30001992 0.23829931 0.03104965 0.37694013
0.04678968 0.19145867 0.106942415 0.29382232 0.04901026 0.24347343 0.43999043 0.026357986
0.18736182 0.1816213 0.26587424 0.2251144 0.03913783 0.01451702 0.30197823 0.35575238
0.30018198 0.23870224 0.02965263 0.3769445 0.047064688 0.19132231 0.10697175 0.29355004
0.0502402 0.24364114 0.43991593 0.02639385 0.18706243 0.18259461 0.26629284 0.22626796
0.040078092 0.0140128 0.3019726 0.35578626 0.30041656 0.23821978 0.029840248 0.37798786
0.047584046 0.190766 0.10728373 0.29350632 0.048427753 0.24356656 0.44004318 0.02781889
0.18714888 0.18168715 0.26599473 0.22510077 0.039834153 0.01459187 0.3021261 0.35659412
0.30007997 0.23822537 0.031076882 0.3770312 0.046733763 0.191847 0.106514804 0.29357967
00000000: e3a9 3f3e 5d6c 3a3e 0e23 883e 3674 683e
00000010: e622 233d 7d5c 6c3c 75a1 9a3e 4e24 b63e
00000020: 416e 993e 8962 743e a10d f43c a006 c13e
00000030: 25d3 403d bbf7 433e a73e dc3d 5d63 963e
00000040: 4c4b 4b3d fb64 793e 783d e13e 6444 d83c
00000050: f994 3f3e a351 3a3e 510d 883e 7dab 663e
00000060: bb00 223d f8b9 6b3c fdb4 9a3e ee42 b63e
00000070: a1ab 993e ed55 743e 9d94 f13c 711e c13e
00000080: b80d 403d b327 443e 22dc da3d 0838 963e
00000090: 9bab 483d 0352 793e ca86 e13e 55c7 d63c
000000a0: fda3 3f3e 7286 3a3e 9b43 883e 4d8b 663e
000000b0: 1138 213d 8e17 733c afbb 9a3e d13d b63e
000000c0: 7aa8 993e 25db 733e 179d fb3c d4f5 c03e
000000d0: 872e 403d f1d6 433e 07d5 da3d db58 963e
000000e0: d5ca 4d3d b679 7a3e 3d50 e13e 3d53 d83c
000000f0: f094 3f3e 942c 3a3e c53a 883e 7297 663e
00000100: d6b2 233d 5605 6f3c 6fb8 9a3e e759 b63e
00000110: 70a9 993e 513c 743e 01b1 f23c 11f9 c03e
00000120: bffd 403d 4c2b 443e 0053 db3d 1147 963e
00000130: 0c09 4b3d 6329 793e 1c5c e13e b9ef db3c
00000140: 0a9c 3f3e 3068 3a3e 033d 883e c97d 663e
00000150: 76e3 233d 1e66 6b3c 749c 9a3e 4d4e b63e
00000160: 04b8 993e f3e1 733e bd01 f93c 74f5 c03e
00000170: 2dc1 423d d8e0 433e 8986 db3d 1570 963e
00000180: 62f9 493d 623a 793e 923c e13e 7eac da3c
00000190: 5293 3f3e 1a48 3a3e ef0e 883e 0f65 673e
000001a0: 9d46 223d 4332 6a3c f99c 9a3e 0631 b63e
000001b0: c9a6 993e b057 743e fcfd f43c bdf5 c03e
000001c0: cc33 423d aea4 443e 8ae0 da3d 6f3c 963e
000001d0: 5f6d 4b3d 1a97 793e 5555 e13e 77af e53c
000001e0: 8890 3f3e 765c 3a3e 5d4a 883e 3624 673e
000001f0: 811b 223d e7e7 6f3c c6a3 9a3e dd49 b63e
00000200: 44b2 993e ae9e 743e 5a37 f73c 08f6 c03e
00000210: 7351 413d 69ca 433e 2596 db3d 1750 963e
00000220: 8a9c 4b3d 7f7e 793e ed3b e13e 40e8 d83c
00000230: 7895 3f3e 2114 3a3e aa3d 883e e79a 663e
00000240: f5f9 243d e33b 713c d0ac 9a3e 5525 b63e
00000250: 039d 993e b6dd 733e 7fe5 fa3c e0fa c03e
00000260: 60ee 403d 559a 443e ba4b db3d 318e 963e
00000270: a879 483d 3b2b 793e 6053 e13e 759e d93c
00000280: 6793 3f3e c67b 3a3e db1a 883e fd74 663e
00000290: 44f3 213d 7d2e 723c cfaa 9a3e a73f b63e
000002a0: 73a6 993e 0fde 733e 5528 fb3c 390b c13e
000002b0: 5420 403d c4fd 433e b1ba db3d c45a 963e
000002c0: 5e1d 4c3d d4be 793e d440 e13e 108e df3c
000002d0: 6700 403e 8d74 3a3e 6311 883e 648e 663e
000002e0: 1ca1 203d f67a 6b3c 7ea0 9a3e 7626 b63e
000002f0: 369c 993e bc04 743e d65b fe3c 4cfe c03e
00000300: 89a6 3f3d be0d 443e a004 db3d e16f 963e
00000310: fbbe 483d 1951 793e 6d46 e13e b4ec d73c
00000320: c7db 3f3e effa 393e ab20 883e 6484 663e
00000330: fd4e 203d ccd8 6d3c e49c 9a3e 2d25 b63e
00000340: 74b1 993e 5c6e 743e 13ea f23c dffe c03e
00000350: e7c6 403d ffe9 433e 0114 db3d 314c 963e
00000360: abc8 4d3d 107d 793e a93c e13e ea37 d83c
00000370: 4b8d 3f3e 15fa 3a3e 8957 883e cab2 673e
00000380: ed28 243d f195 653c 279c 9a3e 9e29 b63e
00000390: 33d0 993e e3ef 733e 8973 f43c a087 c13e
000003a0: 7de7 423d 2a58 433e 92b7 db3d 7646 963e
000003b0: 2e5c 463d 8369 793e 574d e13e 71e4 e33c
000003c0: f5a3 3f3e 320c 3a3e 7630 883e d180 663e
000003d0: 2329 233d bd12 6f3c 46b0 9a3e 8193 b63e
000003e0: 15a4 993e 5af1 733e f294 fe3c 3c0a c13e
000003f0: e76b 3f3d 8a73 443e 6f24 da3d 1350 963e
