best_para_path/filmtrust50.20.650.150.250.251.020.00.5_p10_20gatv2_spill_var2_wo_att_explicit_seed0_ex1_0.001_1e-05_0.05_0.01.pt (torch, 133257 bytes, 3 tensors)

user_embedding.weight f4 [1208, 20]
00000000: 488b e73e 15d3 203f 3e78 18bf 65fa 113e
00000010: 3b3d b8bd 4b31 903e 0825 063f d671 393f
00000020: 7ee1 2d3e a642 0bbe 780f 3fbe 9ce1 7b3e
00000030: b9ed 03bf b7a9 17bf a6b6 e53e 2daa 09bf
00000040: a825 20bf 2970 96bc c5a6 423f 486e 17bf
00000050: 47fe 543e 4b70 4cbe a12a 45bf 4138 99be
00000060: db9d 273f 4e8a 14bd 8995 083f d153 cd3e
00000070: ff35 243f 3cbf 873d 94fe ae3e 3b9c f93e
00000080: a665 973e 4345 3a3e aaa7 c63e 7d96 c4be
00000090: 8cb8 1ebf 98ed a1be f26b 0e3f f47d afbe
000000a0: 0650 ac3e 0922 e9bc c3c1 10bf 63d8 f93e
000000b0: d02c 153f bed3 f8be a435 2b3f 7e0d f2bd
000000c0: 44d8 123f 4c57 463e 89f6 b5be f2bb 0f3f
000000d0: 2315 96bd e9e7 04bf e0c0 f5bd 640c 683e
000000e0: bccf 18bf 8b6e adbe 5a4c bf3e cc5d a43e
000000f0: 1358 543e 966e d93e 8f16 e23d 8479 bebe
00000100: 1bb5 e6be 0021 1c3f c199 eabe ef5d 513f
00000110: feb2 43be ade0 30be d0bd 08bf f0ac c2be
00000120: 07f2 0ebf 1be8 793e b274 c03e c378 ecbe
00000130: 7158 163f ba9b fe3e f28c cf3e 6329 0ebf
00000140: df6e b03d c70a f1bd 8817 26bf 404f 8f3c
00000150: 8a70 243f 52e7 60be 2e05 273f 2f80 91bd
00000160: a4c2 203f f8fa 213f 712d 813e 495e 583c
00000170: 8409 0a3d 2350 fbbe a06a 5cbe 4be6 68bd
00000180: 82f3 04bf 1734 edbe a663 ae3e 06d6 9cbd
00000190: 6190 1e3f 4289 3a3f c5aa e3be 92f8 0cbf
000001a0: 0da8 063f ac37 703d f6ac edbe d105 50be
000001b0: 5543 553e f28a 03bf c32c 413f 68d6 6bbe
000001c0: cad2 32bf 920c fabe 1267 973e fc7a d8be
000001d0: 25a3 16bf 0ca4 67be 6daa 2fbf 29a5 18bf
000001e0: 4e96 0c3f c4db 1f3f 8a84 36bf 3f37 e6bd
000001f0: 2644 20be f058 e43e b2ec 403e 5d8d 503f
00000200: ea0a c63e 6692 c4be 14cf 4e3d 439f aebe
00000210: 0768 e9bd 0883 a0be 8ad5 1f3f 3908 1cbf
00000220: 6f41 da3e e1bc 13bf a90f b83e 8ede 473e
00000230: 5829 103f bf94 98be f9cf 743e 12af 21bf
00000240: 2661 a53d f7b3 e43e 4377 58be 288e 3b3f
00000250: f1f9 27be b836 21bf 14d7 43bf d897 90be
00000260: de24 9ebe 01e4 4cbf 72af 053f f826 11bf
00000270: 6cc3 113f 5ce9 19bd 3437 283f 4461 1fbf
00000280: b2c5 ee3e 37e6 393c f82d 33bf 7603 fe3d
00000290: def5 fc3e 7435 a13e 2fb9 fd3e 7074 253f
000002a0: b78a efbe e526 1c3e 3794 b43e 8f7e 013e
000002b0: 6016 543e 5d67 2ebf d0e7 52be 5e76 2abf
000002c0: 2ab9 d7be 4d46 e6be 6505 3e3f 3f07 803e
000002d0: 4c66 1a3f 7579 263f 3632 03bf 37ee 1f3e
000002e0: e6af cf3e dc91 ab3e 2241 7a3e c678 73be
000002f0: 3a8c db3d 38ef dabe b95c 0fbf e0af 053f
00000300: b557 fcbe f45b f6be a7e2 ed3e caf0 d1be
00000310: 0759 e2be 8630 403d 2f31 2c3f c54e b4be
00000320: 3167 39bf 610c dcbc c3e2 2fbf 87f2 eabe
00000330: 2d6d 75be 9112 993e 98ac d83e 63bd 303f
00000340: e264 fcbb 0677 27bf 2f7b 29bf 2a46 0bbf
00000350: 2c1a b0be d91c 28bf 7d99 1d3f a9f0 27bf
00000360: 7dc9 7dbd edea b33e 37b1 2a3f 2711 2abe
00000370: 011f f4be e18d 063f 8bf6 1c3f bbab 08bf
00000380: 38d1 ffbe 6588 093f c376 3ebf 015d d23e
00000390: 5d55 30bf ba5d 01bd 99fe 13bf 0993 f7be
000003a0: 53e3 eebe cf2b 253f c8e1 da3e 4466 b6be
000003b0: 8d5a 173f df5e d23e 3540 13bf 74da dbbe
000003c0: b868 febe 060d 113f eafc dd3e 9872 ddbe
000003d0: 793f f1be 12db f53e 087c 12bf acbd be3e
000003e0: 4ed7 1cbf 8dac cdbe 4452 f2be eb79 00bf
000003f0: 7cbd 01bf 1b7d 273f 0129 d83e fe5a 02bf
0.4522345 0.62822086 -0.59558475 0.14255674 -0.08996054 0.28162608 0.52400255 0.72439325
0.1698055 -0.13599643 -0.18658245 0.24597782 -0.5153461 -0.5924334 0.44865912 -0.5377529
-0.6255746 -0.018364029 0.7603572 -0.5915265 0.20800124 -0.19964711 -0.7701817 -0.2992573
0.65475243 -0.03626471 0.5335317 0.4010301 0.6414489 0.06628272 0.34178603 0.48752007
0.2956974 0.18190484 0.38799793 -0.38396063 -0.62000346 -0.31626582 0.5563346 -0.34275782
0.33654803 -0.028458612 -0.56545657 0.48797902 0.58271503 -0.48599046 0.66878724 -0.1181898
0.57361245 0.19369239 -0.35539654 0.56146157 -0.0732825 -0.51916367 -0.119996786 0.22660977
-0.5969198 -0.338734 0.3736294 0.3210281 0.20736723 0.42467183 0.11039459 -0.37202084
-0.45060048 0.60987854 -0.4582043 0.81783956 -0.19111249 -0.17273207 -0.5341463 -0.38022566
-0.55838054 0.24404947 0.3758903 -0.46185884 0.587287 0.49728185 0.4053722 -0.555319
0.08614897 -0.11769634 -0.64879656 0.017493844 0.6423422 -0.21963242 0.6524228 -0.07104527
0.62797 0.6327357 0.25229982 0.013206073 0.03370048 -0.49084577 -0.21525049 -0.05686025
-0.51934063 -0.46328804 0.340604 -0.07658009 0.61939055 0.7286569 -0.44466224 -0.5506679
0.52600175 0.058646843 -0.4642102 -0.20314719 0.20826466 -0.5138389 0.75458926 -0.23031008
-0.6985289 -0.48837715 0.29570824 -0.4228133 -0.5884269 -0.22621173 -0.68619424 -0.59627014
0.54916847 0.6244471 -0.7129599 -0.11241006 -0.15650997 0.44599104 0.18840292 0.81465703
0.38680202 -0.38392943 0.050490454 -0.34105882 -0.11396795 -0.3134997 0.6243521 -0.60950047
0.42628047 -0.5771008 0.35949448 0.19518492 0.56313086 -0.29800984 0.2390746 -0.6315776
0.0807517 0.44668552 -0.21139245 0.7326379 -0.16403939 -0.6297412 -0.7650006 -0.28240848
-0.30887502 -0.80035406 0.52220833 -0.56700087 0.56938815 -0.037576064 0.65709233 -0.6225779
0.46635205 0.011346391 -0.6999202 0.12403004 0.49406332 0.31486094 0.49555346 0.64630795
-0.4678552 0.15249212 0.3526933 0.12645935 0.2071166 -0.6812647 -0.20596242 -0.66586864
-0.42133456 -0.4497551 0.7422698 0.25005528 0.6031234 0.6502908 -0.5124849 0.15618216
0.40563887 0.3350972 0.24438909 -0.2377654 0.107201055 -0.42760634 -0.5600086 0.5222149
-0.49285665 -0.4811703 0.46461985 -0.4100402 -0.44208547 0.046921276 0.6726255 -0.35216346
-0.7242308 -0.026861371 -0.68705386 -0.4588816 -0.23967429 0.29896978 0.4231918 0.6903898
-0.007702456 -0.6541599 -0.6620359 -0.54403937 -0.34394968 -0.6566902 0.6156233 -0.65601593
-0.061959732 0.35140172 0.6667666 -0.16608106 -0.47679904 0.5256024 0.61313695 -0.5338704
-0.4996431 0.53723747 -0.74399966 0.4108658 -0.68880254 -0.031583525 -0.5781036 -0.48354366
-0.4665781 0.6451997 0.42750382 -0.35624897 0.59122545 0.41088006 -0.5751985 -0.42940104
-0.4968927 0.566605 0.4335702 -0.4325149 -0.47118738 0.480187 -0.57220507 0.37254083
-0.6126603 -0.40170708 -0.4732839 -0.5018603 -0.50679755 0.6542527 0.42218783 -0.50920093

item_embedding.weight f4 [406, 20]
00000000: f117 2dbf 3180 51bf a5d9 283f 3fd8 32bf
00000010: 7827 273f ba31 0a3f abcc 19bf f488 2bbf
00000020: 7853 1a3e 63fc 11bf 9c1b dcbe 906b f8be
00000030: 37cd 3dbb c4af 4d3f af76 38bf dbb5 a1be
00000040: 76e1 ca3e ccbb 453f 630f 08bf 32a6 21bc
00000050: 354b 19bf 4fee cd3d 6c94 383f 0356 fcbe
00000060: 4ca0 03bf 8af5 243f 0612 1dbf 6dd0 2dbf
00000070: ab41 bbbe 7e7c 14bf 2770 23bf fbcf bcbe
00000080: c266 e3be 7b8d 2dbf 0e2e 183f 504e 6fbe
00000090: c5c9 f33e fefe 8a3e 9183 a93e b7b9 29bf
000000a0: c0ca 06bf fb3e 023f 07ca 3f3f 875b d4be
000000b0: a72a 6b3e 5a15 f83e 02ee 14bf 8a55 5a3f
000000c0: 4da8 05bf 6b88 ed3e b8f5 33bf 480b 07bf
000000d0: 0711 febe 9320 6abf b75f 993e 0bf7 cb3e
000000e0: 85a7 293f 71f9 023f 6edf 49bf aeb9 16bf
000000f0: fc87 ffbe d6be 373f dbe0 003f 1035 efbe
00000100: 3258 30bf 1f05 d63e a6b4 8ab9 ef09 243f
00000110: 1ac6 04bf d2ca 34bf 50cf 2dbf 9607 2dbf
00000120: e21d 1fbf d1c4 d83e 457f fa3e f79c dcbd
00000130: ac38 1d3f cb4e 793e d188 1f3e b2c7 093f
00000140: 7519 2fbf e932 d33e f8b3 ebbe ef1d 1bbf
00000150: a66e c1be 2408 e43e 4fbd 0fbf 05a5 3bbf
00000160: 42e5 b4be 3a53 2ebf 435a 26bf 949e 14bf
00000170: 7664 3dbe f311 933e 3837 ae3e 8efd 37bf
00000180: c960 323f 9482 1d3f c260 44bf 315c f7be
00000190: 8693 25bf efaf e53e 76df d43e 09c6 533f
000001a0: c7e6 2abf 3945 153f 5dab 54bf 5ed7 32bf
000001b0: 9c6e 12bf 6e88 1e3e 2215 2bbf 2db3 593f
000001c0: 6076 30bf a770 583e 7c58 31bf c96d 4abf
000001d0: b982 373f 86f4 4a3f 3427 38bf 300f 313f
000001e0: 9427 dabe 902f 4cbf d7db 2c3f 23ab 9dbe
000001f0: b222 26bf 6134 ce3e 7485 07bf d456 d4be
00000200: a145 0ebf 78de 143e 9409 22bf fc36 07bf
00000210: 9f25 13bf ab44 433f 5ba1 183f baa8 1abf
00000220: b2cd 3c3f 8dc3 013f fabd 2c3f fbc1 9e3d
00000230: a2dc 11bf b54f 453f fe45 183f e3e5 29bf
00000240: 5270 b7be e71d 033f ee3a 47be 39c5 363e
00000250: 296f 26bf afff 04bf ded6 2dbf 9bed 15bf
00000260: 5995 64be 8ebc 033f d7b3 b73e fdb2 fbbe
00000270: 08f1 b63e ea23 2a3f e156 a2be 4051 7cbe
00000280: c452 ffbe ecb0 0f3f 0764 b43d 007f 22bf
00000290: 7487 0cbf 6220 2d3f 0b40 12bf 61e0 0cbf
000002a0: aca3 28bf aa61 debe 012e 22bf 613a 2dbf
000002b0: 12d1 10bf af69 033f cc6f 9dbe bb95 67be
000002c0: 3de1 653d 4d5b 573f 229c 35bf 31c4 cebe
000002d0: 6291 13bf c940 1cbf 8ab0 153f 507a 9f3e
000002e0: 00db 18bf 4714 de3e 9604 3cbf f604 c83d
000002f0: 2fbc 3cbf 91ed 3a3f 252c 843e 5333 233f
00000300: 1105 be3e 145a 143f a964 f9be 644e d53d
00000310: 92d8 2f3f a987 403f d67b fcbe 34bc ff3e
00000320: f2f4 1e3f 11ed fa3e 9361 f3be 5dbf 4abf
00000330: 770b 03bf 471a 103f ac7b 2cbf 13bb 67be
00000340: 9ef1 15bf 88e3 24bf a767 f5be 5314 3dbf
00000350: 694c d1be a803 593f 09a3 1a3f 77b2 96be
00000360: 6e1b 023f 1d70 253f bb77 373f cffe 02be
00000370: e1e1 2cbf 16a2 23bf 7939 383f d548 f53e
00000380: c408 5abe 22d7 15bf 1078 57bd 359e 10bf
00000390: 86d6 e43c dfef 933e c3fa 1e3f 7f85 c83e
000003a0: f4f4 fc3d 8c7b 3b3f 3718 9cbe 14e6 0c3f
000003b0: d5cb b03d 83d2 e53e 87ed 05bf fabe dc3e
000003c0: 1106 ccbe 2576 4ebe c226 af3e 44b7 18bf
000003d0: 1b24 12bf 9dbd 323f f150 2dbf c04c 4cbe
000003e0: 4454 19bf d80d 0bbf 84aa 19bf e463 1abf
000003f0: 52f0 08bf 0e14 713e 4396 1b3f c3a8 2bbf
-0.67614657 -0.8183623 0.659571 -0.69861215 0.652946 0.53982127 -0.60077924 -0.6700585
0.15070903 -0.57025737 -0.42989814 -0.48519564 -0.002896143 0.8034632 -0.72056097 -0.31584057
0.39625138 0.7723968 -0.5314848 -0.009866284 -0.5988038 0.100552194 0.72101474 -0.49284372
-0.5141647 0.6443716 -0.61355627 -0.6789616 -0.36573538 -0.5800246 -0.63843006 -0.36877427
-0.44414335 -0.6779401 0.59445274 -0.23369718 0.47614875 0.2714767 0.3310819 -0.66299003
-0.5265312 0.5087735 0.74917644 -0.4147608 0.2296549 0.4845379 -0.5817567 0.8528677
-0.5220993 0.4639314 -0.7029681 -0.5275159 -0.49622366 -0.91455954 0.29955837 0.39836916
0.6627124 0.5116187 -0.7885655 -0.58877075 -0.49908435 0.7177557 0.503431 -0.4672017
-0.68884575 0.41800782 -0.00026456005 0.6407766 -0.5186478 -0.7062198 -0.6789446 -0.675897
-0.6215497 0.4233766 0.48925224 -0.10772126 0.614146 0.24346463 0.15579535 0.53820336
-0.6839822 0.4124978 -0.46035743 -0.6059255 -0.3777973 0.4453746 -0.56148237 -0.73298675
-0.3533116 -0.68095744 -0.6498148 -0.5805447 -0.18495354 0.28724632 0.34026504 -0.7187127
0.6967893 0.6152737 -0.7671014 -0.48312524 -0.6467823 0.4486079 0.41576737 0.8272405
-0.6675839 0.5830875 -0.8307398 -0.69859874 -0.57200027 0.15481731 -0.6682912 0.85039026
-0.68930626 0.21136723 -0.6927564 -0.7907377 0.7168384 0.79279363 -0.7193482 0.691638
-0.4260832 -0.79760075 0.6752295 -0.3079463 -0.6489669 0.40274337 -0.5293801 -0.41472495
-0.55574995 0.1453799 -0.63295865 -0.52818274 -0.5747928 0.76276654 0.5962121 -0.60413706
0.73751366 0.5068901 0.6747738 0.077518426 -0.56977284 0.7707475 0.594818 -0.66366404
-0.3582788 0.512175 -0.19456074 0.17848672 -0.65013367 -0.5195264 -0.67905986 -0.5856568
-0.22322597 0.51459587 0.35879394 -0.49159995 0.35730767 0.6646105 -0.31706908 -0.2464037
-0.49867833 0.56129336 0.08808141 -0.63475037 -0.54894185 0.6762754 -0.5712897 -0.55029875
-0.65874743 -0.43433887 -0.63351446 -0.67667204 -0.56569016 0.51333135 -0.30749357 -0.22615711
0.056123007 0.8412369 -0.70941365 -0.40384057 -0.5764371 -0.61036354 0.584725 0.31148005
-0.5970917 0.43374845 -0.734445 0.09766571 -0.73724645 0.7301875 0.2581493 0.6375019
0.3711324 0.5794995 -0.4870961 0.104153425 0.68689835 0.75207 -0.4931323 0.49948275
0.62092507 0.49008992 -0.4753538 -0.7919825 -0.5118937 0.56290096 -0.6737621 -0.22629957
-0.58571804 -0.64409685 -0.47930643 -0.7385914 -0.4087861 0.84771204 0.6040502 -0.29433033
0.50823104 0.64624196 0.7166707 -0.12792514 -0.67532164 -0.639192 0.71962696 0.4790713
-0.21292406 -0.5853139 -0.052604735 -0.56491405 0.027934324 0.28893945 0.6210138 0.3916435
0.123514086 0.7323539 -0.30487224 0.5503857 0.08632628 0.4488717 -0.5231556 0.43114454
-0.39848378 -0.20162256 0.34209257 -0.5965464 -0.5708634 0.69820577 -0.6770163 -0.19951153
-0.59894204 -0.54318 -0.6002581 -0.6030867 -0.534917 0.23542807 0.60776156 -0.67054385

linear_trans_neigh.weight f4 [20, 20]
00000000: a388 b43d ed72 8c3d 02f2 d93d f70e 993d
00000010: c686 bd3d 429b 2c3d 16a0 ed3d 3da7 9e3d
00000020: bbe0 c13d 62f7 973d 7d0c b53d ff0a a53d
00000030: 9068 a53d 81ab 913d eb11 2b3d 1839 d53c
00000040: 9347 bc3d d92b a93d 48ab 953d 05fa 9c3d
00000050: 5907 b53d 5372 8c3d 71d9 d93d c13c 993d
00000060: 9584 bd3d 822b 2d3d 5ea2 ed3d 5bbd 9e3d
00000070: 38c7 c13d 3756 983d 0a0f b53d c608 a53d
00000080: d868 a53d c187 913d ab26 2b3d f82b d53c
00000090: 0523 bc3d 272c a93d f2a5 953d ed1a 9d3d
000000a0: 40e8 b43d 1260 8c3d fefb d93d 3ad6 983d
000000b0: b684 bd3d e096 2c3d 96ae ed3d f0ca 9e3d
000000c0: 2cd6 c13d edf5 973d ae17 b53d 3ef5 a43d
000000d0: 4080 a53d 2286 913d a530 2b3d b9ff d43c
000000e0: 4041 bc3d 2436 a93d 1a8c 953d 9ffc 9c3d
000000f0: cade b43d 9c6b 8c3d a1de d93d 585e 993d
00000100: 227e bd3d 4eaf 2c3d f6b7 ed3d a5ce 9e3d
00000110: 8dcc c13d f30b 983d c3e2 b43d dae8 a43d
00000120: e183 a53d 5f9b 913d 1eef 2a3d 5802 d53c
00000130: 6e35 bc3d b725 a93d 5924 963d 0306 9d3d
00000140: ebfb b43d 3775 8c3d 97fc d93d c731 993d
00000150: 9f89 bd3d 7f23 2d3d 0cb8 ed3d 81b7 9e3d
00000160: 22d9 c13d 443b 983d 2b0f b53d 30fc a43d
00000170: 208d a53d 46a7 913d 97f0 2a3d 5a55 d53c
00000180: 1628 bc3d 9333 a93d e326 963d 3e1c 9d3d
00000190: c58b b43d f35f 8c3d 35e5 d93d 2e55 983d
000001a0: 0c8a bd3d e5b3 2c3d deb5 ed3d d9c5 9e3d
000001b0: 4cd5 c13d 63f7 973d 1714 b53d 8411 a53d
000001c0: 967d a53d f48d 913d 5300 2b3d df03 d53c
000001d0: db33 bc3d 2f32 a93d 106e 963d 3afb 9c3d
000001e0: b1c8 b43d ef5f 8c3d ffdf d93d 6d45 993d
000001f0: 907f bd3d 86ad 2c3d e3b7 ed3d 1cab 9e3d
00000200: 53cf c13d 0200 983d 0ad9 b43d 4bee a43d
00000210: 066f a53d 05a1 913d 9b28 2b3d 7302 d53c
00000220: 552d bc3d 7c35 a93d 3fc0 953d b1fc 9c3d
00000230: e4e0 b43d d37a 8c3d b1d1 d93d 5839 993d
00000240: 0488 bd3d ba2e 2d3d f9a8 ed3d abcb 9e3d
00000250: 21c7 c13d 282b 983d ffd9 b43d 950b a53d
00000260: b880 a53d fd88 913d 371c 2b3d 7b06 d53c
00000270: bb33 bc3d 8930 a93d efc6 953d c9fb 9c3d
00000280: 7278 b43d f76c 8c3d f9d8 d93d f35d 993d
00000290: 3e85 bd3d 3bb6 2c3d c2bc ed3d d7d9 9e3d
000002a0: 13d1 c13d edfd 973d cefd b43d 9aea a43d
000002b0: e17b a53d 65ab 913d 9204 2b3d e72d d53c
000002c0: 8d23 bc3d 3933 a93d 00c9 953d c4f9 9c3d
000002d0: 6b8d b43d 3260 8c3d 7bfc d93d ef49 993d
000002e0: 8b7f bd3d 5b1a 2d3d 46a9 ed3d 16d1 9e3d
000002f0: 21ce c13d 6611 983d c718 b53d fefe a43d
00000300: 547f a53d cc9c 913d 07fa 2a3d 7e3c d53c
00000310: 522d bc3d ac31 a93d 7a60 963d 7016 9d3d
00000320: 74fc b43d 6960 8c3d 00fb d93d 3e19 993d
00000330: 0e81 bd3d f1ab 2c3d 3eaa ed3d 2ecc 9e3d
00000340: 6dd2 c13d e6f5 973d 4cda b43d 17ea a43d
00000350: 977d a53d f887 913d 8311 2b3d 0885 d53c
00000360: 773b bc3d ab32 a93d 11af 953d ce14 9d3d
00000370: 5ee0 b43d 5971 8c3d cefb d93d 7e44 993d
00000380: a17f bd3d 2fbb 2c3d 01b9 ed3d 0acb 9e3d
00000390: 48c6 c13d 403a 983d 2012 b53d 99e5 a43d
000003a0: 2180 a53d b591 913d 67f0 2a3d 1626 d53c
000003b0: c435 bc3d a12b a93d e1c8 953d e2fa 9c3d
000003c0: 1983 b43d 3f74 8c3d 58ce d93d 7b3c 983d
000003d0: fc84 bd3d 8b2e 2d3d cda6 ed3d 29d3 9e3d
000003e0: 9bd1 c13d dbf5 973d 6a01 b53d b902 a53d
000003f0: 626b a53d baaa 913d e719 2b3d 9312 d53c
0.08815124 0.06857858 0.106418625 0.074735574 0.092542216 0.042140253 0.116027996 0.07746742
0.09466692 0.074202314 0.088402726 0.08058738 0.08076584 0.0711279 0.041765135 0.026028201
0.09193339 0.082603164 0.0730806 0.07664875 0.08839292 0.06857743 0.10637177 0.07482291
0.09253804 0.04227782 0.11603235 0.077509604 0.09461826 0.07438319 0.08840759 0.08058314
0.08076638 0.07105971 0.041784924 0.026021942 0.09186367 0.082603745 0.07307042 0.07671151
0.08833361 0.068542615 0.10643767 0.074627355 0.09253828 0.042136073 0.11605565 0.07753551
0.09464678 0.074199535 0.08842407 0.08054589 0.08081102 0.07105662 0.041794438 0.026000844
0.09192133 0.0826228 0.07302113 0.07665371 0.08831556 0.06856462 0.10638166 0.07488698
0.092525735 0.04215937 0.116073534 0.07754258 0.09462843 0.07424154 0.08832314 0.080522254
0.080817945 0.07109713 0.041731946 0.026002094 0.091898784 0.08259147 0.073311515 0.07667162
0.08837112 0.068582945 0.10643881 0.074801974 0.09254765 0.04227018 0.1160737 0.07749844
0.09465243 0.07433179 0.08840784 0.080559134 0.08083558 0.07111983 0.04173335 0.026041675
0.09187333 0.0826179 0.07331636 0.076714024 0.088157214 0.06854238 0.10639421 0.07438122
0.09254846 0.04216375 0.11606954 0.0775258 0.09464511 0.07420232 0.088417225 0.080599815
0.08080594 0.071071535 0.041748356 0.026002822 0.09189578 0.08261525 0.073452115 0.07665105
0.08827341 0.068542354 0.10638427 0.07483945 0.09252846 0.042157672 0.11607339 0.0774748
0.09463372 0.074218765 0.088304594 0.08053263 0.08077817 0.0711079 0.04178677 0.026002144
0.09188334 0.082621545 0.07312059 0.076653846 0.08831957 0.06859364 0.106356986 0.074816406
0.092544585 0.04228089 0.116044946 0.0775369 0.09461809 0.074301064 0.08830642 0.0805885
0.08081192 0.071062066 0.041774955 0.026004067 0.09189554 0.082612105 0.07313334 0.07665212
0.088120356 0.06856721 0.106370874 0.074886225 0.092539296 0.042165976 0.11608268 0.077563934
0.09463706 0.074214794 0.08837472 0.08052559 0.08080269 0.07112769 0.041752405 0.026022865
0.09186468 0.08261723 0.07313728 0.076648265 0.08816036 0.06854285 0.1064386 0.07484805
0.092528425 0.042261463 0.11604552 0.07754724 0.09463144 0.074251935 0.088426165 0.080564484
0.080809265 0.07109985 0.04174235 0.026029821 0.09188332 0.08261427 0.0734262 0.07670295
0.08837214 0.06854326 0.106435776 0.07475518 0.09253131 0.042156164 0.11604737 0.07753788
0.09463964 0.07419948 0.08830699 0.080524616 0.08080595 0.07106012 0.041764747 0.02606441
0.091910295 0.08261617 0.07308782 0.07669984 0.08831857 0.06857557 0.10643731 0.07483767
0.09252859 0.0421707 0.11607552 0.077535704 0.09461647 0.07432985 0.08841348 0.08051605
0.08081079 0.071078695 0.04173317 0.026019137 0.091899425 0.08260275 0.07313705 0.076650396
0.088140674 0.0685811 0.1063506 0.07433411 0.092538804 0.042280715 0.1160408 0.07755119
0.09463807 0.0741994 0.0883816 0.0805716 0.08077122 0.07112642 0.04177275 0.026009833
