best_para_path/filmtrust50.20.650.150.250.251.050.00.5_p10_20gatv2_spill_var2_explicit_seed0_ex1_0.001_0.0001_0.005_0.01_0.05_0.001.pt (torch, 133933 bytes, 4 tensors)

user_embedding.weight f4 [1208, 20]
00000000: 48b5 8bbe ab6e f0be 2168 12bf 6da7 9bbe
00000010: 0a3e 273e bcf9 773e 1fa2 1bbe 686a ac3e
00000020: eb0f 2e3e a661 ccbd b47a a5bd 8077 33bd
00000030: 7d7c 06bd 2710 a8be a2aa 943e 51ab bf3e
00000040: 4a7a 99be bb14 cbbe 15c5 f13d 18c7 49be
00000050: 2507 22bd 1ca7 33be d9bd d9bc 9772 f9bc
00000060: dbc7 03bd 1917 d63d e230 fdbd 24f8 0dbe
00000070: b3fd 5abe bd03 b0bc f718 24bd d141 173e
00000080: e49c 5d3d 1c6c 56bd 6c9f d23d 40ba 25bc
00000090: 5df8 11be c4be 09bf 76eb 92be 66c4 95bd
000000a0: eb7a d7bd 920b 3fbe ce8c abbd 70f4 9abd
000000b0: adc1 b4bd 5b92 1d3d ca5a ffbd 2062 1ebe
000000c0: 0b9e c0bd 886b 703e 906e a0bd c959 b73e
000000d0: b8cc e53d 54e2 4b3d 19ec 0e3d 7583 f13c
000000e0: d687 073e dade 15bf ba2d bebe aad5 843d
000000f0: 551a c0bd 4899 35bf 1a28 8cbe aeec d4be
00000100: 84b2 d83e 000d e93e b301 5ebe bfaf 383e
00000110: b1b0 d33d d472 90be 21dc 043e c335 7abf
00000120: c63d fabd 8b40 89be a919 b53e 3819 513e
00000130: 9d7b 01bf 80a4 60bc 7647 223f 5f25 fcbc
00000140: c8ad 12bd 23d7 0abe 3841 153c 0c2a 9bbd
00000150: 3d65 72bd 2946 653d f915 12be eada 88bd
00000160: 8e48 eabd b813 433e 8206 b7bd 9bae c83e
00000170: 9a08 ca3d 0afe f73c 095e a0bb c410 71bb
00000180: e06a 0cbd 32dd eebe be3d 82be c2d3 253d
00000190: 7ebc 1a3e f20f 12bf f49a 52be 4aa4 5f3d
000001a0: 3985 bdbe a49c dc3d 30ac 973e ce98 883e
000001b0: 18d6 9b3d c927 cabd a502 c3bd f58c 883e
000001c0: 82b3 0cbe 7e63 453e 1f61 503d f884 043f
000001d0: 5f70 b8be 9b01 acbc f82c 3dbe 3c0c 4fbe
000001e0: dcdc 05be bd02 29bf 9b6a 1abf 84aa a53c
000001f0: b4c7 b43e ec34 ad3e ef1c 0fbf fcf1 dc3b
00000200: c263 c03d cd43 92bd 25be 37be 2b00 8bbd
00000210: 2d7e 7dbd bd90 b7be 5085 813e fcaa 813c
00000220: 54e0 0abe ccec 333b f8b5 90bb 4947 b0bd
00000230: f57f 34bf 0993 e7bd 118a f9be 599e 53bd
00000240: f7c6 87bd 7151 313e 40cd bebe 0ff3 92bc
00000250: 37bd de3e 7d30 eabe 779d c13e ab65 413e
00000260: 693c efbe 5233 dc3c 4fc4 2d3f fdc6 163f
00000270: 6aed 72be e256 563e 73aa 073f c3d5 28be
00000280: 7222 8dbe 6b7a 08bf ffd5 0abf 606f aa3d
00000290: 89c5 cc3d 1c9c aa3e 9595 a4be ded7 ca3c
000002a0: 1a41 93bd e2d0 4e3e e742 a5bd 88ff b23e
000002b0: 8805 4bbb b51e 65be 8f1a a73e 2b8c 7bbe
000002c0: d29f 63bd d535 82be 21dc 3cbe f21a c0bc
000002d0: 480e cbbe f89e 07bf 8441 d0be c5cc 3cbe
000002e0: 8ffc 813e fe77 133f 11db 5bbe eb06 2dbe
000002f0: 2cf6 d33c 5967 95be 8784 efbd b627 873e
00000300: b7fd f43d 6ed3 aabe b098 c73d a27f 753e
00000310: 24c6 753e 9236 413d 985e 6fbe e8b3 543d
00000320: 5fb6 25bf 1144 94be fa6c 5cbe b416 87be
00000330: 9b21 f5bd ce99 253f d6c1 8fbe ae0e 8ebd
00000340: cd8a 6f3e 15b3 d7be e902 10bd a7fd ef3d
00000350: 979d 7cbe 53ee eabd 2c81 aabd 3a53 443e
00000360: 8df3 16be e12a 02bd 1bcf ac3e 6e37 dabd
00000370: 72fd 523b 96cd bf3d 5d33 993d 24b5 f8be
00000380: 4b5c 913e 70f6 023e 87b2 1cbe 7199 d73e
00000390: 4c80 fe3e 60b9 d0be 1c82 073f 2a73 3cbf
000003a0: 3d0e 5fbe bcf4 86bd b17e cc3d f6c9 1a3e
000003b0: 2a30 f6bd bdd7 2d3f 3553 c03e d948 eebe
000003c0: 7d7b 0abd 8ddd 603d 997e b73d 2b03 0bbf
000003d0: 847f 663e a10e 783d 77f8 84be 36ec b73e
000003e0: a4d9 a33e 61fb 06bf 6a4b 1e3f ad30 22bf
000003f0: 5062 a1be 8c1c 5fbe 6408 c03d 74c2 613e
-0.27286744 -0.46959433 -0.5719014 -0.30401173 0.1633226 0.2421636 -0.15198563 0.33674932
0.1699826 -0.099795625 -0.080800444 -0.043815136 -0.032833565 -0.32824823 0.29036433 0.37435392
-0.29976112 -0.39664254 0.118051685 -0.19704854 -0.039557595 -0.17544216 -0.026579784 -0.030450149
-0.03217302 0.10453624 -0.12362839 -0.1386419 -0.21385841 -0.021486158 -0.04006287 0.147712
0.0541047 -0.052349195 0.102843136 -0.010115206 -0.142549 -0.5380671 -0.28695267 -0.07312851
-0.105214916 -0.18656757 -0.08376466 -0.07566154 -0.08826003 0.038469654 -0.124684885 -0.15467119
-0.09405144 0.2347852 -0.07833588 0.35810688 0.11220688 0.04977639 0.03489313 0.029481629
0.13235411 -0.5854317 -0.37144262 0.06486066 -0.093800224 -0.70937014 -0.27374345 -0.41586822
0.42323697 0.4551773 -0.21680336 0.18035792 0.103364356 -0.28212607 0.12974598 -0.97738284
-0.122188136 -0.26807055 0.3537114 0.20419776 -0.50579244 -0.013711095 0.6339029 -0.030779539
-0.035810262 -0.1355863 0.009109788 -0.07576379 -0.05917858 0.055975113 -0.14266194 -0.066823795
-0.1143962 0.19050491 -0.08936788 0.39195713 0.09864922 0.030272502 -0.0048940224 -0.0036783675
-0.03428161 -0.46653134 -0.2543773 0.04048515 0.15110967 -0.5705558 -0.20566922 0.054600038
-0.37015703 0.10772064 0.29623556 0.2667908 0.076091945 -0.0987087 -0.09521989 0.26670042
-0.13740352 0.19276235 0.050873872 0.51765394 -0.36023232 -0.02099686 -0.18474185 -0.20219511
-0.13072532 -0.66019803 -0.6031892 0.02022291 0.3530861 0.3382944 -0.55903524 0.006742714
0.09394027 -0.07141838 -0.17943628 -0.067871414 -0.06188791 -0.35852614 0.25297022 0.015828602
-0.13562137 0.0027454374 -0.0044162236 -0.086073466 -0.70507747 -0.113073416 -0.4873815 -0.051664684
-0.066297464 0.17316224 -0.37265968 -0.017938165 0.43503734 -0.4574012 0.3781545 0.1888644
-0.46725777 0.02687994 0.6787767 0.5889738 -0.23723379 0.2093158 0.5299446 -0.16487794
-0.27565342 -0.53311795 -0.5423278 0.08322024 0.09998614 0.33322227 -0.32145372 0.024761137
-0.071901515 0.2019687 -0.08069401 0.3496058 -0.0030978639 -0.22374995 0.3263745 -0.24565189
-0.05557234 -0.25431696 -0.18443348 -0.023450349 -0.39659333 -0.5297694 -0.40674984 -0.18437488
0.25388 0.5760497 -0.21470286 -0.1689717 0.02587422 -0.2918041 -0.116951995 0.26397485
0.11962455 -0.33364433 0.0974592 0.2397447 0.24001366 0.047171183 -0.23375928 0.051929384
-0.647314 -0.2895818 -0.21525946 -0.2638451 -0.119693 0.6468781 -0.28077573 -0.06936394
0.23392792 -0.42128816 -0.035159025 0.11718302 -0.24669491 -0.11471238 -0.08325419 0.19172373
-0.14741345 -0.031779174 0.3375176 -0.106551036 0.0032194522 0.09365384 0.074805 -0.485757
0.28390726 0.12789321 -0.15302478 0.42109254 0.49707258 -0.4076643 0.52932906 -0.73613226
-0.21782775 -0.06589648 0.09985102 0.15116104 -0.12020905 0.67907315 0.37563482 -0.46539953
-0.033809174 0.054898787 0.089596935 -0.5430171 0.22509581 0.060560826 -0.25970814 0.35922402
0.32001984 -0.52727324 0.6183382 -0.63355523 -0.3152032 -0.21788234 0.093766004 0.22046834

item_embedding.weight f4 [406, 20]
00000000: 0e1b 92be 12b5 503f 2a50 a13e 6586 76be
00000010: ba38 4e3d aed4 3abd 15cf 30bf 7ea9 bdbd
00000020: 79e7 63bd f007 99be f20a 0b3f 2a63 34bf
00000030: 39e0 7abe 95a4 2f3e 955f 8cbe 508c 9cbe
00000040: e558 803f 3538 6b3f 480b 443e 9b20 05bf
00000050: ed37 efbe 16d5 1abf 4227 b33d 484b 37bd
00000060: 7d82 b0be 29e0 363f bbe4 04bf 3fe1 a03e
00000070: 86dc 29be 4bfc 81bf 9fe6 1f3f 59f2 63bf
00000080: 0a96 01bf 5148 8c3d 3703 3a3e 6ad9 18bf
00000090: 8ea2 72bf 19d4 833f 6fc3 203f 92e9 d9be
000000a0: 6d99 863d 41b6 a13e 04c0 f53e e791 b4bf
000000b0: f8a5 9b3e 88eb 7ebd 3660 dcbc 552f 1c3f
000000c0: 821f 463f 58a6 71bf 7902 533f 92c6 b53d
000000d0: 0ce6 37bf 9711 473f b460 7a3e 323b 5bbd
000000e0: 641f 1bbf 29cd 053d ff8c 553f ec48 963e
000000f0: c579 cbbe 1d46 ccbd 20a1 62be a94e afbe
00000100: af6a 2e3f c318 1a3f 1c1f 1fbf dda0 513e
00000110: 053c d13e 16e1 55bf 96c4 043f e070 2bbf
00000120: 01f4 85be ef1c d0be 8ca2 313f aac5 31be
00000130: 16fc cabc 1e55 8c3f a5bd 443f 6ae6 9ebe
00000140: 8bee 22bf 3db5 f73e 6da8 4a3f d904 32be
00000150: 9972 4bbe fa49 873f d780 5abf fdf5 563e
00000160: f9d9 9dba 17fe ffbe c864 853e f5be 45bf
00000170: 394d b23d 6c16 ecbe 1b4a 8b3e 1a2c 3c3e
00000180: b828 1abf d12c 643f e5c7 5c3f c682 04bf
00000190: 88f7 863e b4c7 433f dd82 113f 54ec 88bf
000001a0: 03cb 663e da44 ce3e 6b12 833e 6d3e 0b3f
000001b0: 65a3 273e 9fde 63be aef8 9c3e c737 50bf
000001c0: b0f1 73be e23f 4fbf e9a2 cabe 955d 4abf
000001d0: b700 853f 3bf3 543f 91ea 083f b819 99be
000001e0: f25a 0dbf f3fe b23e 5807 c63e b940 abbd
000001f0: a9c3 4a3d 5892 57be 2599 15bf 6c98 1fbd
00000200: 3c3d 033f 7637 9abe d14c e23e d8bb b1bf
00000210: 0e86 89bd b7b0 82bf 27c5 163e d38a aebe
00000220: 1654 d23e 2992 5d3e fe9c a33f 2839 0cbf
00000230: c9fd 133e 0f9b cbbd 2d8d 3ebd 2f05 f9be
00000240: c3b2 bb3e 87a9 623e cf00 9cbf e1cc 013f
00000250: f81f 513e 3b6b 48bf 63e8 423f c749 b1be
00000260: 81cd a1be 64df eebc e4a6 103f 15a5 1c3f
00000270: d989 edbe d31e 643f a199 293f 77e1 40be
00000280: dca4 5b3f 763d 90be e935 213e 1472 6fbd
00000290: 6dc4 803f b4c4 da3e 845f 56bf f30a a03e
000002a0: 7e54 fd3e 4ccf 73bf 21e3 b53e ea44 82be
000002b0: f8ef 8ebe 5217 65bf fcb6 b73c eb40 21bf
000002c0: 441b acbb 2f40 213f 7b41 663f 1255 18bf
000002d0: af09 023f 57d8 763f d1a4 1b3f 2543 a4be
000002e0: 9f90 953d 33d1 f4be 0e96 093f 0403 c93e
000002f0: e04d 203e 2ba8 293d 17c8 f53e 0967 37bf
00000300: 1095 20be 91ed fe3c beb2 4abe 5f11 2fbf
00000310: ac1f 043f d1bd 5f3f 9d6d 23bd 6a57 08bf
00000320: 6197 963e 9da4 69bf 5e51 1ebf 8bee 09bf
00000330: 552e 823e adb7 113f 3a20 d7be 264e 303f
00000340: 48b5 173f 1dbf 80bf d355 813e 3740 4fbd
00000350: 4ed1 c6be 09d4 3dbf 6890 403f 7aa5 b03e
00000360: 09f0 febe 1c2c 633f ddc4 843f 5306 1fbf
00000370: 4ba0 a53e 1e2b 093f f72b 793f ddf7 05bf
00000380: 4422 45bf fb8d 5fbf 4c32 b53e 76cd 47be
00000390: c29f 8bbd a78c 02be ae99 cf3d cd00 ac3e
000003a0: b694 b63d c8d9 4d3c 1c1e a2be 3d82 acbe
000003b0: 46f2 55be e0cf 393f 43de 413e 29c6 003d
000003c0: 5ff7 81bf e444 82be b2f1 493e 58d9 c9be
000003d0: 5c6b 0bbd dd72 153f 7218 26bf b317 d13e
000003e0: 7e83 1e3f 6e0b 43be 0ea2 fa3e cee6 99bf
000003f0: 296a 35bf 5cdf e9be eae3 9ebd 6eff d33c
-0.28536266 0.8152629 0.31506473 -0.24074705 0.050347067 -0.045612983 -0.6906598 -0.09260844
-0.05564067 -0.29888868 0.54313576 -0.7046381 -0.24499597 0.17152627 -0.27416673 -0.305758
1.0027128 0.9188264 0.19144928 -0.52002877 -0.46722355 -0.60481393 0.08747722 -0.04474953
-0.34474555 0.7143579 -0.51911515 0.3142185 -0.1658803 -1.0155119 0.62461275 -0.8904167
-0.50619566 0.06849731 0.18165289 -0.5970675 -0.9477929 1.0299102 0.6279821 -0.42561013
0.065722324 0.3158436 0.4799806 -1.4107026 0.30400062 -0.06223634 -0.026901346 0.6100972
0.7739183 -0.94394445 0.8242565 0.08875765 -0.718354 0.77761215 0.24450952 -0.05352325
-0.60594773 0.03266636 0.8341827 0.2935251 -0.3974134 -0.099743105 -0.22131777 -0.342397
0.68131536 0.60194033 -0.62156844 0.2047152 0.40866104 -0.8354658 0.51862466 -0.6696911
-0.26162723 -0.40647075 0.6938865 -0.17360559 -0.024778407 1.0963476 0.76851875 -0.31035167
-0.6364524 0.4838046 0.7916325 -0.17384662 -0.19867934 1.0569451 -0.85352844 0.20992275
-0.001204311 -0.49998543 0.26053452 -0.772445 0.08706135 -0.46110857 0.27204975 0.18376198
-0.6021838 0.89130884 0.86242515 -0.51762044 0.26360726 0.764766 0.56840307 -1.0697122
0.2253838 0.40286905 0.2559999 0.5439213 0.16370924 -0.22252892 0.30658478 -0.8133511
-0.23822665 -0.8095685 -0.39577416 -0.79049045 1.0390843 0.8318364 0.5348292 -0.29902434
-0.55216897 0.34960136 0.38677478 -0.08361954 0.049503002 -0.2105192 -0.58436805 -0.03896372
0.5126531 -0.30120438 0.4419923 -1.388545 -0.06715022 -1.0210179 0.14723645 -0.3409029
0.41079777 0.21637787 1.2782285 -0.54774714 0.1445228 -0.099416845 -0.046521354 -0.48636767
0.36659822 0.22134982 -1.2187747 0.50703245 0.20422351 -0.7828862 0.76135844 -0.346266
-0.316021 -0.029159255 0.56504655 0.61189395 -0.46394232 0.89109534 0.66250044 -0.18836008
0.8579843 -0.2817189 0.15743221 -0.058458403 1.0059944 0.42728198 -0.83739495 0.31258354
0.49478525 -0.95238185 0.35524848 -0.25443202 -0.27917457 -0.8948871 0.022426121 -0.6298968
-0.0052522738 0.6298856 0.89943665 -0.59504807 0.50796026 0.9642386 0.60798365 -0.32082477
0.07302975 -0.47815856 0.5374459 0.39260113 0.15654707 0.041420143 0.4800422 -0.71641594
-0.15681863 0.03111914 -0.19794747 -0.6838588 0.5161083 0.8739901 -0.039899457 -0.53258383
0.29412368 -0.91266805 -0.61842906 -0.5387961 0.25425974 0.5692089 -0.42016774 0.68869245
0.5926099 -1.0058323 0.2526079 -0.05059835 -0.38831562 -0.74151665 0.75220346 0.3450125
-0.49792507 0.8873918 1.0372578 -0.62119025 0.32348856 0.53581417 0.9733271 -0.52331334
-0.7700541 -0.8732602 0.35389936 -0.19511971 -0.06817581 -0.12748967 0.10136734 0.3359436
0.08915083 0.01256413 -0.31663597 -0.33693114 -0.20893201 0.7258282 0.18932442 0.03143898
-1.0153617 -0.25443184 0.19721106 -0.39423633 -0.034037933 0.5837839 -0.6488105 0.40838394
0.6191939 -0.19047329 0.48951763 -1.2023561 -0.7086511 -0.45678222 -0.07758315 0.025878634

linear_att_out.weight f4 [1, 40]
00000000: f24b 4cbd 5bdd 53be 8a0a f8bd b38f d4bc
00000010: 0dc6 8a3d 9d96 4a3d 33a6 d9bd ce76 7e3d
00000020: c1d7 6d3d 4ffe bfbc 99cc 7f3d aad0 3abd
00000030: a42b 23bd 852e 4fbd ea35 683d 761a e13d
00000040: ef4f 38bc 2d9c 39bd ed3a 413d 5824 1ebd
00000050: dee0 4fbd dbce 15be b25a d4bd 3607 2ebd
00000060: e289 1f3d 6a60 b13d d6b3 a6bd 2d3a 153d
00000070: bf11 ff3c 1bc6 c4bc f830 e83c 9223 80bc
00000080: 1d2a f3bc cafd e8bc e9f0 373d 6b85 c83d
00000090: f54d cfbc 7d5b f5bc 589c 1b3d 7c24 0bbd
-0.049877115 -0.20689909 -0.12111385 -0.025947427 0.067760564 0.049460042 -0.10627403 0.06212502
0.058067087 -0.023436693 0.06245098 -0.045609154 -0.03983654 -0.050581474 0.05669204 0.10991375
-0.011249526 -0.045314956 0.047175337 -0.03860888 -0.05075156 -0.1462969 -0.10368861 -0.042487346
0.038949855 0.08660968 -0.0813977 0.036432434 0.031136392 -0.024020245 0.028343663 -0.015641961
-0.029683167 -0.028441329 0.044907484 0.097910725 -0.025305727 -0.029950852 0.037990898 -0.03397034

linear_trans_neigh.weight f4 [20, 20]
00000000: 5178 543d 91f3 c73e c2c0 7c3e 4a6d 633e
00000010: 452a 873b 5494 4a3e 84fd 893e 2289 a73c
00000020: aafe ee3b d804 8cbe 6163 183c 5da1 0b3f
00000030: 1007 91bc f97c 5fbd 85d5 943c 300e a03e
00000040: 2e12 b1bc 74f7 f03e 5c6c d53e 9d48 f33c
00000050: 4175 543d adf3 c73e 9fc0 7c3e 1d63 633e
00000060: 191d 873b 4e94 4a3e 21fd 893e 808d a73c
00000070: 3c86 ee3b d404 8cbe 2f60 183c 49a1 0b3f
00000080: 0f07 91bc c47d 5fbd 31c6 943c 240e a03e
00000090: 5710 b1bc 74f7 f03e 146d d53e 4248 f33c
000000a0: 5677 543d 74f3 c73e 26c1 7c3e c962 633e
000000b0: 391c 873b 3996 4a3e f2fc 893e 9a8e a73c
000000c0: b58b ee3b b204 8cbe 977b 183c 65a1 0b3f
000000d0: 9107 91bc c57c 5fbd 2cc6 943c 290e a03e
000000e0: 9e13 b1bc 6cf7 f03e 776c d53e 9748 f33c
000000f0: 3f75 543d ccf3 c73e 07c1 7c3e df62 633e
00000100: e630 873b d294 4a3e 09fd 893e fb90 a73c
00000110: 0a8f ee3b c704 8cbe c461 183c 64a1 0b3f
00000120: f706 91bc cc7d 5fbd 45c9 943c 230e a03e
00000130: e511 b1bc 75f7 f03e 906c d53e 1a4f f33c
00000140: 2176 543d 96f3 c73e 0ec1 7c3e bd62 633e
00000150: d133 873b 4e94 4a3e 95fd 893e 908f a73c
00000160: 6986 ee3b b204 8cbe 0473 183c 66a1 0b3f
00000170: b204 91bc cd7c 5fbd 8acb 943c 3b0e a03e
00000180: 7611 b1bc 75f7 f03e 5c6c d53e d84c f33c
00000190: 1175 543d b7f3 c73e a1c0 7c3e b966 633e
000001a0: e11f 873b 4a94 4a3e 94fd 893e 1b8b a73c
000001b0: a685 ee3b d204 8cbe c666 183c 65a1 0b3f
000001c0: 3b05 91bc 897f 5fbd 36c6 943c 240e a03e
000001d0: 3312 b1bc 75f7 f03e 826c d53e 3e60 f33c
000001e0: d174 543d a3f3 c73e 41c1 7c3e 6a65 633e
000001f0: 261f 873b 1495 4a3e 97fd 893e 288f a73c
00000200: 0c87 ee3b f904 8cbe ac6d 183c 65a1 0b3f
00000210: 7906 91bc b77c 5fbd 96cc 943c 250e a03e
00000220: 5d12 b1bc 74f7 f03e 5a6c d53e ae49 f33c
00000230: 5075 543d daf3 c73e 0fc1 7c3e e962 633e
00000240: b43f 873b 8795 4a3e 50fd 893e f388 a73c
00000250: 28aa ee3b b204 8cbe ef78 183c 64a1 0b3f
00000260: 9f06 91bc 807f 5fbd e3c8 943c 610e a03e
00000270: 9c11 b1bc 74f7 f03e 7e6c d53e 5e48 f33c
00000280: 1175 543d 83f3 c73e b1c0 7c3e bb62 633e
00000290: 8f1c 873b da95 4a3e 59fd 893e 2e89 a73c
000002a0: 3d8a ee3b b304 8cbe 0379 183c 59a1 0b3f
000002b0: 2808 91bc 2c7d 5fbd 5fce 943c 2a0e a03e
000002c0: 9512 b1bc 74f7 f03e 606c d53e 4a55 f33c
000002d0: ae89 543d 88f3 c73e a3c0 7c3e cd62 633e
000002e0: 3a1c 873b 4c94 4a3e 89fd 893e f488 a73c
000002f0: 36ac ee3b b804 8cbe 0984 183c 61a1 0b3f
00000300: 7508 91bc 477d 5fbd a3c6 943c 3a0e a03e
00000310: 4f10 b1bc 75f7 f03e 676c d53e 1b48 f33c
00000320: 0b83 543d e2f3 c73e 9fc0 7c3e c362 633e
00000330: 471c 873b 8894 4a3e 98fd 893e 0289 a73c
00000340: d286 ee3b de04 8cbe 1362 183c 62a1 0b3f
00000350: 7707 91bc c27c 5fbd 0ec7 943c 240e a03e
00000360: 9d13 b1bc 74f7 f03e 5b6c d53e 8748 f33c
00000370: 9874 543d e1f2 c73e 74c1 7c3e 6468 633e
00000380: 5836 873b 4d94 4a3e 96fd 893e bb88 a73c
00000390: 3586 ee3b b304 8cbe 3965 183c caa0 0b3f
000003a0: a404 91bc b67c 5fbd decd 943c 230e a03e
000003b0: b811 b1bc 74f7 f03e 726c d53e 9e5c f33c
000003c0: 5477 543d ddf3 c73e e6c0 7c3e c262 633e
000003d0: 182b 873b d594 4a3e 3bfd 893e 159a a73c
000003e0: a796 ee3b b304 8cbe b684 183c 65a1 0b3f
000003f0: 3808 91bc dd7e 5fbd 27c6 943c 260e a03e
0.051872555 0.39053014 0.24682906 0.22209659 0.004124912 0.19783145 0.2695123 0.020451132
0.007293542 -0.27347445 0.0093010375 0.54543096 -0.017703563 -0.054562543 0.01816822 0.31260824
-0.021615114 0.47063792 0.41684234 0.02969771 0.051869635 0.39053097 0.24682854 0.22205777
0.0041233418 0.19783136 0.26950935 0.020453215 0.0072791856 -0.27347434 0.009300276 0.54542977
-0.017703561 -0.0545633 0.018160911 0.31260788 -0.021614237 0.47063792 0.41684783 0.029697541
0.05187162 0.39052927 0.24683055 0.22205652 0.0041232374 0.19783868 0.26950794 0.02045374
0.007279838 -0.27347332 0.00930681 0.54543144 -0.017703803 -0.05456235 0.018160902 0.31260803
-0.0216158 0.47063768 0.41684315 0.0296977 0.051869627 0.3905319 0.24683009 0.22205685
0.004125702 0.19783333 0.26950863 0.020454874 0.007280235 -0.27347395 0.009300653 0.5454314
-0.017703516 -0.05456333 0.018162379 0.31260785 -0.021614978 0.47063795 0.4168439 0.029700805
0.05187047 0.3905303 0.2468302 0.22205634 0.00412605 0.19783136 0.2695128 0.020454198
0.0072792065 -0.27347332 0.009304766 0.5454315 -0.017702434 -0.05456238 0.018163461 0.31260857
-0.021614771 0.47063795 0.41684234 0.029699728 0.051869456 0.39053127 0.24682857 0.22207154
0.0041236733 0.1978313 0.26951277 0.020452073 0.0072791157 -0.27347428 0.009301847 0.54543144
-0.01770269 -0.054564986 0.01816092 0.31260788 -0.021615123 0.47063795 0.41684347 0.029708978
0.051869217 0.39053068 0.24683096 0.22206655 0.004123586 0.19783431 0.26951286 0.020454004
0.0072792824 -0.27347544 0.009303492 0.54543144 -0.017703282 -0.054562297 0.01816396 0.3126079
-0.021615202 0.47063792 0.41684228 0.02969822 0.05186969 0.3905323 0.24683021 0.222057
0.004127467 0.19783603 0.26951075 0.020451045 0.007283468 -0.27347332 0.009306177 0.5454314
-0.017703352 -0.054564953 0.018162197 0.3126097 -0.021614842 0.47063792 0.41684335 0.029697593
0.051869456 0.39052972 0.24682881 0.22205631 0.0041232775 0.19783726 0.269511 0.020451155
0.007279663 -0.27347335 0.009306195 0.5454307 -0.017704085 -0.054562733 0.018164812 0.31260806
-0.021615306 0.47063792 0.41684246 0.029703755 0.051889114 0.39052987 0.2468286 0.22205658
0.004123238 0.19783133 0.26951244 0.020451047 0.0072837127 -0.2734735 0.009308823 0.5454312
-0.017704228 -0.054562833 0.018161124 0.31260854 -0.021614222 0.47063795 0.41684267 0.029697469
0.051882785 0.39053255 0.24682854 0.22205643 0.004123244 0.19783223 0.2695129 0.020451073
0.0072792554 -0.27347463 0.0093007265 0.54543126 -0.017703755 -0.054562338 0.018161323 0.31260788
-0.021615798 0.47063792 0.4168423 0.02969767 0.051869005 0.3905249 0.24683172 0.2220779
0.0041263513 0.19783135 0.26951283 0.02045094 0.0072791823 -0.27347335 0.009301477 0.5454222
-0.017702408 -0.054562293 0.018164571 0.31260785 -0.021614894 0.47063792 0.416843 0.02970725
0.051871613 0.3905324 0.2468296 0.22205642 0.00412501 0.19783337 0.26951012 0.020459214
0.0072811428 -0.27347335 0.0093089845 0.54543144 -0.017704114 -0.054564346 0.018160893 0.31260794
