best_para_path/filmtrust50.20.650.150.250.251.010.00.5_p10_20gatv2_spill_var2_wo_att_explicit_seed0_ex1_0.001_1e-05_0.1_0.01.pt (torch, 133217 bytes, 3 tensors)

user_embedding.weight f4 [1208, 20]
0	0x3e83fd98	0.25779414
1	0x3f30cea9	0.6906534
2	0xbf184f48	-0.59495974
3	0xbdc21fe7	-0.09478741
4	0xbe862d0d	-0.26206246
5	0x3af51970	0.0018699598
6	0x3f0a26a7	0.5396523
7	0x3ea4dd98	0.32200313
8	0xbdab82b0	-0.08374536
9	0xbf25972e	-0.64683807
10	0x3f0ebe3a	0.5575901
11	0xbec8426c	-0.39113176
12	0xbe96e990	-0.2947507
13	0xbf0a092b	-0.5392024
14	0x3ec88fc4	0.39172184
15	0xbf0dcea0	-0.5539341
16	0xbee6d52c	-0.45084512
17	0x3e713d7b	0.23558609
18	0x3f377995	0.71669894
19	0xbf0d552b	-0.5520808
20	0x3e8aa760	0.27080822
21	0xbf0b5620	-0.5442829
22	0xbf0c658e	-0.5484246
23	0xbe5decb5	-0.21672328
24	0x3f3179ac	0.6932628
25	0xbd24895d	-0.040170062
26	0x3f1e897f	0.6192855
27	0x3edf3a82	0.43599325
28	0x3e9363bf	0.28787038
29	0x3ea24e6b	0.31700453
30	0xbe8ad578	-0.2711599
31	0xbd0f0a3c	-0.03492187
32	0x3e1b6983	0.15176968
33	0xbd770e70	-0.060316503
34	0x3ed5a922	0.417306
35	0xbeb5cf97	-0.3550994
36	0xbed853b1	-0.4225135
37	0xbf0bc556	-0.54597986
38	0x3f11ddb5	0.56978923
39	0xbea8b5e9	-0.32951286
40	0x3f098508	0.53718615
41	0xbd3cb631	-0.04607219
42	0xbec1fbfb	-0.37887558
43	0x3ee27ae7	0.44234392
44	0x3f04894a	0.51771986
45	0xbeda404b	-0.42627177
46	0x3f189676	0.59604585
47	0xbeba7e06	-0.36424273
48	0x3f0bc124	0.54591584
49	0x3e2d6cd5	0.16936047
50	0xbed0058d	-0.40629235
51	0xbbf7c12f	-0.007560871
52	0x3d9a8603	0.07545092
53	0xbefd2591	-0.49442723
54	0x3eae5c4b	0.3405479
55	0xbcd296c1	-0.02570665
56	0xbf01b206	-0.5066227
57	0xbef5b7d2	-0.47991806
58	0x3f05db52	0.5228778
59	0xbc515413	-0.0127763925
60	0x3e609705	0.2193261
61	0x3f00e997	0.5035643
62	0x3e2d2fc9	0.1691276
63	0xbf090a18	-0.53531027
64	0x3c8249aa	0.015904266
65	0x3f1de378	0.61675215
66	0xbeea0e52	-0.4571405
67	0xbedfb9ec	-0.43696535
68	0xbee60e13	-0.44932613
69	0xbdb0e092	-0.086365834
70	0x3f1ca3f9	0.611877
71	0xbde3b1db	-0.111179076
72	0xbf2125af	-0.62948126
73	0xbd656a1d	-0.0560094
74	0x3ec6811f	0.38770387
75	0xbf02571d	-0.50914174
76	0x3ee6f2c4	0.4510709
77	0x3f060dab	0.52364606
78	0x3eda0431	0.42581323
79	0xbf18928b	-0.59598607
80	0x3ed90e3e	0.42393678
81	0xbe91d2b5	-0.2848107
82	0xbf202de5	-0.6257003
83	0x3e235319	0.15949668
84	0x3f0228e8	0.5084367
85	0x3d679004	0.05653383
86	0x3f19e1e1	0.6011029
87	0x3f31598c	0.6927726
88	0x3f1b8a44	0.6075785
89	0xbeeba08b	-0.46020922
90	0xbe28e5be	-0.1649389
91	0xbece4cbb	-0.40292916
92	0x3e501e9f	0.20324181
93	0xbdc7f4e6	-0.097635075
94	0x3d14f564	0.036366835
95	0xbeb7e40d	-0.35916176
96	0x3c981269	0.018563466
97	0xbea96699	-0.33086088
98	0x3f0fef35	0.56224376
99	0x3c9b7b45	0.018979678
100	0x3f441462	0.765936
101	0x3ed0c007	0.40771505
102	0x3e9ab14f	0.302134
103	0xbe6b1184	-0.229559
104	0x3e2aea11	0.16690852
105	0xbd4426c0	-0.047888517
106	0xbdec225d	-0.11529992
107	0xbf5b167b	-0.8558118
108	0x3edb5423	0.4283763
109	0xbd9612d7	-0.07327812
110	0x3f2c8c07	0.67401165
111	0xbee9185c	-0.45526397
112	0xbf08f69a	-0.53501284
113	0x3ef92e69	0.4866822
114	0x3e76d6d4	0.24105388
115	0xbe80ed06	-0.25180835
116	0xbf39d972	-0.7259742
117	0x3ea42223	0.32057294
118	0x3e70b570	0.23506713
119	0xbf33b4ee	-0.7019795
120	0x3f1dc043	0.61621493
121	0x3f1a3268	0.60233164
122	0xbf0f1408	-0.5588994
123	0xbdc99dd7	-0.09844559
124	0xbe618a8a	-0.22025505
125	0x3f1bd1e8	0.60867167
126	0xbced228d	-0.02894714
127	0x3f37de56	0.7182363
128	0xbe88bca4	-0.2670642
129	0xbed55a4e	-0.4167046
130	0xbdb5e75a	-0.088820174
131	0xbf13fe4c	-0.578099
132	0xbe563e27	-0.20922147
133	0xbf0e7f94	-0.5566342
134	0x3f335c41	0.70062643
135	0xbecf47b0	-0.4048438
136	0x3eb79456	0.3585536
137	0xbe070491	-0.13185336
138	0x3f1a80fe	0.60353076
139	0xbeb46f96	-0.35241383
140	0x3f125eb4	0.57175756
141	0x3e4be8c8	0.19913018
142	0x3cdda04c	0.027053975
143	0xbf14a9d6	-0.5807165
144	0x3efb882f	0.49127337
145	0x3ed54a2e	0.41658157
146	0xbe8c3f00	-0.27391815
147	0x3e3a32f3	0.18183498
148	0xbeb5279b	-0.3538178
149	0xbf2a1bfa	-0.6644894
150	0xbf602d9a	-0.8756958
151	0xbf0e69cb	-0.5563018
152	0xbf0329bb	-0.5123555
153	0xbf14c8b0	-0.58118725
154	0x3f07f3f1	0.531066
155	0xbf1311f2	-0.5744926
156	0x3f19f22e	0.6013516
157	0x3f147d4b	0.5800368
158	0x3f22ee5c	0.6364496
159	0xbf228c53	-0.6349537
160	0x3edb0efa	0.42784864
161	0xbe88613c	-0.26636684
162	0xbf2ab5ee	-0.6668385
163	0x3edcf977	0.43159077
164	0xbed8512a	-0.42249423
165	0x3eaf5f26	0.3425228
166	0x3f12c6cf	0.5733461
167	0x3f29c730	0.6631956
168	0x3cb1354f	0.021631865
169	0xbeb9462f	-0.36186358
170	0x3f3704dd	0.71491796
171	0xbe9e4744	-0.30913746
172	0x3ed4d0fe	0.41565698
173	0xbf478722	-0.7794057
174	0x3f0c726f	0.5486211
175	0xbe880e2c	-0.26573312
176	0xbe90a380	-0.2824974
177	0xbf02628b	-0.50931615
178	0x3f39a3e1	0.72515684
179	0x3942531d	0.00018532244
180	0x3f261e1d	0.648897
181	0x3f1c9e55	0.61179096
182	0xbea4b489	-0.32168987
183	0x3ee61606	0.44938678
184	0xbd4f63bb	-0.05063222
185	0x3f0e739e	0.5564517
186	0x3e4792da	0.19489613
187	0x3d68dd7c	0.05685185
188	0x3e93c5d9	0.28861883
189	0x3d911046	0.07083182
190	0xbecfed07	-0.40610525
191	0xbe0a54dc	-0.13508934
192	0xbf089a8f	-0.5336084
193	0xbee70187	-0.45118353
194	0x3f0ae422	0.54254353
195	0xbed70ca7	-0.4200184
196	0x3d0a98cf	0.033837136
197	0x3e52f729	0.20602097
198	0x3f2a552b	0.66536206
199	0xbee4f103	-0.44715127
200	0xbda21ac1	-0.07915259
201	0x3f1b472f	0.6065549
202	0x3eae9ae8	0.3410256
203	0xbefc9175	-0.49329725
204	0xbf02a6f9	-0.5103603
205	0x3ed540c8	0.41650987
206	0x3f008850	0.50207996
207	0x3ef79691	0.4835706
208	0xbc1f63af	-0.009728356
209	0xbf0b6b2b	-0.544604
210	0xbe28ab94	-0.16471702
211	0xbf1db62a	-0.61606085
212	0xbe8c8e72	-0.27452427
213	0xbf0d14fb	-0.5511014
214	0x3f021df8	0.5082698
215	0xbf2c9f35	-0.6743043
216	0x3ed63aea	0.41841823
217	0x3f061fef	0.52392477
218	0x3ef28f2c	0.47374856
219	0xbe3e9637	-0.1861199
220	0xbef99fa5	-0.48754612
221	0x3f096c17	0.53680557
222	0x3f1b1abd	0.60587674
223	0xbefc426a	-0.4926942
224	0xbf01c8b3	-0.5069687
225	0x3f0a5ae5	0.54044944
226	0xbf319d16	-0.6938032
227	0xbedd0066	-0.43164366
228	0xbf1d36d1	-0.6141177
229	0xbeee1d06	-0.46506518
230	0x3f06b93e	0.5262641
231	0x3ea478f6	0.32123536
232	0xbf08033c	-0.53129935
233	0x3f269256	0.6506704
234	0x3e7fd872	0.24984911
235	0xbef03ec4	-0.46922886
236	0x3f08ab49	0.5338636
237	0x3f035150	0.5129595
238	0xbf1d1638	-0.6136203
239	0xbec4cde7	-0.3843834
240	0xbf009e76	-0.5024179
241	0x3f0d2b89	0.55144554
242	0x3edd118c	0.4317745
243	0xbf1c62fb	-0.6108853
244	0xbf0552cc	-0.52079463
245	0x3edb30e6	0.42810744
246	0xbf14371b	-0.57896584
247	0xbc086ffe	-0.008327482
248	0xbf16d8cf	-0.58924574
249	0xbf0e6d35	-0.55635387
250	0x3f393511	0.723466
251	0xbe5e4553	-0.21706133
252	0xbf136025	-0.5756858
253	0x3f0eebe0	0.55828667
254	0x3ebfa0e1	0.37427428
255	0xbf11718e	-0.56813896

item_embedding.weight f4 [406, 20]
0	0xbf183a9b	-0.59464425
1	0x3f3aeae7	0.7301468
2	0x3f22d65e	0.6360835
3	0xbf185af6	-0.59513795
4	0x3ed378c8	0.41303086
5	0xbf52e9ee	-0.823882
6	0xbf2083a5	-0.62700874
7	0xbf21701f	-0.6306171
8	0xbf125fe8	-0.5717759
9	0x3eda97f8	0.42694068
10	0x3e80b539	0.25138262
11	0xbee2bafa	-0.44283277
12	0xbed35a3a	-0.41279775
13	0x3f2c2312	0.67241013
14	0xbf30d733	-0.6907837
15	0xbe088e88	-0.13335621
16	0x3eb110a4	0.34583008
17	0x3f0179ea	0.5057665
18	0xbeff2748	-0.49834657
19	0x3f2f6f0c	0.6852882
20	0xbf16c9c8	-0.58901644
21	0x3ed300b6	0.4121148
22	0x3f366939	0.7125431
23	0xbee32215	-0.4436194
24	0xbf0cbd17	-0.5497603
25	0x3f076598	0.52889395
26	0xbf19ab80	-0.60027313
27	0xbf1c7c63	-0.611273
28	0xbefa18de	-0.48847097
29	0xbeb31547	-0.3497717
30	0x3f22be35	0.6357148
31	0xbc210c00	-0.009829521
32	0xbebc0b45	-0.36727348
33	0xbf0c9801	-0.5491944
34	0xbc8367dd	-0.016040737
35	0xbdf0771c	-0.11741468
36	0x3f24c7cc	0.64367366
37	0x3ee5eb54	0.44906104
38	0xbe9e4cbb	-0.30917916
39	0xbf07669f	-0.5289096
40	0xbf23ed48	-0.6403394
41	0xbf5dc348	-0.866261
42	0x3f2f0d18	0.68379354
43	0xbeff02bd	-0.49806777
44	0xbda717a1	-0.08158804
45	0x3f100e72	0.5627204
46	0xbf0d9cf6	-0.5531763
47	0xbe627c9d	-0.22117849
48	0xbf387ebd	-0.7206839
49	0xbf1c1f7c	-0.6098554
50	0xbf503ad0	-0.8133974
51	0xbf001ad0	-0.5004091
52	0xbef99893	-0.48749217
53	0x3e9cae72	0.3060184
54	0xbd650f38	-0.055922717
55	0xbef7118b	-0.48255572
56	0x3f1dff35	0.6171754
57	0x3eedd7a4	0.46453583
58	0xbf31c917	-0.69447464
59	0xbf1c22a0	-0.60990334
60	0xbf2bbcd0	-0.6708498
61	0x3f4c1a29	0.7972742
62	0x3f2b9100	0.6701813
63	0xbeb1edce	-0.34751743
64	0xbf254159	-0.6455284
65	0x3ec7e14e	0.3903908
66	0x3ed7c51a	0.42142564
67	0x3f46f84c	0.7772262
68	0xbedccd82	-0.4312554
69	0xbf19db60	-0.60100365
70	0x3eada4b0	0.3391471
71	0xbf2b2194	-0.6684811
72	0xbf2a02c4	-0.6641047
73	0x3e9befa6	0.30456275
74	0xbd96d527	-0.07364874
75	0xbf0d3806	-0.5516361
76	0x3f2f12b6	0.68387926
77	0x3efe94ed	0.49722996
78	0x3e2bdd15	0.16783555
79	0x3ed48567	0.41508028
80	0xbf306321	-0.6890126
81	0x3f0e9368	0.55693674
82	0x3e9c1702	0.30486304
83	0xbf268d4b	-0.65059346
84	0xbe9ad104	-0.3023759
85	0x3ebc28e9	0.36749962
86	0xbf1b5fe2	-0.6069318
87	0xbec22899	-0.379216
88	0xbed88fc0	-0.42297173
89	0xbf31b9f5	-0.6942437
90	0xbf2eae6d	-0.682349
91	0xbf0ee8f0	-0.55824184
92	0xbeab95d4	-0.33512747
93	0xbf6612c1	-0.89872366
94	0xbee1ef90	-0.44128084
95	0xbf15670f	-0.5836038
96	0x3eeefb54	0.46676123
97	0x3f16ee14	0.5895703
98	0xbefe7df9	-0.49705485
99	0xbf0c8fcd	-0.5490692
100	0xbf21da32	-0.63223565
101	0x3f171d51	0.5902911
102	0x3f04e981	0.519188
103	0x3d71ae3f	0.059004065
104	0xbf243d6d	-0.6415623
105	0x3e8e45dc	0.27787673
106	0xbf442f3e	-0.76634586
107	0x3f235a74	0.63809896
108	0xbed5a8fa	-0.4173048
109	0xbe9a0891	-0.3008466
110	0xbf0f3741	-0.55943686
111	0x3f4370c0	0.7634392
112	0xbed61019	-0.41809157
113	0x3bec54df	0.007212266
114	0xbf4599f5	-0.77188045
115	0xbe778df4	-0.24175245
116	0x3f243c8b	0.6415488
117	0x3f2698ac	0.6507671
118	0xbf190d2c	-0.59785724
119	0x3f4d5e9f	0.80222505
120	0xbf16220f	-0.5864572
121	0x3f02e0d8	0.51124334
122	0x3f292eb8	0.6608691
123	0x3ee7809b	0.45215306
124	0xbf0d6fe6	-0.5524887
125	0x3edd03f8	0.4316709
126	0xbf278f65	-0.6545318
127	0xbe102d6f	-0.14079832
128	0xbef01b14	-0.4689566
129	0xbef88080	-0.48535538
130	0xbf39156a	-0.722983
131	0xbf37ee60	-0.71848106
132	0xbf11fe89	-0.57029015
133	0x3e76bdcf	0.24095844
134	0x3da190da	0.07888956
135	0xbf1bb0d2	-0.6081668
136	0x3f43ea3e	0.765293
137	0x3f140435	0.5781892
138	0xbdeec528	-0.11658698
139	0x3f30f55b	0.6912438
140	0xbef06f98	-0.4696014
141	0x3f437144	0.76344705
142	0x3f2ecf72	0.68285286
143	0xbf168585	-0.58797485
144	0xbe7da3ff	-0.24769591
145	0x3f27550f	0.65364164
146	0xbd10e4e0	-0.035374522
147	0xbf1611cb	-0.586209
148	0xbf1f7557	-0.6228842
149	0xbec73ac6	-0.38912028
150	0x3e0b70f4	0.13617307
151	0xbf24f748	-0.6443982
152	0xbf0c01a0	-0.5468998
153	0xbde4da1b	-0.11174413
154	0x3cdeeaee	0.027211633
155	0xbefb39ce	-0.4906754
156	0x3d467f25	0.0484611
157	0x3f1be3c0	0.60894394
158	0xbf0680a5	-0.52540046
159	0xbdd80b49	-0.105490275
160	0xbf058a73	-0.5216438
161	0x3f480d66	0.78145444
162	0x3ef05640	0.46940804
163	0xbf1a24e4	-0.6021254
164	0xbf12806c	-0.57227206
165	0x3f46f5dd	0.7771891
166	0xbe1ce5ae	-0.15321991
167	0xbecaf0a7	-0.39636728
168	0xbf0eef54	-0.55833936
169	0xbf052625	-0.5201133
170	0xbf130232	-0.57425225
171	0xbf6374e2	-0.88850224
172	0xbf188d17	-0.59590286
173	0x3e7144dd	0.23561426
174	0xbe8e78b9	-0.2782648
175	0x3d9f9435	0.0779194
176	0x3e98a427	0.29812738
177	0x3f593053	0.8483936
178	0xbf23414b	-0.63771504
179	0x3e703b5d	0.23460145
180	0xbe92fd4a	-0.2870887
181	0xbec70863	-0.38873586
182	0x3f15890d	0.5841225
183	0x3ed5cff5	0.4176022
184	0xbf268e02	-0.65060437
185	0xbed2dbcd	-0.4118332
186	0xbf3c53e8	-0.7356553
187	0xbe5616d7	-0.2090715
188	0xbf27480c	-0.6534431
189	0xbe168de6	-0.14702567
190	0x3f40e8fb	0.753555
191	0x3f43ac63	0.76434916
192	0x3eedc7c4	0.46441472
193	0x3ee00059	0.43750265
194	0xbf0949ca	-0.5362822
195	0x3e3ee06d	0.18640299
196	0x3f2d1cf3	0.676223
197	0x3ee3bea5	0.44481388
198	0xbf2fd791	-0.68688303
199	0x3f056601	0.5210877
200	0x3eecceef	0.46251628
201	0x3f1286dd	0.57237035
202	0x3f3d66fd	0.7398527
203	0xbf45e029	-0.77295166
204	0xbf201753	-0.6253559
205	0x3f29d090	0.66333866
206	0xbf29eb18	-0.6637435
207	0x3f2ec87e	0.68274677
208	0xbf175243	-0.59109896
209	0xbf03c466	-0.51471555
210	0x3f026193	0.50930136
211	0xbf28c6d9	-0.6592842
212	0xbf18ed73	-0.5973732
213	0x3f49d4e5	0.78840476
214	0x3f1753d1	0.5911227
215	0xbecb92f8	-0.39760566
216	0x3ec2fb02	0.3808213
217	0x3f192939	0.59828526
218	0x3f093ab0	0.53605175
219	0xbe880c3c	-0.26571834
220	0xbf3374f2	-0.7010032
221	0xbe940e2e	-0.28917068
222	0x3f3e3d02	0.7431184
223	0x3e9da281	0.30788043
224	0x3e390186	0.18066987
225	0xbf1c00e3	-0.60938853
226	0xbe868701	-0.26274875
227	0xbee59b10	-0.44844866
228	0xbee500a2	-0.44727045
229	0x3f16d51e	0.5891894
230	0x3f2fe715	0.6871198
231	0x3f342055	0.70361835
232	0x3eb1da37	0.34736797
233	0x3f45a87c	0.7721021
234	0xbec2d5b2	-0.38053662
235	0x3f164ba1	0.5870915
236	0x3e87df8f	0.2653775
237	0xbe7d3dd0	-0.24730611
238	0xbecef90c	-0.40424383
239	0x3ec85780	0.39129257
240	0xbf135682	-0.57553875
241	0x3f3947be	0.72375095
242	0x3f101ced	0.5629414
243	0xbf0ca380	-0.5493698
244	0xbf0a3e9a	-0.5400177
245	0x3f391f0e	0.7231301
246	0xbf2325a8	-0.63729334
247	0xbe84a092	-0.25903755
248	0xbf0ca7f8	-0.549438
249	0x3f005fca	0.5014616
250	0x3f363722	0.71177876
251	0x3edaa447	0.4270346
252	0xbf030b16	-0.5118879
253	0xbf06eab6	-0.5270189
254	0x3f0ddeda	0.5541817
255	0xbf2610c2	-0.6486932

linear_trans_neigh.weight f4 [20, 20]
0	0x3da5d3da	0.08097048
1	0x3dacb4ef	0.08432948
2	0x3dcf6130	0.10125959
3	0x3d8fd964	0.07023886
4	0x3dc502b2	0.09619655
5	0x3d9360db	0.07196208
6	0x3dc5f13c	0.096651524
7	0x3da226b1	0.07917536
8	0x3db71d8c	0.089411825
9	0x3d56431c	0.052310094
10	0x3dc19eb1	0.09454096
11	0x3d886347	0.06659561
12	0x3d82eb33	0.06392517
13	0x3d90a28a	0.07062252
14	0x3d469563	0.04848231
15	0x3cfb3a22	0.030667368
16	0x3dcb74df	0.09934401
17	0x3d650044	0.055908456
18	0x3d995765	0.07487372
19	0x3d91b661	0.07114864
20	0x3da5c2c6	0.08093791
21	0x3dacbc0b	0.08434304
22	0x3dcf5f37	0.10125583
23	0x3d8ff61c	0.070293635
24	0x3dc4ea56	0.096150085
25	0x3d937c00	0.072013855
26	0x3dc5ea09	0.09663779
27	0x3da21cdc	0.07915661
28	0x3db71328	0.08939201
29	0x3d566fde	0.05235278
30	0x3dc16f6e	0.09445082
31	0x3d8860eb	0.06659111
32	0x3d82eadf	0.06392454
33	0x3d91cf7a	0.07119651
34	0x3d46aa35	0.048502166
35	0x3cfafca4	0.030638047
36	0x3dcb716c	0.09933743
37	0x3d6501a6	0.055909775
38	0x3d998813	0.07496657
39	0x3d91a26e	0.07111059
40	0x3da5c326	0.08093862
41	0x3dac48b6	0.08412306
42	0x3dcf5e97	0.101254635
43	0x3d8fe998	0.07026976
44	0x3dc4f0b1	0.09616221
45	0x3d937bd7	0.07201355
46	0x3dc5f1ff	0.09665298
47	0x3da229d1	0.07918132
48	0x3db70c3e	0.08937882
49	0x3d56905f	0.052383777
50	0x3dc1616c	0.0944241
51	0x3d885fe9	0.066589184
52	0x3d82f36d	0.06394086
53	0x3d9121ce	0.07086526
54	0x3d46c15d	0.04852425
55	0x3cfa894b	0.030583045
56	0x3dcb7ba6	0.099356934
57	0x3d6516ac	0.055929825
58	0x3d99806b	0.07495197
59	0x3d91b5c6	0.07114749
60	0x3da5c603	0.08094408
61	0x3dac7a26	0.084217355
62	0x3dcf5754	0.101240784
63	0x3d8ffb9a	0.07030411
64	0x3dc50409	0.0961991
65	0x3d932a71	0.071858294
66	0x3dc5fc14	0.09667221
67	0x3da22adb	0.0791833
68	0x3db71bd9	0.089408584
69	0x3d567010	0.052352965
70	0x3dc1a9d7	0.094562225
71	0x3d885ce1	0.0665834
72	0x3d82fae7	0.06395512
73	0x3d90c4a0	0.07068753
74	0x3d46976c	0.04848425
75	0x3cfa8926	0.030582976
76	0x3dcb710c	0.09933671
77	0x3d6514ef	0.055928167
78	0x3d99167b	0.07474991
79	0x3d91b0b0	0.071137786
80	0x3da5c379	0.08093924
81	0x3daca2d7	0.08429497
82	0x3dcf5e9c	0.10125467
83	0x3d8fda07	0.07024007
84	0x3dc4e755	0.096144356
85	0x3d9375fc	0.07200238
86	0x3dc5efc5	0.09664873
87	0x3da1fc85	0.079094924
88	0x3db71c96	0.08940999
89	0x3d565fef	0.052337583
90	0x3dc17d53	0.09447732
91	0x3d885d33	0.06658401
92	0x3d82e6e6	0.06391697
93	0x3d90ba1f	0.0706675
94	0x3d4692eb	0.048479956
95	0x3cfb4ab9	0.030675279
96	0x3dcb5f06	0.09930234
97	0x3d654c1f	0.055980798
98	0x3d990bbe	0.07472943
99	0x3d919af4	0.07109633
100	0x3da5d3c3	0.08097031
101	0x3dac4934	0.084124
102	0x3dcf6044	0.10125783
103	0x3d8fe9e5	0.07027034
104	0x3dc4dbae	0.09612213
105	0x3d9302e9	0.071782894
106	0x3dc5f779	0.09666342
107	0x3da20c1d	0.07912467
108	0x3db70ae9	0.08937628
109	0x3d564428	0.052311093
110	0x3dc147d7	0.094375305
111	0x3d886152	0.066591874
112	0x3d82f3a1	0.06394125
113	0x3d909d54	0.07061258
114	0x3d469395	0.04848059
115	0x3cfa87d1	0.03058234
116	0x3dcb7115	0.09933678
117	0x3d64d61c	0.055868253
118	0x3d99430d	0.07483492
119	0x3d91b6c5	0.07114939
120	0x3da5c213	0.08093657
121	0x3dac48b6	0.08412306
122	0x3dcf587b	0.10124298
123	0x3d900a35	0.07033197
124	0x3dc4ff65	0.09619025
125	0x3d9303a4	0.07178429
126	0x3dc5fd5d	0.09667466
127	0x3da21496	0.07914083
128	0x3db7154f	0.08939611
129	0x3d5672e5	0.052355666
130	0x3dc1af3f	0.09457254
131	0x3d885dc0	0.066585064
132	0x3d82eada	0.06392451
133	0x3d90e0f8	0.070741594
134	0x3d467387	0.04845002
135	0x3cfa871a	0.030582
136	0x3dcb6abc	0.09932467
137	0x3d652498	0.0559431
138	0x3d9974e5	0.07492999
139	0x3d91b590	0.071147084
140	0x3da5c27a	0.08093734
141	0x3dace447	0.08441978
142	0x3dcf5255	0.101231255
143	0x3d8ff0ed	0.07028375
144	0x3dc501f8	0.09619516
145	0x3d937994	0.072009236
146	0x3dc600b5	0.096681036
147	0x3da22a56	0.07918231
148	0x3db7131a	0.0893919
149	0x3d566c91	0.05234963
150	0x3dc1af2e	0.09457241
151	0x3d885f78	0.06658834
152	0x3d82f445	0.06394247
153	0x3d91c415	0.07117478
154	0x3d468b15	0.048472483
155	0x3cfa8736	0.030582052
156	0x3dcb7117	0.099336796
157	0x3d65384b	0.05596189
158	0x3d99a377	0.075018816
159	0x3d91b5fa	0.071147874
160	0x3da5bec2	0.08093025
161	0x3dac809d	0.084229685
162	0x3dcf54bb	0.10123583
163	0x3d8ff6ae	0.07029472
164	0x3dc500f9	0.09619326
165	0x3d9348c2	0.07191612
166	0x3dc5fc95	0.09667317
167	0x3da22aae	0.07918297
168	0x3db70b28	0.08937675
169	0x3d566496	0.05234202
170	0x3dc19cd0	0.09453738
171	0x3d885cbe	0.06658314
172	0x3d82ed8d	0.063929655
173	0x3d90a333	0.07062378
174	0x3d4688a6	0.04847016
175	0x3cfae0ad	0.030624712
176	0x3dcb716f	0.09933745
177	0x3d653f69	0.055968676
178	0x3d999aab	0.07500204
179	0x3d91b53b	0.07114645
180	0x3da5bdef	0.080928676
181	0x3dac48c0	0.084123135
182	0x3dcf5edc	0.10125515
183	0x3d8feb63	0.07027318
184	0x3dc5005f	0.096192114
185	0x3d937d55	0.072016396
186	0x3dc5f42b	0.09665712
187	0x3da22b22	0.07918383
188	0x3db7295b	0.08943435
189	0x3d5672bf	0.052355524
190	0x3dc18b4c	0.09450397
191	0x3d886643	0.0666013
192	0x3d82d9c4	0.06389192
193	0x3d90ece2	0.07076432
194	0x3d4692d1	0.04847986
195	0x3cfa7a72	0.030575965
196	0x3dcb7186	0.09933762
197	0x3d64d00e	0.05586248
198	0x3d9943fa	0.074836686
199	0x3d919e81	0.0711031
200	0x3da5c2d0	0.08093798
201	0x3dac495a	0.08412428
202	0x3dcf5eff	0.10125541
203	0x3d8fd240	0.07022524
204	0x3dc503a5	0.09619836
205	0x3d930507	0.07178693
206	0x3dc5f3c3	0.096656345
207	0x3da22a7f	0.07918262
208	0x3db72546	0.08942656
209	0x3d56962c	0.05238931
210	0x3dc1af22	0.09457232
211	0x3d885d72	0.06658448
212	0x3d82f3b4	0.06394139
213	0x3d913afb	0.07091328
214	0x3d46846a	0.048466124
215	0x3cfbc15b	0.030731848
216	0x3dcb737b	0.099341355
217	0x3d6508f0	0.055916727
218	0x3d9959a2	0.07487799
219	0x3d91ab49	0.07112748
220	0x3da5c227	0.08093672
221	0x3dacacc1	0.08431388
222	0x3dcf5eff	0.10125541
223	0x3d900115	0.070314564
224	0x3dc50001	0.09619141
225	0x3d92fcfe	0.07177161
226	0x3dc5ef97	0.09664839
227	0x3da22a01	0.07918168
228	0x3db70fd9	0.089385696
229	0x3d56603e	0.052337877
230	0x3dc18237	0.09448665
231	0x3d885de8	0.06658536
232	0x3d82f37c	0.06394097
233	0x3d913382	0.070899025
234	0x3d4690ed	0.048478056
235	0x3cfa8007	0.030578626
236	0x3dcb7103	0.09933665
237	0x3d6500cc	0.055908963
238	0x3d999576	0.074992105
239	0x3d91b621	0.071148165
240	0x3da5f025	0.081024446
241	0x3daca804	0.08430484
242	0x3dcf606b	0.10125812
243	0x3d8fe845	0.07026724
244	0x3dc4e977	0.096148424
245	0x3d937b15	0.072012104
246	0x3dc5fd8a	0.09667499
247	0x3da22f21	0.079191454
248	0x3db70b19	0.089376636
249	0x3d56920f	0.052385386
250	0x3dc19d90	0.09453881
251	0x3d8860b3	0.06659069
252	0x3d82eb59	0.06392545
253	0x3d90a7b3	0.07063236
254	0x3d4686de	0.048468463
255	0x3cfa72fb	0.030572405
